checkpoint/perturb/5/modified_NGD/mlp_epoch500_seed12.pt (torch, 67303 bytes, 3 tensors)

fc1.weight f4 [4096, 2]
0	0xbe072e85	-0.1320134
1	0xbe0072ec	-0.12543839
2	0x3eb04986	0.34431094
3	0xbee7623d	-0.45192137
4	0xbf6385b4	-0.8887589
5	0xbeb48ea8	-0.35265088
6	0xbfab2bad	-1.3372704
7	0x3f05b5e2	0.52230656
8	0xbf8e4fcb	-1.1118101
9	0xbf379219	-0.717073
10	0x3f85745a	1.0426133
11	0xbfa01fe2	-1.250973
12	0xbf02bb4d	-0.5106705
13	0xbec4c19a	-0.38428956
14	0xbefad0d5	-0.4898745
15	0x3f07d354	0.53056836
16	0xbefc59b3	-0.49287185
17	0xbe866aa7	-0.26253244
18	0xbe24e234	-0.16101915
19	0xbf565170	-0.83718014
20	0xbfa5b1fe	-1.2944944
21	0xbe864ecb	-0.2623199
22	0xbf1a9570	-0.60384274
23	0x3fad58e2	1.354275
24	0xc02f1c68	-2.7361088
25	0x3ff48d9d	1.9105717
26	0x3efc1e85	0.49242035
27	0xbf312af8	-0.6920619
28	0xbf31c68c	-0.69443583
29	0xbe598c9b	-0.21245043
30	0x3f5b390d	0.8563393
31	0xbf9b1894	-1.2116876
32	0xbdfe7fbb	-0.124267064
33	0x3ecc521b	0.39906392
34	0xbeb81615	-0.35954347
35	0x3eeaa8a5	0.4583179
36	0xbf8a97b9	-1.0827552
37	0xbf19c01f	-0.6005878
38	0x3d3e6d98	0.046491235
39	0x3f2ff5be	0.6873435
40	0xbf5f471b	-0.87217873
41	0x3f2a9ca4	0.66645265
42	0x3f35da0d	0.71035844
43	0x3d7dcb19	0.061961267
44	0xbf70b1eb	-0.9402148
45	0x3e391982	0.18076137
46	0xbf0dc5ff	-0.55380243
47	0x3fc09163	1.5044369
48	0x3f07ee7b	0.5309827
49	0x404b6fe3	3.178704
50	0xbf6523d4	-0.89507794
51	0xc02f9fce	-2.7441287
52	0x3f604043	0.87598056
53	0x3feb252f	1.8370723
54	0x3fbb7467	1.4644898
55	0x3cbc3b95	0.02297763
56	0x3f2c50d3	0.6731083
57	0xbf66f407	-0.90216106
58	0xbff47881	-1.9099275
59	0xbf7fdd9f	-0.9994754
60	0xbf5381a9	-0.8261972
61	0x3f74690f	0.95472807
62	0xbfebfba1	-1.8436166
63	0xbeffb7b7	-0.4994485
64	0xbfbd075a	-1.4767869
65	0x3f5ea12e	0.8696469
66	0x3e94509a	0.28967744
67	0xbf82cbea	-1.021848
68	0x3feaab64	1.8333554
69	0x3f28478e	0.65734184
70	0xbf4aa1bb	-0.7915303
71	0xbe2cef64	-0.16888195
72	0x3e96987e	0.29413217
73	0x3f99250e	1.1964433
74	0x3f869949	1.0515529
75	0xbf99b589	-1.2008525
76	0x3f9ef58e	1.2418687
77	0xbe9d44d9	-0.3071659
78	0xbe34ec3b	-0.1766824
79	0xbf3c331d	-0.7351549
80	0xbf1ae57b	-0.6050641
81	0x3e36f3b7	0.17866407
82	0xbfc8f705	-1.5700384
83	0x3e79a63e	0.24379823
84	0xbf815084	-1.0102696
85	0xbe3214d9	-0.17390765
86	0xbefa1988	-0.48847604
87	0xbf9587ea	-1.1682103
88	0x4087c974	4.2433414
89	0xc05065fc	-3.2562246
90	0xbf17a996	-0.5924314
91	0xbf35d52c	-0.710284
92	0x3f7fd732	0.99937737
93	0x3f4de0f9	0.80421406
94	0xbf6e6fde	-0.93139446
95	0xbfdb9cfa	-1.715728
96	0x3ed1f64a	0.41008216
97	0x3e5644cc	0.20924681
98	0x3d4608b0	0.04834813
99	0xbf444ddf	-0.7668132
100	0xbfc67a31	-1.550604
101	0xbff22bce	-1.8919618
102	0xbf97c2f0	-1.1856365
103	0xbf3483f3	-0.7051384
104	0xbee7a0f7	-0.45239994
105	0xbee1aaca	-0.44075614
106	0x40841fa5	4.128863
107	0xc037ba7d	-2.8707573
108	0xbf8b1f8e	-1.0869005
109	0x3ea693b2	0.32534558
110	0xbe94bfd0	-0.2905259
111	0xbef154e4	-0.4713508
112	0xbed298e5	-0.41132274
113	0xbd13ddb4	-0.036100104
114	0xbf414b94	-0.7550595
115	0xbe38fa22	-0.18064168
116	0x411487ac	9.283123
117	0xc08ab4b9	-4.334561
118	0x3d79cc45	0.060985822
119	0xbf328027	-0.69726795
120	0xbdbf6424	-0.09345272
121	0x3f203634	0.6258271
122	0xc0159133	-2.3369873
123	0xbe11ec8d	-0.14250393
124	0x3f28a92b	0.6588313
125	0xbd485997	-0.048913565
126	0xbea78c7d	-0.32724372
127	0xbf068013	-0.52539176
128	0xbfae96a4	-1.3639722
129	0x406656ad	3.5990403
130	0xbf94f614	-1.1637597
131	0xbf656583	-0.8960802
132	0xbfba7101	-1.4565736
133	0xbedb5b56	-0.4284312
134	0xbeb68166	-0.35645598
135	0xbf0594fd	-0.52180463
136	0x3e879d79	0.2648733
137	0xbfe16b04	-1.7610784
138	0xc052ca6a	-3.2936044
139	0x4012c267	2.2931154
140	0x3ec44fb3	0.38342056
141	0xbfb85508	-1.440095
142	0xbec54c67	-0.38534853
143	0xbf39235c	-0.7231958
144	0x400432ad	2.065593
145	0xbf19b954	-0.60048413
146	0xbf23f9a6	-0.6405281
147	0x4035bfef	2.8398397
148	0x3f758907	0.9591221
149	0xbe83e6af	-0.25761935
150	0xbf21427d	-0.6299208
151	0x3fe0505b	1.7524523
152	0xbffc1b53	-1.9695839
153	0xbf991aaf	-1.1961268
154	0x3f565361	0.83720976
155	0x3ee85d2e	0.4538359
156	0xbe1d9dab	-0.15392177
157	0x3eb6347b	0.35586914
158	0x3fdc07df	1.7189902
159	0x3fe13f2c	1.7597404
160	0xc07cac1b	-3.9480045
161	0x3f620bfa	0.88299525
162	0xbf9c71e4	-1.2222257
163	0x3e70beda	0.23510304
164	0xbea0c05b	-0.31396756
165	0x3f2ea314	0.6821759
166	0xbeb698d0	-0.35663462
167	0x3fbf96f4	1.4967942
168	0xbd100d02	-0.035168655
169	0x3f83eb99	1.0306274
170	0xbfa3cf25	-1.279759
171	0xbe8774f3	-0.26456413
172	0xbe1d464c	-0.15358847
173	0x3f514423	0.81744593
174	0xbe4ea01d	-0.20178266
175	0xbcdc481b	-0.026889851
176	0xbf3b0116	-0.7304853
177	0x3f6a1331	0.91435534
178	0xbfa44935	-1.2834841
179	0x3f87cfb2	1.0610259
180	0xbe9b0640	-0.30278206
181	0xbf5a9ab1	-0.8539229
182	0x3f99aaf7	1.2005299
183	0x3fa84a5e	1.3147695
184	0x403441ca	2.8165154
185	0xc04ad226	-3.1690764
186	0x3f00395d	0.5008753
187	0xbdc94dec	-0.098293155
188	0x3eaec44a	0.34134132
189	0x3f924c16	1.142947
190	0x40d164f2	6.5435724
191	0xbfacbf92	-1.3495963
192	0xbf49e1ad	-0.7885998
193	0x3f555e5d	0.8334711
194	0xbf9342d5	-1.150477
195	0xbf1794b4	-0.5921128
196	0xbf4d56bc	-0.8021047
197	0xbf9fd9f0	-1.2488384
198	0xbfaab189	-1.333543
199	0x3d818f52	0.06326164
200	0xbeb90378	-0.3613546
201	0x3fff6437	1.9952458
202	0xbd931f43	-0.07183697
203	0xbe598329	-0.2124144
204	0xbef57e62	-0.47947985
205	0xbf2cba5a	-0.6747185
206	0xbcac7ded	-0.02105614
207	0xbf2b03cd	-0.66802675
208	0xc0568387	-3.3517778
209	0x404c0e5d	3.1883767
210	0x40ecb613	7.397226
211	0xc04e9c7f	-3.2283018
212	0xc006af30	-2.1044426
213	0xbf8c88a8	-1.0979204
214	0x4166b407	14.418952
215	0xbebe7fb1	-0.37206796
216	0xc003b51f	-2.0579298
217	0xbe9ae4ae	-0.30252594
218	0xc13366ee	-11.212629
219	0x3fb97e4b	1.4491667
220	0xc00669d8	-2.1002102
221	0x4009f108	2.1553364
222	0x3f25055b	0.64461297
223	0xbf3af26a	-0.73026145
224	0xbee984a0	-0.45608997
225	0x3f49d373	0.7883827
226	0xbfcf41ac	-1.6191916
227	0x3f10f867	0.5662903
228	0xbf097785	-0.53698
229	0xc062733d	-3.5382836
230	0xbf78b57c	-0.97151923
231	0xbebb90ec	-0.36634004
232	0xbe29dc36	-0.1658791
233	0xbfffa88f	-1.9973315
234	0x3eceac71	0.40365937
235	0x3d994746	0.074842975
236	0x3f44069f	0.76572603
237	0xbf99e345	-1.2022482
238	0xbfe6f9fc	-1.8045039
239	0xbe481539	-0.19539346
240	0x3ecb0a3d	0.3965625
241	0x3e615179	0.22003736
242	0xbbe2ecca	-0.0069252
243	0xbf9374bd	-1.1520001
244	0xbf272158	-0.65285254
245	0xbf2fd45c	-0.6868341
246	0x3fff5b2b	1.9949697
247	0x3dd19d26	0.10235052
248	0x3d91c9a5	0.07118539
249	0x3db7a0a1	0.089661844
250	0x3eb8665e	0.360156
251	0xbe825cf0	-0.2546153
252	0x3f570e01	0.84005743
253	0xbe281aab	-0.16416423
254	0xbfebaa18	-1.8411283
255	0x3dc93bb8	0.098258436

fc1.bias f4 [4096]
0	0xbecabf89	-0.39599255
1	0x3f84be80	1.0370636
2	0xbfe54e1d	-1.7914463
3	0xbed63388	-0.4183619
4	0xbe3a45bf	-0.18190669
5	0xbf96af3e	-1.177223
6	0xbfc25788	-1.5182962
7	0xbf674303	-0.90336627
8	0xbfdfa070	-1.7470837
9	0xbfabe50a	-1.3429272
10	0xbe344bfc	-0.1760711
11	0xbe929eab	-0.2863668
12	0xbf5e05b6	-0.86727464
13	0xbfbbf7bb	-1.4684976
14	0xbf7118ad	-0.9417828
15	0x3e43ff7a	0.19140425
16	0xbf58f2b9	-0.84745365
17	0xbf546d4c	-0.82979274
18	0xbf74065f	-0.9532222
19	0xbf133839	-0.57507664
20	0xbf3c0df3	-0.73458785
21	0xbec070ac	-0.37585962
22	0x3d792261	0.060823802
23	0xbfc216d6	-1.5163219
24	0x3ef588ff	0.47956082
25	0xbf8da1f1	-1.1065046
26	0xbfe8e40c	-1.8194594
27	0xbf34d682	-0.7063981
28	0xbf657219	-0.89627224
29	0xbf9387f9	-1.152587
30	0x3f0516ce	0.5198792
31	0xbeebcf26	-0.4605648
32	0x3da563aa	0.0807565
33	0xbf1f1246	-0.6213726
34	0x3ecc3065	0.39880672
35	0xbf3cba82	-0.7372209
36	0xbe62ae41	-0.22136785
37	0xbf533663	-0.8250486
38	0xbfae1018	-1.3598661
39	0xbf088819	-0.5333267
40	0xbea0d4c3	-0.31412324
41	0xbf433751	-0.7625628
42	0xbfe4770c	-1.784883
43	0xbf95ded9	-1.1708633
44	0x3ed2bb45	0.411585
45	0xbea7ed80	-0.32798386
46	0x3da43d21	0.08019472
47	0xbf45d309	-0.7727514
48	0xbf55508f	-0.8332605
49	0xbfafa8de	-1.3723409
50	0x3ebb0f13	0.36534938
51	0xc02722d8	-2.6115017
52	0xbf8d7e34	-1.1054139
53	0x3dacb030	0.084320426
54	0xbfb54deb	-1.4164404
55	0xbf2d9e9e	-0.67820156
56	0xbfb26733	-1.3937744
57	0x3ea8426d	0.3286318
58	0xbf3f117d	-0.7463606
59	0xbf2933a6	-0.66094434
60	0xbfb5719f	-1.41753
61	0x3efde4d6	0.4958865
62	0xbf3f7aeb	-0.7479693
63	0xbd3fcc42	-0.046825655
64	0x3f29b6eb	0.66294736
65	0x3ef4e1c4	0.47828496
66	0x3f1a1c89	0.6019979
67	0xbf1bdf5c	-0.60887694
68	0xbf9ea807	-1.2395028
69	0xbe0ebf30	-0.1394012
70	0xbf8331f1	-1.0249616
71	0xbf0175df	-0.5057048
72	0x3f1b072a	0.60557806
73	0x3f4e1490	0.80500126
74	0xbf9f7a93	-1.2459282
75	0xbfa7d8bc	-1.3113017
76	0xbfab7df3	-1.3397812
77	0xbfce322b	-1.610906
78	0xbfbefa84	-1.4920201
79	0xc03adfac	-2.9199018
80	0xbafc6d2a	-0.0019258608
81	0xbfd06a26	-1.6282394
82	0xbf6a45b2	-0.91512597
83	0xbfe0fc62	-1.7577021
84	0xbfb631ba	-1.4233925
85	0xbe2e7fc8	-0.17040932
86	0xbf431f4d	-0.76219636
87	0xbf74e480	-0.95661163
88	0xbf4e0646	-0.8047832
89	0xbf843385	-1.0328223
90	0xbfa59112	-1.2934897
91	0xbf29d21d	-0.6633623
92	0x3f8e1bdf	1.1102256
93	0xbf6adac9	-0.9174009
94	0xbfab0eb7	-1.3363866
95	0x3fedb086	1.8569496
96	0xbf820142	-1.0156634
97	0xbf443e77	-0.76657814
98	0xbf888ff6	-1.0668933
99	0x3ea485ff	0.3213348
100	0x3e250c61	0.16118003
101	0xbf1c4b86	-0.6105274
102	0xbf10fb83	-0.56633776
103	0xbfb0fbf7	-1.3826894
104	0xbf653cd1	-0.89545923
105	0x3f17ccbd	0.5929678
106	0xbf18db38	-0.597095
107	0x3f5d60d4	0.86475873
108	0xbfa977aa	-1.3239644
109	0x3f85e19c	1.0459476
110	0xbfbce8d5	-1.4758555
111	0xbf45c87d	-0.77259046
112	0xbf40b317	-0.7527327
113	0xbf392638	-0.7232394
114	0x3f0ca6e4	0.54942155
115	0xbfcd730a	-1.6050732
116	0xbf67723f	-0.904087
117	0xbfc4e213	-1.5381492
118	0xbf9c5a27	-1.2215012
119	0x3dc0bbe1	0.09410835
120	0x3c436304	0.011925463
121	0xbf821373	-1.0162185
122	0xbf204db6	-0.6261858
123	0xbef9dc1b	-0.4880074
124	0xbf9094b4	-1.129538
125	0xbf894117	-1.0722989
126	0xbfc26675	-1.5187517
127	0x3dd25837	0.10270732
128	0xbfdb7d58	-1.7147627
129	0x3e0a94f0	0.13533378
130	0x3f0dd952	0.5540973
131	0xbf201313	-0.62529105
132	0xbea4639d	-0.3210725
133	0x3bbd390e	0.0057746237
134	0xbdafed6c	-0.085902065
135	0xbe228422	-0.15870717
136	0xbebdc7b1	-0.37066415
137	0xbf6616df	-0.8987865
138	0x3e8d3c4b	0.27585062
139	0x3ec17888	0.3778727
140	0x3daba9ab	0.08381971
141	0xbf93e120	-1.1553078
142	0xbffaf02a	-1.9604542
143	0xbf0ba968	-0.5455537
144	0xbd1f2a92	-0.038858958
145	0xbf84cdb2	-1.0375273
146	0xbeaf4c9f	-0.34238145
147	0xbf68be52	-0.90915406
148	0xbfa46fd8	-1.2846632
149	0xbf2f6fea	-0.6853014
150	0xbf69d18a	-0.91335356
151	0xbf8c437f	-1.0958098
152	0xbfad7f4e	-1.3554475
153	0xbf1e01ed	-0.6172169
154	0xbe044876	-0.12918267
155	0x3e5a2937	0.21304785
156	0xbfbcb6ef	-1.4743327
157	0xbf8c5865	-1.0964476
158	0xbf8d478a	-1.1037457
159	0xbec5beae	-0.3862204
160	0xbfadfdea	-1.3593113
161	0xbd2a6c5b	-0.041607242
162	0xbf5ea395	-0.86968356
163	0xbf1c0926	-0.6095146
164	0xbec023d1	-0.37527326
165	0xbf6c4905	-0.9229892
166	0xbeff268e	-0.49834102
167	0xbf545a1f	-0.82950014
168	0xbe64377f	-0.22286795
169	0x3d0d56d5	0.034506638
170	0xbf6051e0	-0.8762493
171	0x3e465714	0.19369155
172	0xbf77c845	-0.9678996
173	0xbf405ac9	-0.7513853
174	0x3e080b1c	0.13285488
175	0xbfa15695	-1.2604548
176	0xbf8f2f8b	-1.1186384
177	0xbfa241ad	-1.2676293
178	0xbfadcabc	-1.3577495
179	0xbd8842e9	-0.06653387
180	0xbfaa10d6	-1.3286388
181	0xbfb4aafc	-1.411468
182	0xbee91296	-0.45521992
183	0xc000f8f7	-2.0151956
184	0xbfc78255	-1.5586649
185	0xbf7ffa40	-0.99991226
186	0xbf80a028	-1.0048876
187	0xbf54e64c	-0.83163905
188	0xbdbc1e9f	-0.09185528
189	0x3ed05037	0.406862
190	0x3e86ef34	0.26354373
191	0xbfb62ce0	-1.4232445
192	0xbf1ce3ea	-0.6128527
193	0x3fccf628	1.6012621
194	0x3db5088a	0.08839519
195	0xbfece66e	-1.8507822
196	0xbf9ef996	-1.2419918
197	0xbf7fad7e	-0.99874103
198	0x3f20f342	0.6287118
199	0xbf055e7f	-0.52097315
200	0xbf7d0cd5	-0.98847705
201	0xbf876fdf	-1.0581015
202	0x3efd2f24	0.49450028
203	0xbf23baad	-0.6395672
204	0xbf410389	-0.7539602
205	0xbf517f45	-0.8183482
206	0xbfc5e0a0	-1.5459175
207	0xbe09ea40	-0.13468266
208	0xbf8b4729	-1.0881091
209	0xbeb012ae	-0.3438925
210	0xbf1ad70c	-0.60484385
211	0xbcdde1ae	-0.027085152
212	0xc01ec671	-2.480862
213	0xbf624bfe	-0.88397205
214	0xbfcae489	-1.5850993
215	0xbf044447	-0.5166668
216	0xc025313f	-2.5811307
217	0xbf95dd81	-1.1708223
218	0xbfe3d710	-1.7800007
219	0xc00d1fff	-2.205078
220	0xbf487002	-0.7829591
221	0xbfa363eb	-1.2764868
222	0x3ec0951c	0.3761376
223	0xbdfdb6eb	-0.123884045
224	0xbf820424	-1.0157514
225	0xbfa8beef	-1.3183268
226	0xbf19e6d1	-0.6011782
227	0xbef0a265	-0.46998897
228	0xbfbf9885	-1.496842
229	0xbf8c4018	-1.095706
230	0xbfdc27fd	-1.7199703
231	0x3f0f0f4b	0.5588271
232	0xbe780475	-0.2422045
233	0xbf795f52	-0.9741107
234	0xbeea82d3	-0.45802936
235	0xbf58a4d0	-0.84626484
236	0xbf8f90bf	-1.1216048
237	0x3efa1e49	0.4885123
238	0xbf03b0a7	-0.51441425
239	0x3e1ce049	0.15319933
240	0xbeb1e4b4	-0.347448
241	0xbfd688bd	-1.6760479
242	0xbf7ba94e	-0.98305213
243	0xbf9a96cb	-1.2077268
244	0xbf96e2ca	-1.178796
245	0xbf305264	-0.6887572
246	0xbf888712	-1.066622
247	0xbcaa2b1c	-0.02077251
248	0xbf7fe9fe	-0.9996642
249	0x3e7a6904	0.24454123
250	0xbf0bc409	-0.54596
251	0xbfee6723	-1.8625225
252	0xbf6e7ff5	-0.93163997
253	0xbdf8a17d	-0.121401764
254	0xbd819b87	-0.063284926
255	0xbe9f4fc5	-0.31115547

fc2.weight f4 [1, 4096]
0	0xbbffd37f	-0.0078071947
1	0xbc5cd37d	-0.013478157
2	0x3c9c94f5	0.019113997
3	0xbb32e720	-0.0027298406
4	0xbccf24ed	-0.025286162
5	0x3cd5d74a	0.026103634
6	0x3d0fd5bc	0.035115942
7	0x3cce39c5	0.025174031
8	0xbbb5528e	-0.005533523
9	0xbb9c6517	-0.004772793
10	0x3c385ceb	0.011252622
11	0x3c54523e	0.012959061
12	0x3b04b48d	0.0020249218
13	0xbc92409e	-0.017853078
14	0x3cfafeb8	0.030639037
15	0x3d1af640	0.0378325
16	0xbc485d30	-0.012229249
17	0x3c787848	0.015165396
18	0xbcdbe1e1	-0.026841106
19	0x3b9318d4	0.0044890437
20	0xbc42de8c	-0.01189388
21	0x3ca31528	0.019907549
22	0xbbecfcfa	-0.0072323056
23	0x3b804006	0.003913882
24	0xbcb741c1	-0.022370221
25	0x3c682bdd	0.014170614
26	0x3b30c7dc	0.0026974594
27	0xbac97d0c	-0.001537235
28	0xbbf269c3	-0.0073978617
29	0xbbf7075f	-0.0075387205
30	0xbd3a7789	-0.045524154
31	0xbca01745	-0.019542346
32	0x3b8164b8	0.003948774
33	0xbb578429	-0.003288517
34	0x3bd04159	0.0063554463
35	0x3d03b35f	0.032153483
36	0x3c39888b	0.011324058
37	0x3b212fcf	0.0024595147
38	0x3ce1dc52	0.027570877
39	0xbbfb9e11	-0.007678755
40	0x3bc70545	0.006073626
41	0x3ca09677	0.019602997
42	0x3c672ae6	0.014109349
43	0x3bcbda63	0.006221102
44	0x3cd5c70a	0.026095886
45	0xbc276de9	-0.010219076
46	0x3c83993e	0.016064283
47	0x3cf0e058	0.02940385
48	0x3d002979	0.03128955
49	0xbbdf102b	-0.0068073473
50	0xbc80eabd	-0.015736932
51	0xba8427ed	-0.00100827
52	0xbc87f806	-0.016597759
53	0x3c61eca4	0.01378933
54	0x3d24cb22	0.040232785
55	0x3b78bdce	0.003795493
56	0xbb18b401	-0.002330065
57	0xbc5a76d9	-0.013334
58	0x3d1fce8a	0.03901533
59	0xbcc44cb8	-0.023962364
60	0x3c11470a	0.008867035
61	0xbcabad37	-0.020956619
62	0x3b873f01	0.0041273837
63	0xbc176bfc	-0.009242054
64	0xbcd287fd	-0.02569961
65	0xbd26279a	-0.04056511
66	0x3cbb9079	0.022896038
67	0x3d31abce	0.043376736
68	0x3cdaa461	0.02668971
69	0x3ca66257	0.020310564
70	0xbcf50cef	-0.029913394
71	0x3c859bc6	0.01630963
72	0x3b14b0b8	0.002268834
73	0xbc1f3437	-0.009717039
74	0x3d54ca40	0.051950693
75	0xbc8ee317	-0.01744227
76	0x3cae72ae	0.021294918
77	0xbc9e1358	-0.019296333
78	0x3d546f25	0.05186381
79	0x3cff947b	0.03119873
80	0xbd22e4d0	-0.039768994
81	0xbd80027e	-0.06250475
82	0xbbc0903f	-0.0058765705
83	0x3c2deed5	0.010616024
84	0x3b6de21d	0.0036298104
85	0x3c15b219	0.0091367
86	0x3d04848f	0.03235298
87	0x3c18762c	0.009305518
88	0x3ca23f73	0.019805646
89	0x3c548461	0.012971015
90	0xbc80800f	-0.015686063
91	0xbc0387c3	-0.008027974
92	0x3c99a659	0.018756079
93	0xbc9a4498	-0.018831536
94	0xbcff97b0	-0.03120026
95	0x3c2bd126	0.010486877
96	0xbc388f0d	-0.011264575
97	0x3bd95032	0.0066318745
98	0x3aef243e	0.0018245054
99	0xbd51133d	-0.051043738
100	0xba83bd53	-0.001005093
101	0x3b9f332e	0.004858396
102	0x3d3b0c24	0.045665875
103	0x3c72317a	0.014782304
104	0xbc9cec74	-0.019155718
105	0x3ce94a95	0.028477946
106	0xbc88a22f	-0.016678898
107	0x3c3f059e	0.011659054
108	0xbcc216f6	-0.02369259
109	0xbc2d3a58	-0.010572992
110	0xbd212001	-0.039337162
111	0xbc215fe5	-0.009849523
112	0xbaf368d6	-0.0018570672
113	0xbaca0c3a	-0.0015415021
114	0x3d3d3569	0.046193514
115	0x3bf7a615	0.0075576403
116	0x3c4da79b	0.012552167
117	0xbd1fa9b5	-0.038980205
118	0x3ca78a2d	0.02045163
119	0xbc991178	-0.018685088
120	0x3d2694d5	0.04066928
121	0x3d0956fd	0.033530224
122	0xbbe5a7f5	-0.0070085474
123	0xbcbfeda7	-0.023428751
124	0xbd00a69d	-0.031408895
125	0xbc023605	-0.00794745
126	0x3c3664f5	0.0111324685
127	0xbb9c16f1	-0.004763477
128	0xbc03d735	-0.008046915
129	0xbc4dac74	-0.012553323
130	0xbcd04bc9	-0.025426762
131	0x3a8b2d17	0.0010618296
132	0x3cc7ae73	0.024375176
133	0x3d076662	0.033056624
134	0xbb658ae3	-0.003502541
135	0x3c1f9adc	0.009741511
136	0x3a1c7d16	0.0005969567
137	0x3a9b00fb	0.0011825854
138	0x3c8882d4	0.016663946
139	0x3d78a660	0.060705543
140	0xbd666158	-0.056245178
141	0xbd40b428	-0.04704681
142	0xbc34b966	-0.011030531
143	0x3bf0eca9	0.007352431
144	0xbc04d5e5	-0.008107637
145	0xbcc16f21	-0.02361256
146	0xbc414a81	-0.011797548
147	0x3be811db	0.0070822067
148	0xbd06745e	-0.03282582
149	0xba861236	-0.0010228816
150	0xbd1664b1	-0.03671712
151	0x3c39c62b	0.011338751
152	0x3c46fc7f	0.012145161
153	0x3c428875	0.011873354
154	0xbcadbc5d	-0.021207983
155	0x3c56850c	0.013093244
156	0x3b9e613f	0.00483337
157	0xbbd7d4f0	-0.0065866634
158	0x3c41e926	0.011835372
159	0x3ceb6d4a	0.028738637
160	0xbca065c7	-0.019579781
161	0xbd07e557	-0.0331777
162	0xbbf377ed	-0.0074300678
163	0x3c232dab	0.009959619
164	0xbc10ab65	-0.008829926
165	0x3d0658b0	0.032799423
166	0xbc13c8c2	-0.009020032
167	0x3c274ecc	0.010211658
168	0x3b918130	0.004440449
169	0xbc460bb4	-0.012087751
170	0xbc02d882	-0.00798619
171	0x3b8d1385	0.0043053054
172	0xbc14634e	-0.009056879
173	0xb963f840	-0.00021740887
174	0xbc876e58	-0.016532108
175	0xbbd37f0f	-0.0064543555
176	0x3b925d1e	0.004466667
177	0x3bd068b8	0.0063601397
178	0x3c0b5c26	0.008505857
179	0x3b83f240	0.004026681
180	0x3bad9821	0.005297676
181	0x3bc521d4	0.0060159955
182	0x3c98b37f	0.018640278
183	0x3c7fa2b1	0.0156027535
184	0x3cc66c90	0.024221689
185	0x3d21e966	0.039529227
186	0x3c7d782f	0.0154705485
187	0x3ca3dfc9	0.02000417
188	0x3b03f686	0.0020135953
189	0xbc47cf9e	-0.012195496
190	0xbcbdb1be	-0.023156043
191	0x3aecfb5d	0.0018080283
192	0xbc30c3d0	-0.010788873
193	0x3c0f149a	0.008732939
194	0x3a15f598	0.0005720495
195	0xbb274972	-0.0025525955
196	0x3c55a7b8	0.013040476
197	0x3ca13111	0.019676717
198	0xbc0f8c88	-0.008761533
199	0xbb793d58	-0.0038030948
200	0xbb5525ed	-0.0032523826
201	0x3b51447a	0.0031931684
202	0xbc98dbd4	-0.01865951
203	0x3cb0fe6f	0.021605698
204	0xbc383232	-0.011242436
205	0xbc416997	-0.01180496
206	0x3c507794	0.012723822
207	0x3d0202aa	0.031740822
208	0x3afaeafa	0.0019143515
209	0x3c0304c2	0.00799674
210	0xbce10c53	-0.027471697
211	0x3d46ec2b	0.04856507
212	0x3cca7701	0.024714949
213	0xbc8174fa	-0.01580285
214	0xbcbce6a9	-0.023059206
215	0xbc20501b	-0.009784724
216	0x3c6c130c	0.014408838
217	0x3c0237a3	0.007947835
218	0xbc719f5d	-0.014747468
219	0xbc537e71	-0.012908564
220	0xbc24c88c	-0.01005758
221	0x3cb10371	0.021608086
222	0x3a928969	0.0011179867
223	0x3bbc3266	0.0057433126
224	0xbc8c91a5	-0.017159292
225	0xbd05f15f	-0.032700893
226	0xbc4a738d	-0.012356651
227	0x3d109f90	0.03530842
228	0x3cc19b17	0.023633523
229	0xbc9d3467	-0.019190026
230	0x3c0442ca	0.008072564
231	0x3c4e4bf2	0.012591349
232	0x3ca647df	0.020297943
233	0xbc648406	-0.013947492
234	0x3c9cb0c4	0.019127257
235	0x3beb9d51	0.0071903844
236	0xbc851019	-0.016243028
237	0x3c8f83ba	0.017518867
238	0x3b8fd5ce	0.004389501
239	0x3c389b1d	0.011267451
240	0x3cde7cc2	0.027159099
241	0xbcb37cbd	-0.021910066
242	0x3b3e7300	0.0029060245
243	0xbaa20dda	-0.0012363747
244	0x3cb327ec	0.021869622
245	0x3d1d9772	0.038474508
246	0xbcf30785	-0.029666672
247	0xbc8fa81d	-0.017536217
248	0xbb67f6dc	-0.0035394942
249	0xbb5fb1f6	-0.0034133173
250	0x3d11c483	0.0355878
251	0x3c0b777d	0.008512375
252	0x3c0ef823	0.008726153
253	0xbcdf1bcc	-0.027234934
254	0x3b7636e0	0.003756933
255	0x3ba8ff11	0.0051573594
