checkpoint/perturb/1/SGD/mlp_epoch497_seed10.pt (torch, 67303 bytes, 3 tensors)

fc1.weight f4 [4096, 2]
-0.817334 -0.5555685 -0.82668954 -1.2969544 -66.14466 -40.990852 -63.19596 -77.84934
-0.7464958 1.0050938 -0.25683922 0.47649285 -0.6652101 -0.36266556 -1.4503511 -0.24958687
0.1519095 0.68131316 -2.839515 -0.6487781 1.0762837 -0.06622858 0.13152696 0.1680934
-152.6546 -92.08943 0.9534983 0.3553398 0.21209356 -0.3377707 -0.3536096 -0.2729078
-0.518328 0.34799746 -1.2645165 -0.43443865 -2.180599 -1.1093749 -2.041038 0.033365227
-1.0804982 -0.88324875 -4.0095882 -1.7281804 -1.1151164 0.14900762 -1.0923007 -1.4551283
-0.48109606 -1.0822992 -5.411704 0.112533 -6.9051266 -2.0076246 -0.9179765 -0.9615129
-0.0050771814 0.35382238 -0.3559603 -0.766557 -0.10263337 -0.09526543 -0.24599971 -1.4636488
0.5072952 -1.1632421 -0.22293688 -1.138977 0.5853054 -1.3658185 -1.3333778 0.14503853
-0.21513626 -2.3331835 0.075626425 0.005482177 0.02007923 -1.5847541 -2.3363225 -1.4304799
0.6273193 -0.29026905 -2.735913 -0.31862447 0.23463961 -0.4360612 -0.21945974 -1.7205534
0.09159636 0.8360958 -2.784836 -2.1251028 -2.297786 0.7648387 -4.908831 -2.6505463
0.26068574 0.104370944 -0.25376996 -0.14865488 -0.57789415 -1.619235 -0.27535307 -0.37029237
0.77216005 -1.4566634 -0.7037135 -0.63309014 1.0014485 0.73063785 -2.2644422 -1.3223895
-0.15123656 -1.0145317 -24.468966 -6.8438983 0.66084045 -0.5189463 -2.8612432 -1.5532686
-0.83493507 -0.5936824 -3.6681187 -1.5004172 -0.94868207 0.58783126 0.50657177 -1.2699211
-0.1745987 1.1172311 -5.389296 -1.7095617 0.12544443 1.0468426 -1.3446107 -0.3005917
-0.2916376 -0.35506445 -0.39952603 -0.2680602 -112.087975 -68.52121 -0.20513675 0.05157998
-0.072501525 -1.2696005 -1.8333023 0.7659004 0.39233747 0.4299012 0.19120899 -1.1700234
-4.448613 -2.4321342 -2.776371 -1.4529009 -1.4256731 -0.6299752 -0.17433566 -0.5053794
0.23521294 -0.29195127 -1.0891243 0.6177967 -1.1972722 0.82521623 -4.41738 -1.2228351
0.034313492 -0.35473597 -0.01604507 -0.89844555 -0.15489921 1.1230476 -2.3359382 -0.5414097
-1.5554901 -0.30947506 -1.5137074 0.61096066 1.3838148 0.93957776 -0.27534935 -2.765235
0.5241437 0.48322153 -0.8039115 -1.2599117 -0.30742204 -0.27648818 -2.4868088 -1.0496309
0.53344893 0.06669461 -1.4927319 0.10174836 -1.2476009 -1.1492466 -4.8406305 -2.11063
-2.4824896 -1.6449827 -1.1888186 -0.3021228 -4.403036 -0.38852564 -2.7251976 -0.65876985
0.07102351 -1.80587 -104.99778 -44.274734 -0.025103541 -1.0609608 0.64258355 -1.4208424
-0.62398785 -0.6564191 -2.8499417 -2.2050705 -0.20759657 -0.6007337 0.9788356 0.27134737
-0.5245638 0.056459155 -3.6138387 -1.3899446 0.3077674 -1.7431962 -1.1199018 -0.0031897405
-0.8784938 -0.81614316 -1.5947053 -1.4591331 -2.2393484 -1.3973882 -0.23876965 -0.44981977
-0.009401027 -0.00522276 0.8138511 -0.6222966 0.23985511 0.060301334 1.0531985 -0.028399227
-0.20377856 -1.6760126 -3.6057007 -0.9249008 -0.9158111 -1.4352175 0.9042667 -0.16037178
00000000: cd3c 51bf bd39 0ebf eda1 53bf 9a02 a6bf
00000010: 114a 84c2 a2f6 23c2 aac8 7cc2 ddb2 9bc2
00000020: 591a 3fbf eaa6 803f 6e80 83be dff6 f33e
00000030: 364b 2abf 4daf b9be 1ba5 b9bf b393 7fbe
00000040: 2a8e 1b3e 8a6a 2e3f 9dba 35c0 5216 26bf
00000050: aac3 893f daa2 87bd 01af 063e ad20 2c3e
00000060: 94a7 18c3 ca2d b8c2 7718 743f 19ef b53e
00000070: 0e2f 593e 48f0 acbe 510c b5be 92ba 8bbe
00000080: 25b1 04bf b92c b23e addb a1bf be6e debe
00000090: ef8e 0bc0 ffff 8dbf 5ea0 02c0 faa9 083d
000000a0: c44d 8abf 971c 62bf 8c4e 80c0 0435 ddbf
000000b0: 22bc 8ebf 7495 183e 82d0 8bbf a541 babf
000000c0: 3952 f6be c888 8abf ae2c adc0 b477 e63d
000000d0: ccf6 dcc0 ec7c 00c0 8200 6bbf b625 76bf
000000e0: 7c5e a6bb 3528 b53e 6e40 b6be 143d 44bf
000000f0: 7231 d2bd 861a c3bd 59e7 7bbe d858 bbbf
00000100: 19de 013f 1ee5 94bf 9149 64be 00ca 91bf
00000110: 93d6 153f 24d3 aebf 20ac aabf fb84 143e
00000120: ae4c 5cbe e152 15c0 07e2 9a3d d5a3 b33b
00000130: 337d a43c 39d9 cabf 4f86 15c0 f719 b7bf
00000140: ff97 203f 259e 94be 3319 2fc0 bf22 a3be
00000150: 5e45 703e 6a43 dfbe 0eba 60be 183b dcbf
00000160: df96 bb3d 600a 563f c13a 32c0 af01 08c0
00000170: ed0e 13c0 78cc 433f 2515 9dc0 8da2 29c0
00000180: 9a78 853e 6fc0 d53d 23ee 81be fc38 18be
00000190: dff0 13bf 1843 cfbf 14fb 8cbe f696 bdbe
000001a0: 48ac 453f f273 babf 9126 34bf 3212 22bf
000001b0: 772f 803f 150b 3b3f 9fec 10c0 0f44 a9bf
000001c0: c2dd 1abe 2ddc 81bf 71c0 c3c1 3701 dbc0
000001d0: d72c 293f aad9 04bf 9c1e 37c0 81d1 c6bf
000001e0: 4ebe 55bf 92fb 17bf 75c2 6ac0 ac0d c0bf
000001f0: d4dc 72bf 1c7c 163f b0ae 013f c68c a2bf
00000200: 00ca 32be 6e01 8f3f 1d75 acc0 ebd2 dabf
00000210: 8174 003e f0fe 853f 341c acbf 28e7 99be
00000220: 8651 95be 02cb b5be ad8e ccbe 303f 89be
00000230: 0b2d e0c2 dc0a 89c2 5e0f 52be 8745 533d
00000240: ae7b 94bd 4582 a2bf a6a9 eabf 0c12 443f
00000250: 75e0 c83e 031c dc3e 4acc 433e 54c3 95bf
00000260: 0a5b 8ec0 16a8 1bc0 10b0 31c0 a8f8 b9bf
00000270: 757c b6bf 0e46 21bf 0c85 32be 8b60 01bf
00000280: a9db 703e a37a 95be 6d68 8bbf ed27 1e3f
00000290: 3740 99bf 5f41 533f 2d5b 8dc0 dc85 9cbf
000002a0: 4e8c 0c3d f49f b5be f370 83bc 8700 66bf
000002b0: e69d 1ebe 06c0 8f3f 0380 15c0 d399 0abf
000002c0: 4d1a c7bf 8473 9ebe 2ac1 c1bf eb67 1c3f
000002d0: d820 b13f 2b88 703f 97fa 8cbe 9cf9 30c0
000002e0: 482e 063f d068 f73e 25cd 4dbf c944 a1bf
000002f0: 6c66 9dbe dc8f 8dbe e027 1fc0 4e5a 86bf
00000300: 1c90 083f 2f97 883d d711 bfbf 7261 d03d
00000310: 63b1 9fbf 831a 93bf 72e6 9ac0 9014 07c0
00000320: 1ce1 1ec0 cb8e d2bf 352b 98bf d7af 9abe
00000330: ace5 8cc0 d5ec c6be a369 2ec0 24a5 28bf
00000340: c674 913d c026 e7bf ddfe d1c2 5419 31c2
00000350: f1a5 cdbc 90cd 87bf 5b80 243f 2ade b5bf
00000360: abbd 1fbf 150b 28bf 7265 36c0 e01f 0dc0
00000370: 3294 54be afc9 19bf f894 7a3f 0bee 8a3e
00000380: d049 06bf b741 673d 2249 67c0 b4e9 b1bf
00000390: b093 9d3e 0e21 dfbf f158 8fbf f70a 51bb
000003a0: f8e4 60bf c2ee 50bf 4e1f ccbf e0c4 babf
000003b0: 7c51 0fc0 9edd b2bf 0880 74be c74e e6be
000003c0: c406 1abc b023 abbb 8c58 503f d44e 1fbf
000003d0: 949c 753e 88fe 763d 35cf 863f 7fa5 e8bc
000003e0: 54ab 50be 9587 d6bf cdc3 66c0 4dc6 6cbf
000003f0: 9972 6abf 35b5 b7bf 067e 673f 8038 24be

fc1.bias f4 [4096]
-1.1979427 -0.4721276 -80.98316 -102.83447 -0.5710393 -0.48213002 -0.11708015 -0.700537
-1.8711867 -4.628343 -2.4882915 -1.0247301 -188.52992 -1.1502519 -0.89447826 -1.9408891
-3.14469 0.12049219 -1.4559788 -1.6607462 0.19059412 -5.147302 -0.43635038 0.23343319
-0.9873361 -6.1826525 -7.222052 -0.9294994 -1.3307025 -1.9512438 -0.86330545 -0.51752204
-0.56494224 -1.4515746 -1.8256917 -0.4742896 -2.565655 -2.3523571 -1.3554736 -6.5438304
-0.87706065 -4.0064726 -0.3531036 -0.45457825 -1.1863636 -5.202215 -0.62411386 -6.342231
-1.738624 -1.7744614 0.4699548 -0.80074716 -0.93673813 -0.8568238 -2.1731043 -0.16033323
-2.904213 -28.089916 -1.3806744 -4.215264 -0.42800894 -5.8020997 -0.12035652 -0.8413525
-1.3615092 -6.6078806 -1.1033205 -2.538414 -0.33811486 -1.7080187 -140.31332 -0.2697183
-0.5942581 -0.5745798 -0.918127 -0.40227142 -6.367338 -5.1412144 -1.3006124 -0.2530467
-0.9176879 -1.6465619 -1.196586 -5.2566442 -0.7711266 -0.49594763 -2.1846907 -1.8547505
-1.4150857 -0.9356766 -2.0395496 -0.9331743 -1.5769396 -0.8348055 -0.70110464 -0.35126346
-0.5799599 -0.56090516 0.87746644 -4.769039 -2.2796197 -0.6276476 -5.122999 -2.33337
-0.43304956 -119.476295 -1.1543691 -0.94202065 -0.2519089 -6.485536 -1.1619251 -1.5545264
-0.2779377 -3.9460304 -0.9231092 -0.6933627 -0.08374494 -1.8179797 -0.6962533 -0.9593993
-0.56768596 -0.87052923 -0.33859235 -1.2967484 -0.15585573 -5.507882 -0.12751259 -1.0024372
-7.33024 -10.523456 -1.1932416 -2.5715334 -0.71351063 0.11624817 -1.0178607 -1.1646419
-0.6223118 -0.73657954 -0.34759378 -0.94215775 0.252822 -0.18903215 0.79302716 -3.1706939
-0.22976594 -1.2099087 -1.465288 -0.4575571 -1.658184 0.5873583 -0.855189 -0.6546359
-1.6352823 -3.684497 -0.16591343 -1.0714135 -1.7018731 -0.42260987 -1.4647499 -1.1329007
-1.5159898 -0.65738565 -0.12280521 -10.513926 -0.29554722 -0.682808 -1.0737603 -0.98021954
-0.045474045 -1.0702423 -2.8627088 -1.1055236 -0.799874 -0.78998005 -0.32898337 -1.5336299
-1.7709512 -101.5364 -2.32867 -0.63591665 0.22040604 -0.9077276 -0.66573244 -1.3279561
-1.1055067 -0.5710138 -323.17972 -0.16461839 -0.427271 -1.2896906 -7.5451374 -2.1852436
-3.7769997 0.09908985 -5.378686 -1.421054 -0.7634434 -0.41553655 -0.88458943 -0.8845998
-1.6490512 -34.184555 -0.9899555 -0.44993114 -1.8305893 0.4529359 -7.1504116 -0.654875
-1.4016565 -2.137977 -6.593176 0.38723758 -4.3830404 -8.545321 -0.7755334 -30.79896
-1.5970271 -1.2073009 -1.4300216 -0.53614664 -0.89620805 -0.89847267 -143.11353 -5.1098294
-13.523981 -1.1058081 -2.0239635 -0.5904948 -1.1117128 -1.0945032 -1.6991981 -1.4588635
-3.0694315 -0.96421367 -1.8295938 0.15961382 -1.0505493 -0.064461626 -0.62489575 -2.1149676
-0.31760603 -2.1753075 -0.7951635 -0.34515288 -5.029523 -2.3318698 -0.15092246 -1.0276729
0.001340607 -0.06535969 -1.7064102 -0.633862 -0.382628 -0.26432163 -5.057612 -1.1111144
00000000: 3056 99bf b5ba f1be 61f7 a1c2 40ab cdc2
00000010: a22f 12bf bfd9 f6be b8c7 efbd 6556 33bf
00000020: 0c83 efbf 631b 94c0 2b40 1fc0 5b2a 83bf
00000030: a987 3cc3 743b 93bf 87fc 64bf 0e6f f8bf
00000040: 9a42 49c0 9cc4 f63d 835d babf 5593 d4bf
00000050: 1b2b 433e b3b6 a4c0 5169 dfbe 1c09 6f3e
00000060: 0fc2 7cbf 4ad8 c5c0 0d1b e7c0 acf3 6dbf
00000070: 7654 aabf 5bc2 f9bf 9601 5dbf 537c 04bf
00000080: 0ea0 10bf 32cd b9bf 44b0 e9bf 16d6 f2be
00000090: b133 24c0 058d 16c0 2980 adbf 0f67 d1c0
000000a0: 0c87 60bf 0635 80c0 ffc9 b4be 7bbe e8be
000000b0: c3da 97bf 8c78 a6c0 edc5 1fbf 8ef3 cac0
000000c0: 3b8b debf 8d21 e3bf ea9d f03e c4fd 4cbf
000000d0: 12ce 6fbf ce58 5bbf 2414 0bc0 652e 24be
000000e0: a0de 39c0 26b8 e0c1 f0b9 b0bf 71e3 86c0
000000f0: fd23 dbbe cdaa b9c0 7b7d f6bd e162 57bf
00000100: ef45 aebf c273 d3c0 9b39 8dbf 6075 22c0
00000110: 641d adbe 5ba0 dabf 3650 0cc3 8418 8abe
00000120: 4d21 18bf a917 13bf 5f0a 6bbf 85f6 cdbe
00000130: 3cc1 cbc0 d484 a4c0 787a a6bf 568f 81be
00000140: 98ed 6abf 8ac2 d2bf bb29 99bf 6e36 a8c0
00000150: 8e68 45bf d9ec fdbe f9d1 0bc0 7768 edbf
00000160: 8721 b5bf 8088 6fbf fb87 02c0 83e4 6ebf
00000170: 28d9 c9bf d0b5 55bf 987b 33bf ced8 b3be
00000180: 4178 14bf 7b97 0fbf a4a1 603f f89b 98c0
00000190: 4ae5 11c0 83ad 20bf 9cef a3c0 ef55 15c0
000001a0: acb8 ddbe ddf3 eec2 5ec2 93bf 4428 71bf
000001b0: 34fa 80be 8389 cfc0 f6b9 94bf b9fa c6bf
000001c0: da4d 8ebe c38b 7cc0 e250 6cbf 3880 31bf
000001d0: 7882 abbd 8fb3 e8bf a83d 32bf 319b 75bf
000001e0: de53 11bf 01db 5ebf fa5b adbe dafb a5bf
000001f0: a598 1fbe 9240 b0c0 a992 02be dd4f 80bf
00000200: 5391 eac0 1360 28c1 24bc 98bf 0194 24c0
00000210: a2a8 36bf 8513 ee3d 4249 82bf fc12 95bf
00000220: d34f 1fbf 7a90 3cbf d0f7 b1be 4031 71bf
00000230: e371 813e a591 41be d403 4b3f a6ec 4ac0
00000240: c347 6bbe 4ade 9abf 8f8e bbbf ed44 eabe
00000250: 603f d4bf 1d5d 163f abed 5abf 3896 27bf
00000260: ee50 d1bf cdce 6bc0 36e5 29be 1424 89bf
00000270: fad6 d9bf 5260 d8be ed7c bbbf e402 91bf
00000280: f40b c2bf 6d4a 28bf 4c81 fbbd 0a39 28c1
00000290: f751 97be 81cc 2ebf fa70 89bf abef 7abf
000002a0: fe42 3abd b3fd 88bf 9f36 37c0 cc81 8dbf
000002b0: 8bc4 4cbf 223c 4abf 8270 a8be fc4d c4bf
000002c0: 87ae e2bf a312 cbc2 ee08 15c0 6fcb 22bf
000002d0: 1fb2 613e d660 68bf 716d 2abf 77fa a9bf
000002e0: 3e81 8dbf f62d 12bf 0197 a1c3 b991 28be
000002f0: 44c3 dabe 9514 a5bf c471 f1c0 08db 0bc0
00000300: 5dba 71c0 9fef ca3d 321e acc0 19e5 b5bf
00000310: 0771 43bf 35c1 d4be 7474 62bf 2275 62bf
00000320: 1c14 d3bf fcbc 08c2 b96d 7dbf 605d e6be
00000330: c050 eabf 37e7 e73e 2cd0 e4c0 e3a5 27bf
00000340: 7b69 b3bf 9dd4 08c0 4cfb d2c0 0144 c63e
00000350: de41 8cc0 a3b9 08c1 5b89 46bf 4564 f6c1
00000360: 626b ccbf d688 9abf f30a b7bf e840 09bf
00000370: e46d 65bf 4e02 66bf 101d 0fc3 b983 a3c0
00000380: 3a62 58c1 1f8b 8dbf 9e88 01c0 ab2a 17bf
00000390: 9b4c 8ebf ae18 8cbf 537f d9bf 0abc babf
000003a0: 9171 44c0 b5d6 76bf 2130 eabf ce71 233e
000003b0: 6678 86bf 7504 84bd 2bf9 1fbf a15b 07c0
000003c0: 429d a2be 3d38 0bc0 d68f 4bbf e1b7 b0be
000003d0: daf1 a0c0 5b3d 15c0 6b8b 1abe c98a 83bf
000003e0: 4eb7 af3a 4ddb 85bd a66b dabf c844 22bf
000003f0: d1e7 c3be 2a55 87be f5d7 a1c0 ff38 8ebf

fc2.weight f4 [1, 4096]
-0.0029075115 -0.023349728 -19.529686 5.5216727 -0.012931823 -0.00042014444 0.012513777 -0.02126689
4.542392 30.633665 0.02427347 0.029064732 -18.046654 -0.0013661105 -0.021376181 -0.033331834
16.960377 0.00013939725 -0.0076477826 0.020105366 0.054346845 45.74145 0.046953216 -0.003103254
0.026455814 49.414574 55.645462 -0.0034755245 0.003767159 0.011626815 5.042192 -0.014715503
0.24585398 16.433924 0.01480075 0.006017413 -0.5530647 8.573503 -0.026565272 38.34373
-0.011946118 23.63963 -0.011380342 0.02403203 -0.03957595 28.258911 0.014456304 1.0314789
0.0017550635 -0.02974086 -0.026986165 -0.037547845 0.037624143 0.0060912897 0.009330282 -0.018305687
13.805344 -2.6591482 -0.009352523 0.36651686 0.031696327 37.46563 -0.053485524 -0.029329652
0.026571793 50.197758 -0.030484952 14.648256 -0.03754518 3.3907037 -9.140314 -0.04890629
-0.040781625 0.043938134 0.009993644 0.0027980134 46.07883 37.07139 0.027553085 -0.02990397
0.020169457 -0.023081215 9.603933 35.646152 0.029348472 -0.02851637 0.025567953 23.12852
-0.012418011 0.025255568 -0.026471036 -0.015892034 0.02981505 -0.025871292 0.025709698 0.003186534
0.0021169418 -0.015038556 -0.057667524 43.46328 11.302541 -0.00759195 44.881847 17.879995
-0.010234534 -10.313987 0.015228798 0.025942128 -0.0065086335 41.283134 0.019021923 0.024289627
-0.019261302 39.6881 -0.020674631 -0.013141966 -0.03533118 -0.010331165 0.015734361 0.0018251113
-0.0017079577 0.022983247 -0.0028802254 0.06038569 0.8422944 41.95195 0.022182202 -0.02356631
0.6793961 1.1290579 5.651216 19.91338 0.027960492 -0.030088222 3.9136589 3.994871e-05
0.002160835 -0.009978463 0.015862612 -0.0061593708 -0.0033165582 0.013894615 -0.018662754 -0.4973351
-0.00855335 0.002672519 -0.057405245 0.0006403738 0.013626148 -0.03145676 -0.0013832042 6.3062315
0.042483147 26.340103 -0.0343006 -0.0002328901 -0.015596733 0.01514285 -0.0069042 -0.0057618506
-0.0048340983 0.019826347 -0.00038392135 63.128166 -0.004252328 -0.0043947543 0.004251948 0.001788998
0.014481445 -0.01531775 -1.5854506 0.0066112177 -0.0022395041 -0.01033401 -0.017369293 13.825374
10.424242 7.321052 0.039603587 -0.009300186 0.0071443846 -0.003569402 0.015266733 0.0027799043
15.525116 0.00045292138 -30.499252 4.641119 0.008503675 -0.02429736 55.130016 7.6215863
30.299145 -0.0061835074 -1.6392885 10.35853 -0.010912552 -0.031247683 0.015361254 0.009351065
0.0041657533 1.3561546 -0.009057154 -0.008546434 0.019290354 -0.009637725 55.530613 0.0053949594
-0.012807772 1.9840351 -0.8813236 -0.02646893 14.334645 68.291046 0.029194847 -10.571527
-0.018084673 -0.009357888 -0.00037378495 2.9467967 -0.03249344 -0.030560384 6.2132998 33.502266
-2.4884999 0.050604515 0.0009261368 0.014684449 4.352084 0.026602969 0.036250424 0.008103594
26.869694 0.005373091 -1.2627704 0.16216427 0.018237723 -0.0061729182 -0.043205973 3.3687205
-0.009742672 20.222729 0.014661504 0.025016928 34.40393 11.911449 -0.01895292 6.9100814
0.03368921 0.0138918515 -0.012001644 -0.0202696 0.019807497 -0.00057646213 42.51559 -0.00861996
00000000: f38b 3ebb ee47 bfbc cc3c 9cc1 8bb1 b040
00000010: ffdf 53bc d546 dcb9 9606 4d3c e737 aebc
00000020: 465b 9140 bf11 f541 28d9 c63c 2919 ee3c
00000030: 8c5f 90c1 100f b3ba 1a1d afbc f686 08bd
00000040: daae 8741 2a2b 1239 409a fabb 02b4 a43c
00000050: cc9a 5e3d 3ff7 3642 0452 403d f65f 4bbb
00000060: ddb9 d83c 86a8 4542 f494 5e42 a0c5 63bb
00000070: 71e2 763b 667e 3e3c a359 a140 4b19 71bc
00000080: 25c1 7b3e ad78 8341 d87e 723c b82d c53b
00000090: a695 0dbf 112d 0941 6a9f d9bc fb5f 1942
000000a0: a7b9 43bc f61d bd41 9d74 3abc d2de c43c
000000b0: 641a 22bd 4012 e241 22da 6c3c 8007 843f
000000c0: 290a e63a 1ba3 f3bc 1712 ddbc c5cb 19bd
000000d0: c61b 1a3d 7199 c73b 0ade 183c cff5 95bc
000000e0: b0e2 5c41 7c2f 2ac0 533b 19bc 19a8 bb3e
000000f0: 02d4 013d cedc 1542 a313 5bbd bd44 f0bc
00000100: 17ad d93c 81ca 4842 94bb f9bc 425f 6a41
00000110: fac8 19bd 4a01 5940 ba3e 12c1 f651 48bd
00000120: a20a 27bd 79f8 333d 62bc 233c e05e 373b
00000130: b950 3842 1a49 1442 02b7 e13c 2cf9 f4bc
00000140: 6b3a a53c d114 bdbc b6a9 1941 a995 0e42
00000150: 356c f03c 2a9b e9bc e273 d13c 3507 b941
00000160: ea74 4bbc c4e4 ce3c c9d9 d8bc 0330 82bc
00000170: b13e f43c 08f0 d3bc 259d d23c 2bd5 503b
00000180: 64bc 0a3b 4764 76bc c834 6cbd 66da 2d42
00000190: 35d7 3441 e4c5 f8bb 0387 3342 3b0a 8f41
000001a0: bfae 27bc 1706 25c1 3582 793c 9684 d43c
000001b0: 6046 d5bb ee21 2542 ddd3 9b3c 0afb c63c
000001c0: e1c9 9dbc 9dc0 1e42 d85d a9bc 6751 57bc
000001d0: 6db7 10bd 0c44 29bc 59e5 803c 9338 ef3a
000001e0: 8ddd dfba 5d47 bc3c 2ac2 3cbb fc56 773d
000001f0: 9ba0 573f ccce 2742 73b7 b53c 220e c1bc
00000200: e7ec 2d3f f884 903f c3d6 b440 9a4e 9f41
00000210: 670d e53c 937b f6bc 6379 7a40 9a8e 2738
00000220: cc9c 0d3b b57c 23bc 4ff2 813c 8cd4 c9bb
00000230: 9d5a 59bb 3da6 633c a2e2 98bc b5a2 febe
00000240: 5a23 0cbc 6e25 2f3b c321 6bbd c2de 273a
00000250: 3540 5f3c ced8 00bd a24c b5ba a6cc c940
00000260: cf02 2e3d 88b8 d241 c97e 0cbd f633 74b9
00000270: 7189 7fbc b719 783c a13c e2bb e8cd bcbb
00000280: 5b67 9ebb dd6a a23c 0d49 c9b9 3e83 7c42
00000290: 1d57 8bbb df01 90bb ed53 8b3b d07c ea3a
000002a0: 9543 6d3c 4df7 7abc 0cf0 cabf eaa2 d83b
000002b0: a5c4 12bb fb4f 29bc 0c4a 8ebc bb34 5d41
000002c0: b2c9 2641 0f46 ea40 5f37 223d cf5f 18bc
000002d0: 711b ea3b a1ec 69bb 5221 7a3c 0e2f 363b
000002e0: e066 7841 1476 ed39 78fe f3c1 0c84 9440
000002f0: 0053 0b3c 420b c7bc 2385 5c42 09e4 f340
00000300: a664 f241 059f cabb 35d4 d1bf 8abc 2541
00000310: 8fca 32bc 24fb ffbc c5ad 7b3c 3635 193c
00000320: df80 883b 7996 ad3f 7564 14bc 5806 0cbc
00000330: ce06 9e3c 8ce7 1dbc 591f 5e42 33c8 b03b
00000340: b0d7 51bc ddf4 fd3f 6c9e 61bf 5fd5 d8bc
00000350: b55a 6541 0495 8842 082a ef3c f924 29c1
00000360: 4f26 94bc d451 19bc 91f8 c3b9 5198 3c40
00000370: d717 05bd c559 fabc 5ad3 c640 5202 0642
00000380: 9543 1fc0 ae46 4f3d fdc7 723a 0b97 703c
00000390: 4644 8b40 78ee d93c 537b 143d f0c4 043c
000003a0: 22f5 d641 c110 b03b 76a2 a1bf 640e 263e
000003b0: 4767 953c 3146 cabb bff8 30bd 1e99 5740
000003c0: ba9f 1fbc 26c8 a141 ce36 703c 4df0 cc3c
000003d0: a09d 0942 4c95 3e41 2743 9bbc 631f dd40
000003e0: b2fd 093d a69a 633c 8ba2 44bc 6f0c a6bc
000003f0: 5543 a23c b81d 17ba f70f 2a42 bc3a 0dbc
