checkpoint/perturb/infty/NGD/mlp_epoch499_seed10.pt (torch, 67303 bytes, 3 tensors)

fc1.weight f4 [4096, 2]
-0.8172638 -0.5555303 -0.82679075 -1.2970158 -0.26491612 -0.98981655 -0.48011294 2.6733336
-0.74653 1.0050976 -0.25681078 0.4765151 -0.6652007 -0.36267862 -1.4503138 -0.24957375
0.4706936 0.82258385 6.697964 4.279922 1.0762953 -0.06615846 0.13148017 0.16809973
-0.43955243 0.22823635 0.9534758 0.3553545 0.21209955 -0.33778465 -0.35362953 -0.27294725
0.60747254 0.81495875 -1.2645936 -0.43440044 -2.1806915 -1.1093792 -2.0410578 0.033489384
-1.0805124 -0.8832178 -1.0680512 -0.13660075 -1.1150835 0.14900213 -1.0923222 -1.4551474
-0.48111722 -1.082348 2.1927269 3.7152529 -8.872059 -3.94404 -0.91797876 -0.9615165
-0.0050691534 0.35388002 -0.35597163 -0.76655245 0.23777428 0.053379662 -0.24600297 -1.4636588
-1.2946398 -1.3239439 -1.3035127 -1.7030001 0.58529705 -1.3658392 -1.3334086 0.14502534
1.1018413 -2.3266375 -1.577358 -1.1506573 0.020069519 -1.5847414 1.0181961 0.17751783
0.6273124 -0.29027656 -22.799534 -12.537254 0.23465121 -0.43605798 -0.21946423 -1.7205709
0.09160749 0.83609307 -33.08432 -21.173306 -2.2977667 0.7647604 -3.0781596 -2.9585001
0.26068184 0.10435433 -0.25380132 -0.14866325 -0.5778992 -1.6192268 -0.275335 -0.3702967
0.75501466 -1.4557493 -0.7037197 -0.6330728 1.0014422 0.73064774 -2.2644515 -1.3224024
-8.785828 -6.349429 0.04533914 -0.5613972 0.6608494 -0.5189505 -0.815643 -1.6133772
-0.83494604 -0.59376603 -36.52465 -20.807018 -0.9486924 0.58787835 0.5065737 -1.2699327
-0.17459694 1.1172419 -19.33674 -10.760534 0.12542565 1.0469047 -30.44852 -17.546259
-0.29159263 -0.35505238 -98.97195 -58.513126 -7.463824 -3.2053804 -0.20513685 0.05157763
-0.07250233 -1.2695879 -1.8332838 0.7659007 0.39233005 0.42989078 0.19119395 -1.1700273
-11.077513 -7.091986 -5.6901035 -3.0168917 -1.4256749 -0.63001573 -0.17433986 -0.5053753
0.23526151 -0.29197225 -1.0891291 0.61782086 -142.41226 -85.86932 -224.74605 -127.894516
0.03431511 -0.35473934 -0.016011287 -0.8984444 -0.15495534 1.1230496 -19.817688 -9.878872
-1.5554942 -0.30946466 -1.5137154 0.61096144 1.3838387 0.93958235 -0.2752868 -2.7653658
0.52420235 0.48322093 -0.80391055 -1.2599118 -0.30734348 -0.27648118 -2.4867935 -1.0495504
0.5334225 0.06667535 -1.4927704 0.10175912 -1.4809268 -1.1488316 -23.770306 -11.436435
-1469.3098 -833.87146 -1.1888132 -0.30218926 -53.527473 -24.369616 -614.90625 -348.15305
0.07100445 -1.8058727 -70.91697 -18.437908 -0.02510598 -1.0609676 0.64268374 -1.4208417
-0.623998 -0.65644604 -15.323551 -8.394941 -0.2075827 -0.6007906 0.9788628 0.27134424
-0.52457154 0.056452174 -91.511024 -44.179703 0.30776134 -1.743192 -1.119903 -0.0032173675
-0.8784962 -0.81613266 -1.5947081 -1.4591249 -2.239352 -1.3973999 -0.23876515 -0.4498207
-0.009396702 -0.0051965313 0.8138512 -0.62230337 0.23985045 0.060299765 1.0532358 -0.028395146
-1598.6526 -911.1648 -38.206398 -17.850687 -0.915814 -1.4352068 0.90427 -0.16033298
00000000: 3338 51bf 3c37 0ebf 8fa8 53bf 9d04 a6bf
00000010: 16a3 87be 9e64 7dbf 5dd1 f5be e617 2b40
00000020: 971c 3fbf 0aa7 803f b47c 83be caf9 f33e
00000030: 984a 2abf 03b1 b9be e2a3 b9bf 4390 7fbe
00000040: c0fe f03e db94 523f b955 d640 1ff5 8840
00000050: 0bc4 893f 167e 87bd bda2 063e 5622 2c3e
00000060: 040d e1be cab6 693e fd16 743f 06f1 b53e
00000070: a030 593e 1cf2 acbe ee0e b5be bebf 8bbe
00000080: 5283 1b3f 23a1 503f 34de a1bf bc69 debe
00000090: 7390 0bc0 2300 8ebf b1a0 02c0 2a2c 093d
000000a0: 3b4e 8abf 901a 62bf e7b5 88bf 11e1 0bbe
000000b0: 0ebb 8ebf 0494 183e 37d1 8bbf 4542 babf
000000c0: ff54 f6be 618a 8abf a355 0c40 b4c6 6d40
000000d0: f4f3 0dc1 276b 7cc0 a800 6bbf f225 76bf
000000e0: 241b a6bb c32f b53e ea41 b6be c83c 44bf
000000f0: 1a7b 733e a2a4 5a3d 34e8 7bbe 2c59 bbbf
00000100: c2b6 a5bf fe76 a9bf 81d9 a6bf e8fb d9bf
00000110: 07d6 153f d2d3 aebf 22ad aabf 8681 143e
00000120: 2309 8d3f a1e7 14c0 dee6 c9bf bd48 93bf
00000130: d568 a43c ced8 cabf 4054 823f 3cc7 353e
00000140: 8c97 203f 219f 94be 7265 b6c1 9898 48c1
00000150: 6848 703e fe42 dfbe 3bbb 60be ab3b dcbf
00000160: b59c bb3d 320a 563f 5856 04c2 ee62 a9c1
00000170: 9c0e 13c0 56c7 433f 9100 45c0 1158 3dc0
00000180: 1778 853e b9b7 d53d 3ff2 81be 2e3b 18be
00000190: 34f1 13bf d342 cfbf b6f8 8cbe 8797 bdbe
000001a0: a448 413f fe55 babf f926 34bf 0f11 22bf
000001b0: 422f 803f bb0b 3b3f c6ec 10c0 7b44 a9bf
000001c0: c092 0cc1 862e cbc0 89b5 393d bab7 0fbf
000001d0: 6d2d 293f f1d9 04bf fbcd 50bf 2583 cebf
000001e0: 06bf 55bf 0d01 18bf 3e19 12c2 c674 a6c1
000001f0: 81dd 72bf 327f 163f d0ae 013f 288d a2bf
00000200: 8ac9 32be c801 8f3f a5b1 9ac1 262b 2cc1
00000210: 956f 003e f900 863f 9296 f3c1 bd5e 8cc1
00000220: a14b 95be 6dc9 b5be a3f1 c5c2 710d 6ac2
00000230: a5d7 eec0 f424 4dc0 650f 52be 1143 533d
00000240: 1a7c 94bd db81 a2bf 0ba9 eabf 1112 443f
00000250: 7cdf c83e a51a dc3e 59c8 433e 74c3 95bf
00000260: 7e3d 31c1 8df1 e2c0 5415 b6c0 c114 41c0
00000270: 847c b6bf b648 21bf 2686 32be 4760 01bf
00000280: 65e8 703e 637d 95be 9568 8bbf 8229 1e3f
00000290: 8a69 0ec3 18bd abc2 fdbe 60c3 fec9 ffc2
000002a0: 008e 0c3d 65a0 b5be 1a2a 83bc 7400 66bf
000002b0: 9dac 1ebe 17c0 8f3f a08a 9ec1 dc0f 1ec1
000002c0: 6f1a c7bf 2772 9ebe 6dc1 c1bf f867 1c3f
000002d0: a021 b13f 7888 703f 64f2 8cbe c1fb 30c0
000002e0: 2032 063f bc68 f73e 15cd 4dbf ca44 a1bf
000002f0: 205c 9dbe f18e 8dbe a027 1fc0 ab57 86bf
00000300: 618e 083f 168d 883d 1a13 bfbf 1667 d03d
00000310: 028f bdbf ea0c 93bf 9629 bec1 a3fb 36c1
00000320: eaa9 b7c4 c677 50c4 082b 98bf 8db8 9abe
00000330: 221c 56c2 f9f4 c2c1 00ba 19c4 9713 aec3
00000340: c86a 913d d626 e7bf 7dd5 8dc2 d680 93c1
00000350: 0eab cdbc c9cd 87bf ec86 243f 24de b5bf
00000360: 55be 1fbf d90c 28bf 442d 75c1 ae51 06c1
00000370: 8f90 54be 6acd 19bf c196 7a3f a2ed 8a3e
00000380: 524a 06bf 653a 673d a505 b7c2 04b8 30c2
00000390: e592 9d3e ea20 dfbf fb58 8fbf 78da 52bb
000003a0: 21e5 60bf 12ee 50bf 651f ccbf 9bc4 babf
000003b0: 8b51 0fc0 00de b2bf da7e 74be e64e e6be
000003c0: a0f4 19bc aa47 aabb 8d58 503f 464f 1fbf
000003d0: 5b9b 753e e3fc 763d 6ed0 863f f09c e8bc
000003e0: e2d4 c7c4 8cca 63c4 5ad3 18c2 35ce 8ec1
000003f0: c972 6abf dbb4 b7bf 3d7e 673f 542e 24be

fc1.bias f4 [4096]
-1.1979427 -0.4721276 0.52588576 -0.64662814 -0.5710393 -0.48213002 -0.11708015 -0.700537
-1.0408226 -0.20984326 -2.4882915 -1.0247301 0.04785291 -1.1502519 -0.89447826 -1.9408891
-1.0187548 0.12049219 -1.4559788 -1.6607462 0.19059412 0.5878908 -0.43635038 0.23343319
-0.9873361 0.41084427 1.149257 -0.9294994 -1.3307025 -1.9512438 -0.25025648 -0.51752204
-0.48455498 -0.03917677 -1.8256917 -0.4742896 -1.100373 -0.9979396 -1.3554736 -1.043514
-0.87706065 -0.16288064 -0.3531036 -0.45457825 -1.1863636 -0.24812399 -0.62411386 -0.52163637
-1.738624 -1.7744614 0.4699548 -0.80074716 -0.85102814 -0.8568238 -2.1731043 -0.16033323
-0.8639755 -1.1006396 -1.3806744 -0.5693433 -0.42800894 -0.08893569 -0.12035652 -0.8413525
-1.3615092 0.5920153 -1.1033205 -0.26444677 -0.33811486 -0.5178602 -0.6845347 -0.2697183
-0.5942581 -0.5745798 -0.918127 -0.40227142 0.35373044 -0.19163178 -1.3006124 -0.2530467
-0.9176879 -1.6465619 -0.052799024 0.41773853 -0.7711266 -0.49594763 -2.1846907 0.72618014
-1.4150857 -0.9356766 -2.0395496 -0.9331743 -1.5769396 -0.8348055 -0.70110464 -0.35126346
-0.5799599 -0.56090516 1.085012 1.1800098 0.5887477 -0.6276476 0.48085457 0.59452724
-0.43304956 -0.6539598 -1.1543691 -0.94202065 -0.2519089 -0.5649988 -1.1619251 -1.5545264
-0.2779377 0.7977781 -0.9231092 -0.6933627 -0.08374494 -1.8179797 -0.6962533 -0.9593993
-0.56768596 -0.87052923 -0.33859235 -1.2967484 0.14749774 -0.008739656 -0.12751259 -1.0024372
-0.16351914 0.05403995 -0.7484463 -0.626655 -0.71351063 0.11624817 -0.65606004 -1.1646419
-0.6045209 -0.73657954 -0.34759378 -0.94215775 0.252822 -0.18903215 0.79302716 -0.8678839
-0.22976594 -1.2099087 -1.465288 -0.4575571 -1.658184 0.5873583 -0.855189 0.11900875
-1.6352823 -0.4086709 -0.16591343 -1.0714135 -1.7018731 -0.42260987 -1.4647499 -1.1329007
-1.5159898 -0.65738565 -0.12280521 -0.7323294 -0.29554722 -0.682808 -1.0737603 -0.98021954
-0.045474045 -1.0702423 -0.6911909 -1.1055236 -0.799874 -0.78998005 -0.32898337 -0.4069641
-0.5888703 -0.25390583 -2.32867 -0.63591665 0.30946097 -0.9077276 -0.66573244 -1.3279561
-0.47275603 -0.5710138 -0.5977579 0.46112892 -0.427271 -1.2896906 -0.51095074 -1.1911461
0.72893834 0.29712266 -1.7137179 -0.2030713 -0.7634434 -0.41553655 -0.88458943 -0.8845998
-1.6490512 -1.2009046 -0.9899555 -0.44993114 -1.8305893 0.4529359 0.489325 -0.654875
-1.4016565 -1.4953043 -1.3856733 0.38723758 -1.7057635 0.5777145 -0.7755334 -0.7189033
-1.5970271 -1.2073009 -1.4300216 -0.10312813 -0.89620805 -0.89847267 -1.0321077 0.2690053
-0.9002322 -1.1058081 -2.0239635 -0.5904948 -0.8196092 -1.0945032 -1.6991981 -1.4588635
0.71695244 -0.96421367 -0.77559733 0.3176345 -1.0505493 -0.064461626 -0.62489575 -1.1608763
-0.31760603 -0.15788484 -0.7951635 -0.34515288 -0.5488172 -0.5605181 -0.15092246 -0.31991103
0.001340607 -0.06535969 -1.7064102 -0.633862 -0.382628 -0.26432163 1.040055 -1.1111144
00000000: 3056 99bf b5ba f1be 73a0 063f 6c89 25bf
00000010: a22f 12bf bfd9 f6be b8c7 efbd 6556 33bf
00000020: ad39 85bf 27e1 56be 2b40 1fc0 5b2a 83bf
00000030: 6a01 443d 743b 93bf 87fc 64bf 0e6f f8bf
00000040: 8f66 82bf 9cc4 f63d 835d babf 5593 d4bf
00000050: 1b2b 433e 0380 163f 5169 dfbe 1c09 6f3e
00000060: 0fc2 7cbf 2e5a d23e da1a 933f acf3 6dbf
00000070: 7654 aabf 5bc2 f9bf 9e21 80be 537c 04bf
00000080: 9717 f8be d277 20bd 44b0 e9bf 16d6 f2be
00000090: 06d9 8cbf f878 7fbf 2980 adbf de91 85bf
000000a0: 0c87 60bf 2fca 26be ffc9 b4be 7bbe e8be
000000b0: c3da 97bf 3714 7ebe edc5 1fbf f689 05bf
000000c0: 3b8b debf 8d21 e3bf ea9d f03e c4fd 4cbf
000000d0: fbdc 59bf ce58 5bbf 2414 0bc0 652e 24be
000000e0: 802d 5dbf c2e1 8cbf f0b9 b0bf 7cc0 11bf
000000f0: fd23 dbbe ea23 b6bd 7b7d f6bd e162 57bf
00000100: ef45 aebf 518e 173f 9b39 8dbf 9165 87be
00000110: 641d adbe 7c92 04bf ab3d 2fbf 8418 8abe
00000120: 4d21 18bf a917 13bf 5f0a 6bbf 85f6 cdbe
00000130: 281c b53e 1f3b 44be 787a a6bf 568f 81be
00000140: 98ed 6abf 8ac2 d2bf ca43 58bd d3e1 d53e
00000150: 8e68 45bf d9ec fdbe f9d1 0bc0 f1e6 393f
00000160: 8721 b5bf 8088 6fbf fb87 02c0 83e4 6ebf
00000170: 28d9 c9bf d0b5 55bf 987b 33bf ced8 b3be
00000180: 4178 14bf 7b97 0fbf ace1 8a3f 900a 973f
00000190: 2bb8 163f 83ad 20bf 9232 f63e f032 183f
000001a0: acb8 ddbe e969 27bf 5ec2 93bf 4428 71bf
000001b0: 34fa 80be c3a3 10bf f6b9 94bf b9fa c6bf
000001c0: da4d 8ebe 303b 4c3f e250 6cbf 3880 31bf
000001d0: 7882 abbd 8fb3 e8bf a83d 32bf 319b 75bf
000001e0: de53 11bf 01db 5ebf fa5b adbe dafb a5bf
000001f0: a609 173e c630 0fbc a992 02be dd4f 80bf
00000200: 9071 27be ff58 5d3d 2d9a 3fbf 766c 20bf
00000210: a2a8 36bf 8513 ee3d 8df3 27bf fc12 95bf
00000220: e2c1 1abf 7a90 3cbf d0f7 b1be 4031 71bf
00000230: e371 813e a591 41be d403 4b3f a42d 5ebf
00000240: c347 6bbe 4ade 9abf 8f8e bbbf ed44 eabe
00000250: 603f d4bf 1d5d 163f abed 5abf dcba f33d
00000260: ee50 d1bf 503d d1be 36e5 29be 1424 89bf
00000270: fad6 d9bf 5260 d8be ed7c bbbf e402 91bf
00000280: f40b c2bf 6d4a 28bf 4c81 fbbd f179 3bbf
00000290: f751 97be 81cc 2ebf fa70 89bf abef 7abf
000002a0: fe42 3abd b3fd 88bf e3f1 30bf cc81 8dbf
000002b0: 8bc4 4cbf 223c 4abf 8270 a8be 995d d0be
000002c0: 34c0 16bf f2ff 81be ee08 15c0 6fcb 22bf
000002d0: ab71 9e3e d660 68bf 716d 2abf 77fa a9bf
000002e0: 140d f2be f62d 12bf a906 19bf 1719 ec3e
000002f0: 44c3 dabe 9514 a5bf abcd 02bf 7a77 98bf
00000300: b49b 3a3f 7620 983e 1c5b dbbf ecf1 4fbe
00000310: 0771 43bf 35c1 d4be 7474 62bf 2275 62bf
00000320: 1c14 d3bf 3eb7 99bf b96d 7dbf 605d e6be
00000330: c050 eabf 37e7 e73e ce88 fa3e e3a5 27bf
00000340: 7b69 b3bf 2266 bfbf be5d b1bf 0144 c63e
00000350: 7556 dabf 19e5 133f 5b89 46bf 0c0a 38bf
00000360: 626b ccbf d688 9abf f30a b7bf d734 d3bd
00000370: e46d 65bf 4e02 66bf 1b1c 84bf 10bb 893e
00000380: 9e75 66bf 1f8b 8dbf 9e88 01c0 ab2a 17bf
00000390: e9d1 51bf ae18 8cbf 537f d9bf 0abc babf
000003a0: 328a 373f b5d6 76bf 8c8d 46bf fda0 a23e
000003b0: 6678 86bf 7504 84bd 2bf9 1fbf 9897 94bf
000003c0: 429d a2be 90ac 21be d68f 4bbf e1b7 b0be
000003d0: 497f 0cbf 1d7e 0fbf 6b8b 1abe 61cb a3be
000003e0: 4eb7 af3a 4ddb 85bd a66b dabf c844 22bf
000003f0: d1e7 c3be 2a55 87be 8620 853f ff38 8ebf

fc2.weight f4 [1, 4096]
-0.0029075115 -0.023349728 0.04333354 -0.0035603414 -0.012931823 -0.00042014444 0.012513777 -0.02126689
-0.022787632 -0.005544739 0.02427347 0.029064732 0.034421206 -0.0013661105 -0.021376181 -0.033331834
0.008091742 0.00013939725 -0.0076477826 0.020105366 0.054346845 0.029207077 0.046953216 -0.003103254
0.026455814 -0.00014696518 -0.023968969 -0.0034755245 0.003767159 0.011626815 0.004601466 -0.014715503
-0.016896762 0.042339925 0.01480075 0.006017413 0.016728908 -0.0037743184 -0.026565272 0.0028962714
-0.011946118 -0.02350553 -0.011380342 0.02403203 -0.03957595 -0.02784542 0.014456304 -0.0105134
0.0017550635 -0.02974086 -0.026986165 -0.037547845 0.06554992 0.0060912897 0.009330282 -0.018305687
-0.0048877033 0.016143696 -0.009352523 -0.0029688943 0.031696327 -0.01424767 -0.053485524 -0.029329652
0.026571793 -0.0062032547 -0.030484952 -0.008610753 -0.03754518 -0.02528509 0.031056603 -0.04890629
-0.040781625 0.043938134 0.009993644 0.0027980134 -0.0021931287 0.014777619 0.027553085 -0.02990397
0.020169457 -0.023081215 -0.019043248 -0.027263712 0.029348472 -0.02851637 0.025567953 0.02310339
-0.012418011 0.025255568 -0.026471036 -0.015892034 0.02981505 -0.025871292 0.025709698 0.003186534
0.0021169418 -0.015038556 0.0032821833 0.008550538 -0.043830693 -0.00759195 0.01914867 -0.01837772
-0.010234534 0.0429239 0.015228798 0.025942128 -0.0065086335 0.006249734 0.019021923 0.024289627
-0.019261302 0.032633122 -0.020674631 -0.013141966 -0.03533118 -0.010331165 0.015734361 0.0018251113
-0.0017079577 0.022983247 -0.0028802254 0.06038569 -0.044624753 0.013967157 0.022182202 -0.02356631
-0.0006846342 -0.013004617 0.01039108 0.03878439 0.027960492 -0.030088222 0.008372133 3.994871e-05
-0.008684519 -0.009978463 0.015862612 -0.0061593708 -0.0033165582 0.013894615 -0.018662754 -5.7449488e-05
-0.00855335 0.002672519 -0.057405245 0.0006403738 0.013626148 -0.03145676 -0.0013832042 -0.020248093
0.042483147 0.014317011 -0.0343006 -0.0002328901 -0.015596733 0.01514285 -0.0069042 -0.0057618506
-0.0048340983 0.019826347 -0.00038392135 -0.020994386 -0.004252328 -0.0043947543 0.004251948 0.001788998
0.014481445 -0.01531775 0.0327683 0.0066112177 -0.0022395041 -0.01033401 -0.017369293 0.018107563
-0.0048371605 0.025087135 0.039603587 -0.009300186 -0.036356326 -0.003569402 0.015266733 0.0027799043
0.052800335 0.00045292138 0.056982156 -0.0049190475 0.008503675 -0.02429736 0.02928031 0.0006441648
0.006491734 -0.061813105 0.010480069 0.011338233 -0.010912552 -0.031247683 0.015361254 0.009351065
0.0041657533 0.013796712 -0.009057154 -0.008546434 0.019290354 -0.009637725 0.010563406 0.0053949594
-0.012807772 -0.019731212 -0.003343015 -0.02646893 -0.021097898 0.027391933 0.029194847 0.023106363
-0.018084673 -0.009357888 -0.00037378495 -0.041183934 -0.03249344 -0.030560384 0.0239968 -0.014756097
0.008964423 0.050604515 0.0009261368 0.014684449 0.012144134 0.026602969 0.036250424 0.008103594
-0.008321462 0.005373091 0.010908641 -0.007023652 0.018237723 -0.0061729182 -0.043205973 -0.037829567
-0.009742672 0.03426218 0.014661504 0.025016928 0.01774228 -0.006348556 -0.01895292 0.0049123256
0.03368921 0.0138918515 -0.012001644 -0.0202696 0.019807497 -0.00057646213 0.0073783547 -0.00861996
00000000: f38b 3ebb ee47 bfbc 837e 313d 9e54 69bb
00000010: ffdf 53bc d546 dcb9 9606 4d3c e737 aebc
00000020: 21ad babc a4b0 b5bb 28d9 c63c 2919 ee3c
00000030: 40fd 0c3d 100f b3ba 1a1d afbc f686 08bd
00000040: 3a93 043c 2a2b 1239 409a fabb 02b4 a43c
00000050: cc9a 5e3d ae43 ef3c 0452 403d f65f 4bbb
00000060: ddb9 d83c aa1a 1ab9 925a c4bc a0c5 63bb
00000070: 71e2 763b 667e 3e3c e5c7 963b 4b19 71bc
00000080: 146b 8abc a16c 2d3d d87e 723c b82d c53b
00000090: 100b 893c 8e5a 77bb 6a9f d9bc 5fcf 3d3b
000000a0: a7b9 43bc ab8e c0bc 9d74 3abc d2de c43c
000000b0: 641a 22bd 141c e4bc 22da 6c3c 6540 2cbc
000000c0: 290a e63a 1ba3 f3bc 1712 ddbc c5cb 19bd
000000d0: 093f 863d 7199 c73b 0ade 183c cff5 95bc
000000e0: 0729 a0bb c93f 843c 533b 19bc c891 42bb
000000f0: 02d4 013d 0f6f 69bc a313 5bbd bd44 f0bc
00000100: 17ad d93c ac44 cbbb 94bb f9bc 1e14 0dbc
00000110: fac8 19bd ad22 cfbc 6b6a fe3c f651 48bd
00000120: a20a 27bd 79f8 333d 62bc 233c e05e 373b
00000130: 98ba 0fbb d41d 723c 02b7 e13c 2cf9 f4bc
00000140: 6b3a a53c d114 bdbc 9600 9cbc 2658 dfbc
00000150: 356c f03c 2a9b e9bc e273 d13c 5243 bd3c
00000160: ea74 4bbc c4e4 ce3c c9d9 d8bc 0330 82bc
00000170: b13e f43c 08f0 d3bc 259d d23c 2bd5 503b
00000180: 64bc 0a3b 4764 76bc e619 573b 8e17 0c3c
00000190: d087 33bd e4c5 f8bb acdd 9c3c df8c 96bc
000001a0: bfae 27bc f9d0 2f3d 3582 793c 9684 d43c
000001b0: 6046 d5bb 92ca cc3b ddd3 9b3c 0afb c63c
000001c0: e1c9 9dbc 4faa 053d d85d a9bc 6751 57bc
000001d0: 6db7 10bd 0c44 29bc 59e5 803c 9338 ef3a
000001e0: 8ddd dfba 5d47 bc3c 2ac2 3cbb fc56 773d
000001f0: 72c8 36bd 81d6 643c 73b7 b53c 220e c1bc
00000200: 0679 33ba 5111 55bc 593f 2a3c 61dc 1e3d
00000210: 670d e53c 937b f6bc 452b 093c 9a8e 2738
00000220: 8349 0ebc b57c 23bc 4ff2 813c 8cd4 c9bb
00000230: 9d5a 59bb 3da6 633c a2e2 98bc ebf5 70b8
00000240: 5a23 0cbc 6e25 2f3b c321 6bbd c2de 273a
00000250: 3540 5f3c ced8 00bd a24c b5ba 54df a5bc
00000260: cf02 2e3d e691 6a3c c97e 0cbd f633 74b9
00000270: 7189 7fbc b719 783c a13c e2bb e8cd bcbb
00000280: 5b67 9ebb dd6a a23c 0d49 c9b9 6bfc abbc
00000290: 1d57 8bbb df01 90bb ed53 8b3b d07c ea3a
000002a0: 9543 6d3c 4df7 7abc 0e38 063d eaa2 d83b
000002b0: a5c4 12bb fb4f 29bc 0c4a 8ebc 5056 943c
000002c0: 0b81 9ebb 8983 cd3c 5f37 223d cf5f 18bc
000002d0: 5fea 14bd a1ec 69bb 5221 7a3c 0e2f 363b
000002e0: 2a45 583d 1476 ed39 1f66 693d f62f a1bb
000002f0: 0053 0b3c 420b c7bc 43dd ef3c 2bdd 283a
00000300: 9db8 d43b bd2f 7dbd 98b4 2b3c ffc3 393c
00000310: 8fca 32bc 24fb ffbc c5ad 7b3c 3635 193c
00000320: df80 883b 9b0b 623c 7564 14bc 5806 0cbc
00000330: ce06 9e3c 8ce7 1dbc 2312 2d3c 33c8 b03b
00000340: b0d7 51bc 5aa3 a1bc 7c16 5bbb 5fd5 d8bc
00000350: 80d5 acbc 0c65 e03c 082a ef3c 8e49 bd3c
00000360: 4f26 94bc d451 19bc 91f8 c3b9 7cb0 28bd
00000370: d717 05bd c559 fabc f094 c43c 8fc3 71bc
00000380: 84df 123c ae46 4f3d fdc7 723a 0b97 703c
00000390: 31f8 463c 78ee d93c 537b 143d f0c4 043c
000003a0: be56 08bc c110 b03b 28ba 323c aa26 e6bb
000003b0: 4767 953c 3146 cabb bff8 30bd 2df3 1abd
000003c0: ba9f 1fbc 8056 0c3d ce36 703c 4df0 cc3c
000003d0: 4258 913c 8c07 d0bb 2743 9bbc 93f7 a03b
000003e0: b2fd 093d a69a 633c 8ba2 44bc 6f0c a6bc
000003f0: 5543 a23c b81d 17ba 20c6 f13b bc3a 0dbc
