checkpoint/perturb/infty/NGD/mlp_epoch497_seed16.pt (torch, 67303 bytes, 3 tensors)

fc1.weight f4 [4096, 2]
-0.3396265 -0.77021754 1.7878225 -0.62104607 -1.0901692 -0.07869587 1.2901148 -0.82799786
0.86274827 1.8982983 0.819152 -0.9239538 2.169069 -0.6659277 -0.76028347 -1.1504467
2.0112784 2.1502013 -1.9708257 0.95671046 0.15585169 0.68567616 1.3363988 -0.4197008
-0.47868392 0.23868653 -0.8348577 0.6672967 19.765879 27.518301 9.62604 10.230388
-1.1121389 -0.22031744 6.8344264 -6.620856 1.9285294 -2.6955585 -0.57153213 -0.5656789
-0.30471078 0.9197298 -0.8552533 -1.4325403 15.721134 22.20552 -0.84608597 -0.028392848
-0.9961348 0.73159003 -0.22128855 -0.5303999 -1.398763 0.30407876 -1.816481 -2.4687893
0.71659917 -0.038398366 0.285791 0.057450358 0.09969463 -0.2568677 -0.26018316 0.23945282
0.1694856 0.018172942 -0.6473953 -0.43497416 -1.128208 1.7096072 3.9290013 -2.185308
-12.4983015 -5.4779425 -0.7022017 -0.5872578 -1.9853426 0.119197555 -0.68246585 -0.6810322
0.25504616 0.9554257 -2.1950545 -0.82951623 -0.15568353 -0.65540576 -2.6446753 -2.0780022
1.0656648 1.2730944 -0.5834692 -0.5750678 -1.3262985 -0.28150764 -0.027226334 -0.33009842
0.31548017 0.2585839 0.5667203 -0.12748016 -1.3154924 -0.799667 -38.329273 -17.668562
-3.3682764 -1.214035 -0.057969287 -1.4104205 -14.210751 -5.906479 -0.65276706 -0.41476858
0.017949492 0.61225355 -10.064682 -2.9158213 -66.9306 -35.67639 -0.80474234 -1.2411628
-125.3926 -70.055016 -1.3990972 -1.1330948 -9.855652 -7.291037 -0.5259806 0.23448464
-0.05910485 0.276859 -1.7888211 2.998297 0.43450227 0.48633197 -7.8414907 -6.3804812
-2.6553378 -0.875972 -1.3004506 -0.6806614 -0.36604685 -0.6354633 -0.03536013 0.6528681
-0.028087426 -0.4587432 -0.06216803 -0.352473 0.27928737 -0.11943867 -0.57775533 0.47709215
-1.4640586 -0.73173857 -32.98468 -18.466064 -5.9590178 -2.6122122 -0.5737126 0.16169131
-1.7999731 -0.077891625 -20.06135 -14.570637 -20.557997 -13.261219 0.8102218 0.123307794
-0.32636106 -0.59528965 0.3918277 -0.75455385 -0.679493 1.164858 -4.4918575 -2.5764887
-0.00086066866 -0.077206396 -0.21183504 -0.47649682 -10.173334 -9.600854 -0.5177554 0.6649181
-24.494427 -19.042011 -191.8357 -132.21265 0.18885812 -0.64867735 -119.25487 -86.887474
-25.968962 -10.276137 -208.88228 -116.709496 -280.40652 -147.38849 -1.1134351 1.1340413
-0.33712482 -0.6465557 -0.7942327 -1.0868304 -1.7054093 0.13054104 -887.75604 -490.49695
-0.063710056 0.13232544 -0.896916 -0.24540582 0.8643234 -0.53048176 -51.013935 -46.6671
0.19174573 -0.034772404 -1.6259354 -0.6504282 0.6397427 0.22111157 -0.5153869 0.30226898
-359.95456 -179.39674 0.6089894 -2.3199205 0.50201494 -0.40973678 -18.788965 -19.418509
1.1723255 -0.39009675 -49.46553 -25.424088 1.0800576 -1.6149915 -0.5179323 -0.85505235
-338.70828 -170.27283 -0.66036785 -1.6944333 -1.695731 -1.6678517 -50.08845 -28.003397
-1.102499 -0.034538325 -838.34216 -462.7136 -0.6525872 0.18272337 -1.0953679 -1.4543253
00000000: 86e3 adbe fa2c 45bf 5ed7 e43f e0fc 1ebf
00000010: aa8a 8bbf 4d2b a1bd 7b22 a53f abf7 53bf
00000020: 12dd 5c3f 70fb f23f f2b3 513f 3c88 6cbf
00000030: 07d2 0a40 3d7a 2abf f0a1 42bf d641 93bf
00000040: c9b8 0040 e69c 0940 0444 fcbf faea 743f
00000050: 9697 1f3e 7988 2f3f 1e0f ab3f 06e3 d6be
00000060: 0f16 f5be 3e6a 743e 3cb9 55bf f5d3 2a3f
00000070: 8520 9e41 7b25 dc41 4304 1a41 abaf 2341
00000080: 915a 8ebf e59a 61be 9fb3 da40 0dde d3c0
00000090: 0dda f63f 0884 2cc0 ee4f 12bf 55d0 10bf
000000a0: 0d03 9cbe 6a73 6b3f e1f1 5abf 7b5d b7bf
000000b0: c489 7b41 e8a4 b141 1799 58bf 1e98 e8bc
000000c0: b102 7fbf 7c49 3b3f 7799 62be 4ac8 07bf
000000d0: aa0a b3bf 36b0 9b3e 7382 e8bf a500 1ec0
000000e0: 0b73 373f 9b47 1dbd 3353 923e 1151 6b3d
000000f0: b32c cc3d 2a84 83be ba36 85be 1f33 753e
00000100: a28d 2d3e 6cdf 943c b3bb 25bf efb4 debe
00000110: 1f69 90bf 69d4 da3f c274 7b40 16dc 0bc0
00000120: 0bf9 47c1 4e4b afc0 7ec3 33bf 8756 16bf
00000130: b51f febf d91d f43d 15b6 2ebf 2058 2ebf
00000140: 6995 823e c796 743f c67b 0cc0 2d5b 54bf
00000150: 816b 1fbe acc8 27bf 5c42 29c0 fdfd 04c0
00000160: b467 883f c2f4 a23f 3d5e 15bf a537 13bf
00000170: 26c4 a9bf c521 90be c309 dfbc a902 a9be
00000180: 9e86 a13e 1c65 843e 9514 113f 298a 02be
00000190: 0e62 a8bf fab6 4cbf 2d51 19c2 3759 8dc1
000001a0: d791 57c0 8065 9bbf 3471 6dbd a988 b4bf
000001b0: 3c5f 63c1 e001 bdc0 be1b 27bf 8c5c d4be
000001c0: d00a 933c a6bc 1c3f f008 21c1 d19c 3ac0
000001d0: 78dc 85c2 a0b4 0ec2 9803 4ebf 6cde 9ebf
000001e0: 03c9 fac2 2b1c 8cc2 9e15 b3bf 4009 91bf
000001f0: c0b0 1dc1 2d50 e9c0 aaa6 06bf be1c 703e
00000200: ed17 72bd 76c0 8d3e 17f8 e4bf 19e4 3f40
00000210: 1577 de3e 8100 f93e 7eed fac0 e72c ccc0
00000220: 0ef1 29c0 b33f 60bf 2a75 a6bf d33f 2ebf
00000230: 7e6a bbbe b9ad 22bf c9d5 10bd 5d22 273f
00000240: 9a17 e6bc 64e0 eabe e7a3 7ebd 5777 b4be
00000250: c1fe 8e3e 439c f4bd c6e7 13bf 6c45 f43e
00000260: 4666 bbbf 3853 3bbf 50f0 03c2 80ba 93c1
00000270: 46b0 bec0 7c2e 27c0 d4de 12bf 6892 253e
00000280: 8565 e6bf a585 9fbd a57d a0c1 5421 69c1
00000290: c776 a4c1 f42d 54c1 b26a 4f3f cc88 fc3d
000002a0: cc18 a7be e764 18bf a49d c83e 712a 41bf
000002b0: 41f3 2dbf 111a 953f 4cbd 8fc0 31e5 24c0
000002c0: 7f9e 61ba 631e 9ebd 49eb 58be 64f7 f3be
000002d0: fac5 22c1 199d 19c1 9e8b 04bf 1338 2a3f
000002e0: 96f4 c3c1 0a56 98c1 f0d5 3fc3 7036 04c3
000002f0: 0664 413e b80f 26bf 7e82 eec2 63c6 adc2
00000300: 6fc0 cfc1 0f6b 24c1 dde1 50c3 436b e9c2
00000310: 0934 8cc3 7463 13c3 0b85 8ebf 4428 913f
00000320: a09b acbe ad84 25bf d652 4bbf 421d 8bbf
00000330: da4a dabf 8dac 053e 63f0 5dc4 9c3f f5c3
00000340: 6b7a 82bd 5280 073e 499c 65bf aa4b 7bbe
00000350: 4c44 5d3f a7cd 07bf 450e 4cc2 1cab 3ac2
00000360: fe58 443e 826d 0ebd a71e d0bf 7682 26bf
00000370: 2dc6 233f 126b 623e 65f0 03bf 00c3 9a3e
00000380: 2ffa b3c3 9165 33c3 bbe6 1b3f 9479 14c0
00000390: 0d84 003f 05c9 d1be cd4f 96c1 1b59 9bc1
000003a0: c30e 963f c3ba c7be b4dc 45c2 8864 cbc1
000003b0: 543f 8a3f 0bb8 cebf 3697 04bf b6e4 5abf
000003c0: a95a a9c3 d845 2ac3 de0d 29bf 31e3 d8bf
000003d0: b70d d9bf 2a7c d5bf 935a 48c2 f506 e0c1
000003e0: b01e 8dbf 0f78 0dbd e695 51c4 575b e7c3
000003f0: f40f 27bf d61b 3b3e 0435 8cbf 5527 babf

fc1.bias f4 [4096]
-1.4558021 -1.1474483 -2.340091 -1.3870423 -0.7571673 0.09005893 -1.1369672 -0.54498464
0.70050824 -1.0033647 -0.6979305 -0.5985277 -0.06629674 -0.8848019 0.2815765 -0.68472534
-0.6995177 0.47088668 0.7432086 -0.404443 -0.7237681 -1.577515 0.07083556 0.05939983
-1.2823193 -0.65780574 -1.8460732 0.39783573 -1.2810261 -0.35936627 -1.1076142 -1.2294986
-0.46630245 -0.97952235 -0.8658174 -0.9661343 -1.1083542 -0.4938151 0.6080328 -1.7668469
-1.3054472 -0.7145417 -0.7924948 0.04252457 -1.6968924 -0.2813767 -0.1405785 -1.9530206
-1.2119462 -0.6681107 -0.5727201 0.82863075 0.34790134 -0.4920056 -0.30632332 -1.4492505
-0.8470908 -1.0450605 -0.5012797 -0.68829674 -1.1581511 -1.5522933 -0.6631008 -0.514266
-0.5555633 -1.8581617 -0.7913033 -0.7168784 -1.5563222 0.096467726 -0.5786809 -0.81592166
-0.3964442 -0.36926597 -0.85700965 -0.6470192 -0.39629057 -0.5066361 -1.3896941 -1.0845739
0.38435042 -0.23353599 -0.42164594 -1.1584074 -0.46380162 -0.84602094 -0.79136795 -0.27533048
-1.6882169 0.08942448 0.66006434 -0.9626936 -1.1918509 -0.13713862 -0.45946217 -0.09599943
-0.34306833 -0.9655192 0.016645893 -0.52268857 -0.36706746 -0.57079035 -1.0323457 -0.36428943
-0.11454527 -2.0295076 -1.1732988 0.76675403 -1.0198586 -1.5425676 -1.6356453 -0.5615902
-0.6253483 -0.9419297 -1.1200052 0.16265374 -1.4222574 -1.6543125 -1.6560493 -0.30174074
1.0911101 -0.3679001 -0.45471516 -0.19065806 0.25635442 0.5538189 -1.572052 0.73556805
-2.8290658 -0.87334776 -0.623453 -0.80074906 -0.6402608 -0.9798295 -0.4370309 -0.6826786
-0.16488622 -1.2287866 -0.5904602 -1.9034393 -0.9901226 -1.4239873 -2.858306 -3.0444567
-0.98914796 -0.46982333 0.22946143 0.2802133 -0.78510064 0.276091 -0.18971573 0.7547536
-1.1551933 -1.2632976 -1.1985407 -0.45729086 0.38630366 -1.2548755 0.40045327 -0.060682174
-0.33636382 -1.7372183 0.3488157 -1.0731926 -1.3851496 -1.2633399 0.893535 -0.21930003
0.30461103 -0.6012161 -0.5955218 -0.4275937 -1.4262093 -0.37893718 -1.7962034 -0.929938
1.0166644 -0.5686608 -0.10877523 -1.438158 -0.8576239 -0.3757378 -1.7606223 -0.73979527
-0.97774196 -1.2053002 0.7626825 -0.5938381 -1.8890525 -2.0693674 -0.046427745 0.024040898
-0.95632356 -0.07662902 -1.1678975 -0.47875157 -0.64503956 -0.30307704 -0.35395628 0.5011421
-1.2133774 -1.531472 -0.0073760035 -0.3869734 -0.37141797 -1.0839013 -1.0779996 0.08432118
0.31568038 -1.8266001 -0.7426924 -0.8325074 -0.79856163 0.40373224 -1.5013669 -2.4679174
-0.2511969 -1.3274379 -1.1968598 -0.8902432 0.22882618 1.4917235 -0.016880386 -0.932715
-0.3219793 -0.11288042 -0.37711668 -2.8113759 -1.5852478 -1.2559603 -1.6197274 0.8738694
-1.5692462 0.24734502 -0.104635306 -0.47293007 -2.830444 -0.40963668 -0.53822446 -2.1850739
0.63336927 -0.9211937 -0.6215926 -1.9606628 0.399152 0.94399714 0.26455367 -0.23056056
-1.4112462 -1.1807146 -0.14308596 -1.4608675 -1.5016918 0.06521772 -0.9728029 -0.7850255
00000000: b957 babf 96df 92bf 0dc4 15c0 9a8a b1bf
00000010: b7d5 41bf d170 b83d 2488 91bf 1d84 0bbf
00000020: 8254 333f 416e 80bf 93ab 32bf 1d39 19bf
00000030: 96c6 87bd 6182 62bf cc2a 903e 294a 2fbf
00000040: 9813 33bf 0f18 f13e eb42 3e3f 2713 cfbe
00000050: de48 39bf 03ec c9bf 3c12 913d 3c4d 733d
00000060: 0a23 a4bf f565 28bf 204c ecbf 20b1 cb3e
00000070: aaf8 a3bf dbfe b7be 4dc6 8dbf 3660 9dbf
00000080: 32bf eebe fac1 7abf 36a6 5dbf 9454 77bf
00000090: 8dde 8dbf 55d5 fcbe 0aa8 1b3f 0a28 e2bf
000000a0: e518 a7bf 34ec 36bf f0e0 4abf 3e2e 2e3d
000000b0: c533 d9bf 9b10 90be cff3 0fbe 94fc f9bf
000000c0: 0e21 9bbf 4e09 2bbf c99d 12bf 2521 543f
000000d0: 2020 b23e 28e8 fbbe 69d6 9cbe 0a81 b9bf
000000e0: f1da 58bf 8bc4 85bf de53 00bf 3734 30bf
000000f0: 4c3e 94bf 8cb1 c6bf f9c0 29bf f0a6 03bf
00000100: 6539 0ebf 3ed8 edbf da92 4abf 5885 37bf
00000110: 9135 c7bf df90 c53d 6e24 14bf 3ee0 50bf
00000120: bcfa cabe 6e10 bdbe fc64 5bbf 0da3 25bf
00000130: 99e6 cabe e7b2 01bf 7fe1 b1bf 51d3 8abf
00000140: 94c9 c43e 0f24 6fbe fae1 d7be b246 94bf
00000150: 6877 edbe d494 58bf 1797 4abf 1ef8 8cbe
00000160: 7e17 d8bf 2f24 b73d faf9 283f 1673 76bf
00000170: 928e 98bf 116e 0cbe a03e ebbe 599b c4bd
00000180: a7a6 afbe 442c 77bf f85c 883c ebce 05bf
00000190: 44f0 bbbe 511f 12bf e723 84bf 2584 babe
000001a0: b696 eabd 74e3 01c0 a82e 96bf fe49 443f
000001b0: ba8a 82bf db72 c5bf d35c d1bf 60c4 0fbf
000001c0: d416 20bf 4e22 71bf 555c 8fbf b48e 263e
000001d0: 880c b6bf 83c0 d3bf 6cf9 d3bf c37d 9abe
000001e0: 7fa9 8b3f 675d bcbe 6dd0 e8be de3b 43be
000001f0: e340 833e 13c7 0d3f 0039 c9bf 304e 3c3f
00000200: 6a0f 35c0 b893 5fbf 9e9a 1fbf e4fd 4cbf
00000210: 22e8 23bf 1bd6 7abf 84c2 dfbe 06c4 2ebf
00000220: efd7 28be e148 9dbf 6628 17bf e6a3 f3bf
00000230: ad78 7dbf 3745 b6bf 7cee 36c0 61d8 42c0
00000240: cd38 7dbf af8c f0be f0f7 6a3e 1e78 8f3e
00000250: 5bfc 48bf cd5b 8d3e d744 42be 8837 413f
00000260: 60dd 93bf bcb3 a1bf c869 99bf 0722 eabe
00000270: 98c9 c53e c39f a0bf 3608 cd3e df8d 78bd
00000280: e137 acbe 2b5d debf f997 b23e 605e 89bf
00000290: 954c b1bf 1fb5 a1bf b6be 643f 3090 60be
000002a0: faf5 9b3e 4ce9 19bf 1e74 18bf 90ed dabe
000002b0: 078e b6bf 0e04 c2be fee9 e5bf 6b10 6ebf
000002c0: 0f22 823f c193 11bf 8cc5 debd 9015 b8bf
000002d0: 3d8d 5bbf b460 c0be 125c e1bf 3963 3dbf
000002e0: 4c4d 7abf 4747 9abf 293f 433f c605 18bf
000002f0: 79cc f1bf 8470 04c0 052b 3ebd 6bf1 c43c
00000300: 9fd1 74bf adef 9cbd aa7d 95bf ed1e f5be
00000310: 5021 25bf ea2c 9bbe c239 b5be d94a 003f
00000320: f34f 9bbf 4607 c4bf 67b2 f1bb 6121 c6be
00000330: 7f2a bebe 47bd 8abf e4fb 89bf 95b0 ac3d
00000340: dca0 a13e 08ce e9bf 1721 3ebf 341f 55bf
00000350: 896e 4cbf feb5 ce3e ca2c c0bf 5cf2 1dc0
00000360: e19c 80be 7ce9 a9bf b432 99bf fae6 63bf
00000370: 6951 6a3e ccf0 be3f bc48 8abc 69c6 6ebf
00000380: 79da a4be da2d e7bd 7015 c1be 95ed 33c0
00000390: 66e9 cabf 4fc3 a0bf 3a53 cfbf e8b5 5f3f
000003a0: 0fdd c8bf 0348 7d3e 094b d6bd e423 f2be
000003b0: ff25 35c0 e6bb d1be 14c9 09bf 40d8 0bc0
000003c0: 7d24 223f 5ad3 6bbf b120 1fbf 00f7 fabf
000003d0: a75d cc3e cca9 713f 9473 873e 1118 6cbe
000003e0: b7a3 b4bf a821 97bf 2085 12be b5fd babf
000003f0: 7037 c0bf de90 853d 9c09 79bf 6ef7 48bf

fc2.weight f4 [1, 4096]
0.030869626 0.0035265528 0.023580523 0.0003350768 0.022150347 -0.055381224 -0.018506251 0.009271357
0.009433871 0.014768801 -0.04927949 -0.0065183775 0.0110362 -0.0053479117 0.024619829 0.008167104
0.024797713 -0.03617319 -0.010040917 0.011243036 0.018191257 -0.0197742 0.0074740136 0.0024747145
0.010742131 0.01714131 -0.0005657816 0.015422184 0.029463934 0.011408471 -0.01721379 -1.6693183e-06
0.047244176 -0.022674322 0.0040242253 -0.0025924833 0.028195761 0.0120585635 -0.022308735 -0.022858487
0.033408068 0.032247704 0.0023967982 -0.014659886 -0.012315035 -0.007915165 -0.0068941675 -0.011724434
-0.028503226 0.015588936 -0.01844507 0.030442376 -0.0130263325 0.0012631816 0.01113593 -0.019558098
0.037615478 0.007382426 0.04156266 0.0068778666 0.06272321 -0.0093597295 -0.036464557 -0.022869973
0.037188545 0.022096802 0.016067635 -0.02205501 -0.024959672 0.031753547 0.011437266 -0.014359368
-0.039246865 -0.015478871 0.019408368 0.014594994 0.008078039 0.007512606 -0.03102592 -0.03652729
-0.01661881 -0.018893458 -0.022506464 0.04180639 0.007011514 -0.010243663 0.0067812856 -0.010535043
0.055364463 0.024266535 -0.007378245 -0.02995194 -0.008760346 -0.05140004 0.01654658 -0.0294674
-0.01768557 0.008392404 0.012954129 -0.0056395605 0.020601725 0.00841899 0.03817717 0.035376012
0.02343246 0.035507042 -0.030606654 -0.016920809 -0.016113251 0.0023623179 0.01647623 0.013439894
0.017060932 -0.00052118086 0.03848854 -0.0116266785 -0.011844768 0.0023949621 0.000335654 -0.0036483328
0.0159927 0.028647836 0.024674013 -0.013379249 -0.040299352 0.03338194 0.0015609817 -0.029037291
-0.0155335115 0.0094225975 0.0012901191 -0.033152763 -0.07716274 -0.007908997 -0.02564207 0.0070098066
0.027936734 -0.016281445 -0.024922898 -0.025874369 -0.0047877086 0.034077883 -0.0014096323 0.006879203
0.0012357747 -0.006426321 -0.0057979985 -0.034309894 -0.0016736197 0.0072000725 -0.010947568 -0.0074626547
0.033705972 -0.015377443 -0.032226786 -0.021047741 0.001426045 0.0055681905 0.04312436 -0.021529444
0.039329775 -0.025631173 0.012661071 0.02037093 0.009196841 -0.033215992 -0.017186308 0.022427136
0.04459893 -0.023246352 0.0031723976 -0.0016036248 0.063618325 -0.0004229644 -0.019829327 -0.014858485
0.008562804 0.03272689 -0.06359416 0.0059305937 -0.030793138 -0.011891775 -0.0039048884 0.0023146286
0.037134692 -0.027509438 0.0036951448 -0.004031635 -0.007479161 -0.025507016 -0.0065361676 0.024768496
0.0319926 0.018224576 0.0007867141 -0.029022403 -0.0074876416 0.020208303 -0.040423147 0.010436076
-0.010168278 0.0077877627 0.025323272 0.02889291 -0.03291509 -0.018158866 0.029252557 -0.02401797
-0.008907807 -0.021468725 0.040483356 -0.03453001 0.029577907 0.030771634 0.026860887 0.0017955736
-0.035765618 -0.02549625 0.01705295 -0.022716083 -0.0035956646 -0.032146532 -0.026339933 -0.03190248
-0.015092196 -0.0074599297 0.008451513 -0.019156383 -0.03749867 -0.0035714193 0.00089072867 0.0010572462
-0.0037042531 0.03784124 -0.0008928166 0.01295293 0.037335616 0.007781948 0.0020019999 0.011890251
0.007021806 0.02459391 0.028393514 0.0054654963 0.018689364 0.003770137 -0.005776815 -0.020769581
-0.014580648 0.01574117 0.013784097 0.017365726 0.0151787475 -0.016205253 0.0046389597 0.017177718
00000000: 4ce2 fc3c bd1d 673b f12b c13c 3fad af39
00000010: a574 b53c 6cd7 62bd 6c9a 97bc e4e6 173c
00000020: 8690 1a3c d7f8 713c 4ad9 49bd 1d98 d5bb
00000030: 2ed1 343c 893d afbb 86af c93c 51cf 053c
00000040: 9324 cb3c 572a 14bd a982 24bc b634 383c
00000050: d505 953c 81fd a1bc 92e8 f43b d22e 223b
00000060: c3ff 2f3c ef6b 8c3c f650 14ba 54ad 7c3c
00000070: 595e f13c 98ea 3a3c ef03 8dbc 570d e0b5
00000080: 1c83 413d 80bf b9bc a6dd 833b a7e6 29bb
00000090: ccfa e63c 4891 453c cfc0 b6bc b941 bbbc
000000a0: e6d6 083d 2b16 043d 9a13 1d3b 0530 70bc
000000b0: 00c5 49bc 9cae 01bc 78e8 e1bb d717 40bc
000000c0: 997f e9bc bd68 7f3c 1e1a 97bc 4a62 f93c
000000d0: 666c 55bc 5791 a53a 7a73 363c 4e38 a0bc
000000e0: b012 1a3d 47e8 f13b 9c3d 2a3d ba5f e13b
000000f0: 0775 803d 8d59 19bc dc5b 15bd cf59 bbbc
00000100: 0453 183d 5a04 b53c 46a0 833c b5ac b4bc
00000110: 3a78 ccbc 0210 023d 5f63 3b3c 8e43 6bbc
00000120: 52c1 20bd 179b 7dbc 4cfe 9e3c d71f 6f3c
00000130: c059 043c 4f2c f63b 122a febc a49d 15bd
00000140: 2c24 88bc 74c6 9abc 7a5f b8bc 2d3d 2b3d
00000150: d8c0 e53b 09d5 27bc 8c35 de3b 2c9b 2cbc
00000160: d9c5 623d 9dca c63c 34c5 f1bb c55d f5bc
00000170: 8e87 0fbc d988 52bd b18c 873c 9e65 f1bc
00000180: 54e1 90bc 4b80 093c 8e3d 543c 10cc b8bb
00000190: f3c4 a83c ceef 093c aa5f 1c3d 70e6 103d
000001a0: 6ef5 bf3c d56f 113d ceba fabc 829d 8abc
000001b0: f0ff 83bc 1ed1 1a3b 29f9 863c 0033 5c3c
000001c0: 5ec3 8b3c db9f 08ba 29a6 1d3d d37d 3ebc
000001d0: 8f10 42bc ccf4 1c3b b8fa af39 de18 6fbb
000001e0: 1f03 833c deae ea3c 2821 ca3c a334 5bbc
000001f0: ef10 25bd 80bb 083d db99 cc3a 9ddf edbc
00000200: 4580 7ebc 3d61 1a3c 3719 a93a 31cb 07bd
00000210: 8007 9ebd bd94 01bc 520f d2bc 85b2 e53b
00000220: 94db e43c aa60 85bc 1b2b ccbc 7cf6 d3bc
00000230: 36e2 9cbb 4095 0b3d 69c3 b8ba f06a e13b
00000240: b8f9 a13a e393 d2bb 23fd bdbb 8888 0cbd
00000250: 5c5d dbba 96ee eb3b 6e5d 33bc 4989 f4bb
00000260: 460f 0a3d acf1 7bbc 3c00 04bd 506c acbc
00000270: 21ea ba3a 5e75 b63b 2ba3 303d 845e b0bc
00000280: 4218 213d 77f8 d1bc 6170 4f3c f0e0 a63c
00000290: 59ae 163c 7e0d 08bd 4dca 8cbc 1db9 b73c
000002a0: 5ead 363d 226f bebc 00e8 4f3b b830 d2ba
000002b0: 534a 823d 52c1 ddb9 1d71 a2bc 0171 73bc
000002c0: 014b 0c3c a20c 063d a83d 82bd 6d55 c23b
000002d0: e441 fcbc b8d5 42bc 28e9 7fbb 06b1 173b
000002e0: 8c1a 183d 795b e1bc 3e2a 723b ce1b 84bb
000002f0: c013 f5bb 17f4 d0bc 592d d6bb 4de7 ca3c
00000300: ac0a 033d b54b 953c 7d3b 4e3a 64c0 edbc
00000310: e45a f5bb e28b a53c be92 25bd 13fc 2a3c
00000320: d998 26bc 7d30 ff3b c072 cf3c d3b0 ec3c
00000330: f9d1 06bd e7c1 94bc 0fa3 ef3c 55c1 c4bc
00000340: 0df2 11bc 2edf afbc e0d1 253d 576f 0dbd
00000350: 5e4d f23c cb14 fc3c 5d0b dc3c 7459 eb3a
00000360: f87e 12bd 83dd d0bc a1b2 8b3c 1417 babc
00000370: 3ea5 6bbb 15ac 03bd d8c6 d7bc 2dac 02bd
00000380: 4245 77bc 6d72 f4bb 3778 0a3c d9ed 9cbc
00000390: 3598 19bd 790e 6abb ca7f 693a 4c93 8a3a
000003a0: 0ec3 72bb 6bff 1a3d e80b 6aba 8738 543c
000003b0: 3bed 183d b6ff fe3b fc33 033b 54cf 423c
000003c0: 2e17 e63b 2b79 c93c 8499 e83c e817 b33b
000003d0: 701a 993c 6714 773b 704b bdbb f824 aabc
000003e0: ace3 6ebc a0f3 803c b1d6 613c 9142 8e3c
000003f0: 48b0 783c e1c0 84bc 6a02 983b 49b8 8c3c
