checkpoint/perturb/infty/NGD/mlp_epoch493_seed4.pt (torch, 67297 bytes, 3 tensors)

fc1.weight f4 [4096, 2]
00000000: 6501 71bf 3bb1 a13f 8728 3cbe 3c1a 1a3e
00000010: 1b4a dc3d 0c48 8ebe 4a89 26c0 dbde 1f3f
00000020: 374f 5ebf c1e8 51be 00d6 f93e 3ff4 813f
00000030: 3100 5cbd 9f31 3f3d ea30 e2bf 4ab5 07c0
00000040: e5b8 c73f 75e5 42bf d4da 483b 2c3a 1dbe
00000050: 9695 ca3f 42b1 2bbf 8320 1340 3de7 8a40
00000060: 863d 42bf d0c6 3dbe 9016 5bbf 463e 70be
00000070: c8d2 d7be 864d 593f 8570 2dbf 19c8 71bf
00000080: 288e f6be 4a29 9f3f 6ee0 8540 a70b d140
00000090: 5ed9 dfbe 2f76 b43f 4914 8b3e b4cf 0bbe
000000a0: d2dd 31bf 54bd a8bf a027 78bf 72e8 233f
000000b0: 0103 a03f 3e34 7abf f932 09c0 3c1e b43f
000000c0: f863 d6bf 22c7 843f f274 18bf 95b7 7c3f
000000d0: dc8e 6a3f 0c0b c9bc 6fad 38bf 5497 2a3f
000000e0: b22a 65bf 27d6 81bf 25b2 78be ef4e c9bf
000000f0: 9e63 b03e 426d 84bf 7d19 9e3b fb80 a8bf
00000100: 5717 a73c 0628 29be 23f0 c63d ce4f 3d3e
00000110: f6cf 783e 765e b4be 892e 44bf 103b 983e
00000120: 0966 823c 7274 303e aaed b2bf c293 07c0
00000130: c29d 94bf 7e79 9ebf bc31 f13e 919e 6bbe
00000140: 7d57 9dc1 ceb9 10c1 1323 74bf 7aee 88bc
00000150: d952 813e 121b 2d3f d334 aa3e 10ec 85bf
00000160: 69b8 28c1 0d7e e4c0 a1a5 a4bf 0d48 e6be
00000170: a86c 89bf d2c2 80bf 3fa3 13c1 9104 86c0
00000180: 75f3 153d 406f b1bf 2d0a 4cc0 373b 66c0
00000190: 9fa5 31bf 7b26 d7bf 1ce6 12bf cf1e 8cbf
000001a0: f3a6 253e 3b72 66bf 0682 1bbf c3c6 dabd
000001b0: b022 bcbe 12d6 763f d681 01c0 fb3f 95bd
000001c0: ff9a c8be eef8 013e 7281 54bf 83f3 d2bf
000001d0: a98d e9bd 3e3d 1cbf cd17 c1bf 31fb e23d
000001e0: ab05 73c1 b566 16c1 81d2 71bf c458 4bbf
000001f0: 5efa 99bf 5cfb 2b3f 4ed2 9f3e 6bc6 cebf
00000200: 9f14 5d3f 8be1 c3bf dc9a 093f 764d d0bf
00000210: d733 90bf f277 06bf b4eb bb3f 6d03 6fbf
00000220: 8116 20bf 21c9 383f f899 c0bf 305f 833f
00000230: 5146 a3be 685d 5abf b0fc 923e bc21 25bf
00000240: 3e2e 3fc1 cc29 b2c0 5e8a 10bf 6193 8dbe
00000250: 5e48 9b3f f068 913f a208 3ebf 46b3 c0bf
00000260: 98ed 3f3f 6a06 43be 2165 b53e 76d7 083f
00000270: e5ec d8c0 7461 23c0 e752 62be dc2f a9be
00000280: 7186 10bf 23cb 543f 37f0 63c2 3a75 06c2
00000290: f482 9e3e 9c94 30bf 7e58 aabf f18e 08c0
000002a0: 9420 633f 3f61 1f3d 28d0 0bbd 71b4 aabf
000002b0: 238f 93c2 7ba0 1fc2 3e3c e3bf c3e5 90bf
000002c0: 246b 23bf 0aee 84bf 4c1f f5be 9911 06c0
000002d0: 9ba1 41bf 9155 ff3e 938b 80c2 e9a8 1ac2
000002e0: 21da 9e3f ce9e 193f 7910 9fc3 a262 32c3
000002f0: 5549 b8bf b76f 7b3f deeb 7e3e 60a4 41bf
00000300: 7a92 aec3 7a22 4bc3 dc58 87bf 354e 0d3f
00000310: eb4e 1ebe 3c26 b1bf 7e51 19c4 22f8 adc3
00000320: 1c64 3cc0 cb90 063e dcc3 32bf f8be cdbf
00000330: 4404 c4c3 704f 60c3 5522 adc3 363c 40c3
00000340: 5bb9 92bd 2054 86bf 4e34 b0bf 85a6 8b3f
00000350: 402a 08c1 9168 ffc0 751b 6cc3 0b5c 08c3
00000360: 9525 dfbf 6e29 a53f 993c ac3e f10e 48be
00000370: 4499 8abe 3208 523d 90e1 16c3 e1c7 a5c2
00000380: 9e7f 8bbf 8924 0c3f 51d8 a1bf 9cd0 a5be
00000390: fdb4 6ec3 b395 00c3 5e2f 90c0 c35d 86c0
000003a0: 2548 62bf 6265 fdbe 19a0 89bf 7925 cfbc
000003b0: 1b7b 73bf 003f d83d 0407 6a3f 6609 46bc
000003c0: ad4e a63e 2482 a7bf ad64 1cc4 04b6 b2c3
000003d0: bddf 3cc3 09be dbc2 5756 00c1 6b26 74c0
000003e0: 5a86 013f 7691 79bf a5c3 623f cdb8 e8be
000003f0: 246d 93c0 87f0 b9c0 203b a43e 88d0 fe3e
-0.9414275 1.2632211 -0.18374835 0.1504907 0.10756322 -0.27789342 -2.6021295 0.62449425
-0.8683962 -0.20498945 0.48796082 1.0152663 -0.05371112 0.04667818 -1.7671177 -2.12044
1.56033 -0.76131374 0.003064801 -0.15354222 1.58269 -0.6706735 2.2988594 4.3407273
-0.7587513 -0.18532872 -0.855813 -0.23461255 -0.42153 0.84883916 -0.67749816 -0.9444595
-0.48155332 1.2434475 4.183646 6.5326724 -0.43720526 1.4098567 0.27163914 -0.13653451
-0.69479096 -1.3182778 -0.9693546 0.6402656 1.2500917 -0.97735965 -2.1437361 1.4071727
-1.6749258 1.037327 -0.59553444 0.98717624 0.91624236 -0.0245414 -0.7213964 0.6663716
-0.8951827 -1.0143479 -0.24286707 -1.5727214 0.34451002 -1.0345843 0.004824816 -1.3164362
0.020396871 -0.16519174 0.09713771 0.18487474 0.24298081 -0.35228318 -0.76633507 0.2973256
0.015917795 0.1723192 -1.3978779 -2.1183934 -1.1610644 -1.2380826 0.47108257 -0.23009707
-19.667719 -9.045362 -0.9536602 -0.016715277 0.2525852 0.6761943 0.33243427 -1.0462666
-10.545022 -7.140387 -1.2863046 -0.44976845 -1.0736284 -1.0059454 -9.227355 -4.1880574
0.03660913 -1.3862076 -3.188121 -3.5973642 -0.6939334 -1.6808618 -0.5738237 -1.0946902
0.16176967 -0.9001805 -0.60745275 -0.10682442 -0.36745214 0.96420395 -2.0235496 -0.07287594
-0.39180753 0.12692615 -0.8301002 -1.6480564 -0.11403973 -0.6103095 -1.5085388 0.11083067
-15.188884 -9.400075 -0.9446183 -0.7943232 -1.2029531 0.6718042 0.31215137 -1.6154302
0.8635959 -1.5303205 0.5375192 -1.6273639 -1.126582 -0.5252677 1.4681306 -0.933646
-0.6253434 0.721819 -1.5046988 1.0263424 -0.31889585 -0.85298777 0.2870841 -0.645046
-11.94879 -5.567602 -0.5646113 -0.27651504 1.213146 1.1360149 -0.7423192 -1.505471
0.74971914 -0.19045416 0.35428718 0.5345377 -6.778918 -2.552823 -0.22101937 -0.33044326
-0.5645514 0.8312246 -56.984585 -33.61448 0.30959284 -0.6897676 -1.3308256 -2.1337245
0.88721585 0.0389111 -0.03413406 -1.3336316 -73.779564 -39.90672 -1.775276 -1.1320118
-0.6383536 -1.0385144 -0.4787544 -2.094824 -0.75637215 0.4986997 -64.272606 -38.66495
1.2410318 0.6000794 -318.1287 -178.38528 -1.4397379 0.9821734 0.24894664 -0.7564144
-349.14435 -203.13467 -1.0573993 0.5519746 -0.15459792 -1.3839793 -613.2733 -347.93854
-2.9436102 0.13141172 -0.6983011 -1.6073904 -392.03333 -224.3103 -346.26822 -192.2352
-0.0716426 -1.0494423 -1.3765962 1.0910193 -8.510315 -7.9815145 -236.10725 -136.35954
-1.7433344 1.2903268 0.33639982 -0.1953695 -0.27070057 0.051277347 -150.8811 -82.89039
-1.0898321 0.5474325 -1.264414 -0.3238572 -238.70699 -128.58476 -4.505782 -4.1989455
-0.88391334 -0.4949141 -1.0751983 -0.025286423 -0.9510972 0.10558891 0.91416955 -0.012087202
0.324819 -1.3086591 -625.57306 -357.422 -188.87398 -109.87116 -8.021079 -3.8148448
0.5059563 -0.9748758 0.8857978 -0.45453492 -4.607073 -5.8106112 0.3207636 0.49768472

fc1.bias f4 [4096]
00000000: ae41 05bf 713b 09c0 f3ec 4dbf 5957 21c0
00000010: 7f17 a3bf a865 17bd e2df b5bf cf74 ef3d
00000020: c5f7 9bbf 45e6 e9bf d71e b2be 1fae 473e
00000030: ac94 ecbe 7086 61bf 0471 f7bf c9c8 76be
00000040: 084c 9fbf 9905 23bf 0b3e 95bf 6143 7fbf
00000050: 06eb 2ebf 4c13 c8be 9302 c03d 582c adbf
00000060: d6e1 e1bf 2649 86bf 7443 5abf 0889 52be
00000070: 5b8e d1bf 271e bb3d 2c01 b0be 82e3 f7bf
00000080: 86fb 2cbf 51eb 313f aa30 f3be 6624 10be
00000090: 08c5 e0be ad19 b33f 800f 593e 4c7e 28bf
000000a0: c42f 5fbf c119 00be 3cac debf 4ddc a9be
000000b0: 313f 52bf 22a5 91be d632 d5bf aea7 92bc
000000c0: 95f2 35bf 1d74 54bf c0e2 52bf 7b8e 32bf
000000d0: df46 aebf e3e9 8d3e 1ead 8abf ab13 7c3e
000000e0: 7778 d1bf e862 6cbe 2fec 04be 3994 16bf
000000f0: 7952 f0be 3362 44be dc81 94bd 78c5 88bf
00000100: 1261 cabf 6ec5 26bf 9147 8bbe d67a d7bf
00000110: 9bc1 a3be 6b6e 96be 0a40 2dbf f863 15bf
00000120: 35ed 66bf 6652 0fbe 0c90 fabf 133d 0fbf
00000130: d597 b0bf c048 67bf d743 15bf d67b 8bbf
00000140: 35ee 80bf fb11 32bd 8e3c 80bf 38cb eb3e
00000150: ce56 b8bf 5afe 82bf 9336 773d 2a1b 2cbf
00000160: 0795 17bf 8cb2 cebf 5e59 4bbf 3ae3 173f
00000170: 8f7d b1bf 30d3 86be 5e3c 95bf 5cad 9ebf
00000180: 7c5a 26bf 5ba2 7bbe 7fee b3bf 1248 9cbf
00000190: 6a02 9cbf ce52 e43e 3259 78bf baf0 f63e
000001a0: 3088 e1bf bb24 61bf 976c f4bf 4469 09bf
000001b0: 2ef1 43bf b6ca 04bf 7548 f1bf cad5 02bf
000001c0: 616b 59be 295b b3be cede 213d 3f29 d9be
000001d0: 200a 56be c406 c53d 32ca 55bd e009 95bf
000001e0: 27dc a9bf b073 b93e 1e7b 68bf 0ec0 0bbf
000001f0: 6b9a c9bf 52c4 6fbf 7223 c1bf d05c 9ebf
00000200: b2da e0be acbc 55bf b801 00bf f0c8 2cbf
00000210: c00b 97bf bb4f 7bbf b8c4 d9bf 1871 debf
00000220: 22a3 0fc0 29a3 18be dadd d2bf 2531 4c3f
00000230: 0dd4 9d3e 47f7 47bd f355 1d3d 2ef5 83bf
00000240: 171b a4bd 0c6f 42be b31e f33e 31be a0bf
00000250: 2574 cbbf 3cc0 73bf d07f adbe 67a3 aebf
00000260: 8906 59bf 2730 53bf 147d ac3f 87d5 c03e
00000270: 14eb 35bf 6bf8 623f de3d 11bd 5988 99be
00000280: a7b4 08bf c757 18bf 6d46 01c0 078c 98bf
00000290: 0204 63bf aaad 28bf 4f92 813e 8f32 6bbf
000002a0: b72c dcbe c9ee 513f a2f2 d8be 90f6 583e
000002b0: bd80 71be 7ad7 91be b1b2 77bf a7ae dcbf
000002c0: 1c0b 5ebf 917d 8ebf 5bee 8fbe 01a7 50bf
000002d0: bb56 babf 1e03 53be c447 a5bf 941b a03d
000002e0: 93b7 0bc0 94cc 87bf 3c5f 59bf 9248 7dbf
000002f0: 0078 1a3f 2928 97bf d7c0 cfbf 05d0 59bf
00000300: 67d2 9bbf 115b ffbf 2eb7 b4bf 9ae5 dcbe
00000310: 6814 75bf 7be7 153e 343a 353e 7336 2cbf
00000320: 6413 c2be 8b4f 56be b74b 5abf 7651 83bf
00000330: 796b b2bf 433f e4bf 7f83 84bf 7a10 94bf
00000340: 4781 25bf c683 e7bf a785 33c0 de80 f3be
00000350: ecb1 c6bf 1a91 79bf 11b9 2abf 3589 b6bf
00000360: f9ef cabf 7067 d6bf b2e5 9bbf b0c3 47bf
00000370: abd2 d4bf b281 70be 9615 f93e f860 0cbf
00000380: 1eb6 8d3b 6872 42bf 7100 abbf bb6b 03bf
00000390: 8ec7 cbbe d59a c0bf 0b9a a0bf 91f2 84be
000003a0: 4c64 cdbc 9b58 9bbf a363 0bc0 a4a9 0cc0
000003b0: 2ec1 d7be 2c3d 83bf 41bb 58be 53c3 64bf
000003c0: 7ba8 5bbf f8ba a7bf 7aed c1bf 5ef8 143f
000003d0: f353 f93e 53fe 923f c9d8 8dbf 9487 523d
000003e0: 612d d43d 99c4 e0bf 3ba7 073e a294 fbbe
000003f0: 49d3 66bf 6bef 40bf 3947 123f 2a9f babe
-0.52053344 -2.144253 -0.8043968 -2.5209563 -1.2741545 -0.03696218 -1.4208949 0.11692201
-1.2184988 -1.8273398 -0.34789154 0.19500016 -0.46207178 -0.8809576 -1.9331365 -0.24100031
-1.2445078 -0.63680416 -1.1659559 -0.9971219 -0.6832737 -0.39077222 0.09375491 -1.3529158
-1.7647045 -1.0491073 -0.85259175 -0.20560086 -1.6371568 0.091366105 -0.34375894 -1.9366305
-0.67571294 0.6949969 -0.47498065 -0.14076385 -0.43900323 1.3992211 0.21197319 -0.65817714
-0.8718226 -0.12509824 -1.7396312 -0.3317589 -0.8212767 -0.284463 -1.6656139 -0.017902222
-0.71073276 -0.82989675 -0.82377243 -0.6974866 -1.3615378 0.27717504 -1.0834081 0.24616878
-1.6364888 -0.23084605 -0.12980722 -0.5881992 -0.46937922 -0.19178085 -0.07251331 -1.0685263
-1.5810874 -0.65145004 -0.27203038 -1.6834362 -0.31983647 -0.29381117 -0.6767584 -0.58355665
-0.902057 -0.13996276 -1.957521 -0.55952567 -1.3796335 -0.9034538 -0.5830664 -1.0897167
-1.0072695 -0.04347418 -1.001848 0.4605348 -1.4401491 -1.0233872 0.06035478 -0.6722895
-0.5921177 -1.6148238 -0.7943324 0.59331095 -1.3866442 -0.26332998 -1.1659048 -1.2396655
-0.6498182 -0.24573652 -1.4057158 -1.2209494 -1.2188237 0.44594425 -0.970111 0.48230535
-1.7619686 -0.8794667 -1.9095639 -0.5367625 -0.76539886 -0.5187181 -1.8850237 -0.51107466
-0.21232368 -0.35030487 0.039519124 -0.4241428 -0.209023 0.09620431 -0.05219478 -1.1643639
-1.327031 0.36221075 -0.9081286 -0.5458993 -1.575025 -0.93658936 -1.5088942 -1.2372074
-0.4391685 -0.83491015 -0.5000262 -0.67494106 -1.1800461 -0.98168534 -1.7013159 -1.7378263
-2.2443318 -0.1490599 -1.6473954 0.7976249 0.30825844 -0.048819806 0.038412046 -1.0309198
-0.080129795 -0.18987674 0.4748436 -1.2558042 -1.589482 -0.952152 -0.33886576 -1.3643616
-0.84775597 -0.8249535 1.3475671 0.37662908 -0.71061826 0.88660306 -0.03545939 -0.29986838
-0.53400654 -0.5950894 -2.0199234 -1.1917733 -0.8867799 -0.6588999 0.25306937 -0.9187402
-0.43002865 0.8200498 -0.42372614 0.21187806 -0.23584266 -0.28484708 -0.96757036 -1.72408
-0.867357 -1.113207 -0.28111538 -0.8150483 -1.4557718 -0.20606658 -1.2912526 0.0781776
-2.1830795 -1.0609307 -0.8491094 -0.9893886 0.60339355 -1.1809131 -1.6230725 -0.8508304
-1.2173585 -1.9949666 -1.4118402 -0.43143922 -0.9573426 0.14639084 0.17697984 -0.6727058
-0.3790542 -0.2092878 -0.8527178 -1.0259235 -1.3939048 -1.7831806 -1.035263 -1.1567528
-0.64650387 -1.8087089 -2.8050325 -0.47559255 -1.5523047 -0.9748703 -0.6668864 -1.4260622
-1.5854484 -1.6750317 -1.2179472 -0.7803297 -1.6626791 -0.23486975 0.4864928 -0.5483546
0.0043246886 -0.7595582 -1.335951 -0.5133626 -0.39800686 -1.5047251 -1.254701 -0.25966313
-0.02507224 -1.2136415 -2.1779563 -2.197854 -0.42139572 -1.0253043 -0.21165182 -0.8936054
-0.85803956 -1.3103933 -1.5150597 0.5819148 0.4869686 1.1483864 -1.1081783 0.05139883
0.10360218 -1.7559997 0.13247387 -0.49136835 -0.90166146 -0.7536532 0.5713993 -0.36449558

fc2.weight f4 [1, 4096]
00000000: 33f2 2abb bea2 a93b 4e02 083d 17a3 d93c
00000010: 01f4 073d fd66 e73c 3ecf 24ba afdd b83b
00000020: 3474 163d caf9 0abb 0415 cbbc 2cc5 033d
00000030: 5f24 6dbc 1898 b0bb 7f35 ad3c d69a fabc
00000040: 96f9 edbb dd0b b63c 28bb e63c 3761 9b3c
00000050: df44 ca39 6d97 1ebd 8c79 0dbb cbbe 3fbd
00000060: e356 103d 937f d5bb 51df 623a 0e9e bebc
00000070: 082e 42bc 7bb2 31bc f486 c1bc acc9 9abc
00000080: 28e3 d2bc 05b3 9bb9 d632 06bd 98e7 1e3c
00000090: 9b96 f7bc a550 82bc a3a0 1a3d 29b8 eebc
000000a0: 84ad 5a3d 6eb8 c33a 3305 68bc 61ed adbb
000000b0: f825 c43c ffcf 99bc 15de 0d3b 2e4c 8c3c
000000c0: 9ac7 19bc 8b31 0d3c 30ac 56bc 1888 c13b
000000d0: 0fed f83a 0fd4 9dbc ff94 d83a 3442 64bc
000000e0: 615e f8bb 27db f33b 0c9d 03bd a5a8 0b3d
000000f0: 2f9a 8a3c 6eed 87bc c903 9d3b e7b8 6d3c
00000100: 8311 2ebb 4091 a83b 0f4c f6bc 31cc 723c
00000110: 8013 b43c 3769 6ebc 596b 9dbc ab4e c43b
00000120: 87e8 5b3c ac42 f33c 1ef5 00bd 5ad5 093d
00000130: 358f 14bd 061c babb 86c1 d73b ccb3 5b3b
00000140: 789c 923b caec 943c 6978 1cbc 41e9 c63c
00000150: 1041 9abb 3fee be3c 6c7a 893c 5990 25bd
00000160: ef6c 61bc e217 2e3d 60a0 fabc 2d3b 233c
00000170: 4367 d3ba 486f 1d3d 7d1f 08bc 7dca a9bc
00000180: b306 ed3c 29de 973a 214a 2d3d 2b60 333d
00000190: 7dd5 b23a 0c5a 983c b043 e03c 2f56 ce3c
000001a0: 9138 ca3c 0237 fcbc 30bc b8bc 076d 883c
000001b0: 3e54 6ebc 0314 273c 0446 043c c020 353c
000001c0: bce5 a8bc a857 f93c 7f00 8a3c 1e3b 7ebc
000001d0: 0803 c23b 14b9 173c 6bc9 b2ba d356 373c
000001e0: fab7 193d 4f31 313d 6900 583c 5732 253a
000001f0: 0757 b5bc 1d2f a1bc 96a7 d3bc 7fdf b6bb
00000200: 97d0 823b 1204 c93c d6b8 91bc f9c0 8ebc
00000210: 7140 113c bbcc 3c3c 5fe9 84bc d64f 753b
00000220: 6b7d f43c 7fe8 813b 3e77 e8bc 851e d53c
00000230: fbe9 d63a 44ee 0dbb a6be 4a3c dada 3b3c
00000240: b53b 29bd e1fd edbb 4968 64bc f1fe 333c
00000250: 048b b33a 7311 73bc a01e 6b3c 90d6 f2bc
00000260: 2209 003d 4312 033d 254c 933c 446a a23c
00000270: f119 24bc fb5d 0e3d ffa9 84bb a0d2 203d
00000280: 0eed f7bb c77e 84bb fa34 b8bb 3532 d4bc
00000290: f1c2 193d 266a 80bb 5513 0b3d 62b9 9bbc
000002a0: 14ba 123d d9a6 05bd ed60 343b 2f61 953c
000002b0: 09f1 97bc 4854 ab3c 9f84 5bbc 4c3a a43b
000002c0: fdaf 7b3a f2d2 023d 2773 6c3c 92c2 933d
000002d0: ddc2 b53b 0b93 9d3b 9e8e 13bd 6af6 033c
000002e0: 4fd9 e03c 2046 643c ad17 91bc c068 87bb
000002f0: 8112 273c 4c34 efbc da63 0b3c 5d71 2fbc
00000300: cc1d 25bd e24b f6bb d7ab ea3c cc14 c3bc
00000310: 2d09 1fbc 1b5b eebc 2365 ff3b 1642 103d
00000320: 7136 18bd bc9e ebbc d867 c13c 2650 f73c
00000330: 502d 52bc 3330 75bb f273 143c 08ec 37ba
00000340: 26be e0bb 48b2 63bc ad3e ef3a 4729 1d3c
00000350: 1cdf 9e3c 3ce1 edbc 74e1 683c 5405 953b
00000360: 1989 993b 79a9 07bc cb16 58bb ac36 97bb
00000370: 0a4f 7a3b d94c c5bc a058 c83b 3cdb b63c
00000380: c91a 51bc 6052 4cbd 59cd 363d 9882 d03c
00000390: a747 aebc 3907 f93b f99f cc3c 49fb 11bd
000003a0: 7744 5b3b c039 64bd dc7f 36bd 5534 b83c
000003b0: 9221 efbb be9e d33c e550 70bc bba2 913c
000003c0: 8cd1 63bc b11c 1dbb 7987 7eba ca11 6c3c
000003d0: 13ed d83c a63d 34bd aa8b 433d 6f53 08bc
000003e0: 5477 b6bc 8b67 033d e831 863c 8ad3 6bbd
000003f0: d157 233c 3f7f 663b 5021 acbc 35ea fbbb
-0.0026084303 0.005176871 0.033205323 0.026567025 0.033191685 0.02824735 -0.0006286985 0.005641661
0.036731914 -0.0021206015 -0.024790294 0.03217046 -0.014474004 -0.0053892247 0.021143673 -0.03059141
-0.007262419 0.022222454 0.028165415 0.018967254 0.00038579755 -0.03871863 -0.002158734 -0.046812814
0.03523911 -0.006515452 0.00086544926 -0.023268726 -0.011851795 -0.010845776 -0.023623921 -0.018894993
-0.025743082 -0.00029697284 -0.032763325 0.009698771 -0.030223181 -0.015907595 0.03775085 -0.029140549
0.053388134 0.0014932284 -0.014161396 -0.005307839 0.023943886 -0.018775938 0.0021647264 0.017126169
-0.009385968 0.008617769 -0.013102576 0.005906116 0.0018991547 -0.019266156 0.0016523896 -0.0139318
-0.00757961 0.0074418965 -0.032132193 0.03409638 0.016919224 -0.016592707 0.004791711 0.014509416
-0.002656073 0.0051442683 -0.030065564 0.014819191 0.021981955 -0.014551452 -0.019216226 0.0059908233
0.013422138 0.029694878 -0.031483762 0.033650734 -0.036269385 -0.00567961 0.006584349 0.0033523915
0.004474219 0.018179316 -0.009550192 0.024281146 -0.004707463 0.023306964 0.016782008 -0.040420864
-0.013758882 0.042503245 -0.03059405 0.009962839 -0.0016128797 0.038436204 -0.008308289 -0.020726437
0.028933858 0.0011586595 0.042307023 0.043792885 0.0013643947 0.018597625 0.027376026 0.02518758
0.024685176 -0.030787949 -0.022550672 0.01665355 -0.014546452 0.010197642 0.008073334 0.0110551715
-0.020617358 0.030437306 0.01684594 -0.015517024 0.0059207715 0.009260435 -0.001364035 0.011190134
0.03752897 0.043259915 0.013183692 0.0006301752 -0.022136224 -0.019675786 -0.025836747 -0.005580842
0.003992151 0.024538074 -0.017788332 -0.017426 0.008865462 0.011523421 -0.016224561 0.003743162
0.02984496 0.0039644833 -0.028377172 0.02601553 0.0016396636 -0.002165691 0.012374556 0.0114657525
-0.041316707 -0.0072629307 -0.013940879 0.010986076 0.0013698046 -0.014835703 0.014350563 -0.029643327
0.03125871 0.031999838 0.017980644 0.019826062 -0.010015951 0.034757596 -0.0040485854 0.039263368
-0.007566101 -0.0040434333 -0.0056215497 -0.025902847 0.037539426 -0.003918904 0.033953983 -0.019009296
0.03582199 -0.03262982 0.0027523593 0.018234817 -0.018547552 0.020914212 -0.013398319 0.0050118323
0.00096011144 0.031939454 0.014431751 0.07214846 0.005546911 0.0048087887 -0.036024682 0.008054355
0.02744737 0.013932735 -0.017711485 -0.00413236 0.010197283 -0.029199742 0.008507693 -0.01070818
-0.04031162 -0.00751637 0.028646393 -0.023813628 -0.0097067775 -0.029096177 0.007794039 0.035219274
-0.037161294 -0.028762214 0.023609087 0.030189585 -0.012828186 -0.0037412762 0.009060847 -0.00070160674
-0.006858605 -0.013897486 0.0018252932 0.009592361 0.019393496 -0.029038064 0.014213908 0.0045477543
0.004685533 -0.0082801515 -0.003297257 -0.0046146717 0.0038194084 -0.024084495 0.0061140805 0.022321336
-0.012762734 -0.049883246 0.04462943 0.025452897 -0.0212744 0.007599738 0.024978625 -0.035640035
0.0033457556 -0.055719137 -0.04455553 0.022485891 -0.007297703 0.02583253 -0.014667724 0.017777791
-0.01390494 -0.00239734 -0.0009709518 0.014408538 0.026480233 -0.044004105 0.047740616 -0.008320673
-0.022273697 0.03208117 0.016381219 -0.057574786 0.0099696675 0.003517106 -0.021011978 -0.0076878318
