checkpoint/without_perturb/NGD/mlp_epoch193_seed0.pt (torch, 67297 bytes, 3 tensors)

fc1.weight f4 [4096, 2]
0.18994315 -0.9778452 0.37480646 0.7731753 -0.9492492 0.48031017 -1.5194911 1.3022697
1.4051143 -0.54239535 -1.1431012 -1.1322595 -1.3176359 -0.79814345 1.4089148 -0.75759614
-0.027615374 -1.4357234 0.3886831 1.6941111 1.3507534 -0.43027085 -1.7080457 -0.8946132
-1.308156 -1.3470047 0.25819293 -0.44189405 1.0224923 1.0048054 2.2374806 -0.260993
2.4512765 1.6409936 -0.15798467 -1.0625795 -0.15751871 2.2511983 -0.7600311 2.127127
-0.70698524 0.80097735 0.32880342 -0.4186955 -0.29648677 0.7844245 1.592393 -0.7438933
1.9126339 -0.052237708 -0.8600995 1.0086123 1.5893463 0.21661043 -0.8560873 0.75782233
-0.14570974 1.4246957 1.1934212 -0.1850362 -0.39809057 0.18877397 -1.2465818 1.5427468
-1.200172 -1.4897547 0.008175706 -0.4054588 1.8154956 0.256256 0.3098984 1.2365593
0.93450284 0.09837195 0.18775125 1.4805661 -1.1469533 -1.2389679 0.01137315 1.8819542
-1.1475376 -0.27338237 -1.4927177 0.5753707 -0.024060542 1.0431263 -0.7596633 -0.49540758
-1.0845193 1.1038808 -0.06500284 -1.1028224 1.4335666 -0.7392996 1.681218 0.3217352
1.3248559 1.259306 -2.240859 0.08128671 -0.5516498 -0.0931362 0.53311753 1.569834
1.0977256 0.5806197 -0.44186616 -0.33996916 0.43938676 -0.3609164 -0.2052438 -0.8558183
0.23642221 -0.77019185 0.2636337 -0.5234099 -0.94175357 0.30272067 -0.08314995 0.93759567
1.4659667 -0.7281031 -1.5292071 -1.0271635 -0.8949719 -1.5192541 0.41272423 -0.092146374
-0.90766096 -0.6202619 -1.508584 0.168943 2.7922726 -0.21487044 0.18126346 -0.5128554
1.1939843 1.5051678 -0.48027384 1.0277718 -1.780014 1.0431128 -0.08094276 0.25362146
0.5489316 -0.27399606 -1.477313 0.5146333 0.88253146 0.18026188 -0.18621945 -0.95842427
1.5507911 -0.33456495 1.5016468 -0.10147984 0.42851028 -0.022545965 -0.053532396 0.7926189
-0.6513637 1.9298067 -0.8483947 -0.21024217 0.9327208 -0.81520027 0.8449298 -0.12853758
0.8336932 1.1265959 0.6941903 0.79064566 0.10667614 -1.0708445 0.06985012 0.8030323
-0.60194325 -1.085294 1.1145937 1.1702416 -0.2988747 -2.244842 -1.0794437 -0.49558443
1.2736263 1.0881144 2.2396736 2.5520277 0.66738915 1.3242931 1.6298256 -2.353653
0.8739977 -1.7234906 0.6526259 -0.83409727 -0.9753744 -0.2890642 1.53831 -0.66648203
0.06208469 0.36194387 0.4530563 1.6300286 -0.27630186 0.77619374 1.410767 -0.76074886
-0.576382 0.011773499 -1.5919299 -0.8937395 0.20731866 0.023620108 0.45015362 1.6226896
2.4039729 0.339213 0.38132352 -1.0320052 0.8933865 0.11402236 5.8430047 -0.9276843
-0.8662753 1.3902217 -0.49710822 0.081430614 -0.064497694 -0.299737 12.917725 -1.7333275
-0.34079662 0.017576769 -0.72009856 -0.26101676 -1.0446746 -0.72638786 -1.0353984 -1.5805331
0.52778226 0.58687055 -10647.101 -3682.7554 -10113.431 -2580.7349 -17889.074 -10522.163
-3452.4011 -2571.561 -15243.796 -9868.3955 1.419234 0.15247302 -0.7057654 -0.6000008
00000000: 7580 423e 1054 7abf a2e6 bf3e d1ee 453f
00000010: ff01 73bf 37eb f53e af7e c2bf c6b0 a63f
00000020: c9da b33f 6cda 0abf 2451 92bf e1ed 90bf
00000030: 4ba8 a8bf 2153 4cbf 5257 b43f d2f1 41bf
00000040: a339 e2bc c9c5 b7bf 7901 c73e a2d8 d83f
00000050: 7de5 ac3f 764c dcbe 3ea1 dabf 5f05 65bf
00000060: a871 a7bf a66a acbf dd31 843e f03f e2be
00000070: 07e1 823f 779d 803f e232 0f40 e0a0 85be
00000080: b7e1 1c40 140c d23f bcc6 21be 9b02 88bf
00000090: 964c 21be a213 1040 6691 42bf d922 0840
000000a0: fcfc 34bf da0c 4d3f ec58 a83e 425f d6be
000000b0: 1dcd 97be 0bd0 483f 89d3 cb3f cb6f 3ebf
000000c0: 30d1 f43f 35f7 55bd 7b2f 5cbf 351a 813f
000000d0: b36f cb3f 20cf 5d3e 8a28 5bbf a500 423f
000000e0: ef34 15be 6e5c b63f 07c2 983f 217a 3dbe
000000f0: 87d2 cbbe f74d 413e fe8f 9fbf ba78 c53f
00000100: 3c9f 99bf 48b0 bebf 65f3 053c 4c98 cfbe
00000110: 2962 e83f fd33 833e 01ab 9e3e 9347 9e3f
00000120: 943b 6f3f 3c77 c93d dd41 403e 3183 bd3f
00000130: 5ecf 92bf 8096 9ebf 7356 3a3c e0e3 f03f
00000140: 83e2 92bf c6f8 8bbe 6011 bfbf 7f4b 133f
00000150: 9d1a c5bc 2a85 853f 4b79 42bf 10a6 fdbe
00000160: 87d1 8abf f74b 8d3f 3520 85bd 4929 8dbf
00000170: 1c7f b73f bd42 3dbf 2732 d73f 7aba a43e
00000180: e194 a93f f030 a13f 3c6a 0fc0 a679 a63d
00000190: ec38 0dbf 31be bebd 647a 083f 52f0 c83f
000001a0: 4682 8c3f 7ea3 143f 483c e2be 7010 aebe
000001b0: 4df7 e03e 09ca b8be 6e2b 52be e816 5bbf
000001c0: aa18 723e 4b2b 45bf fffa 863e 31fe 05bf
000001d0: c316 71bf 34fe 9a3e 854a aabd 4506 703f
000001e0: cca4 bb3f f764 3abf 0fbd c3bf 187a 83bf
000001f0: e11c 65bf eb76 c2bf 9750 d33e 3db7 bcbd
00000200: 785c 68bf 7cc9 1ebf 4819 c1bf 65ff 2c3e
00000210: 98b4 3240 ff06 5cbe 219d 393e 7e4a 03bf
00000220: 7ad4 983f 57a9 c03f 74e6 f5be 078e 833f
00000230: 80d7 e3bf b884 853f 51c5 a5bd acda 813e
00000240: c886 0c3f 3649 8cbe 9818 bdbf 02bf 033f
00000250: 95ed 613f 9296 383e 50b0 3ebe 4b5b 75bf
00000260: 5380 c63f 194c abbe f635 c03f aad4 cfbd
00000270: b365 db3e 51b2 b8bc c944 5bbd 12e9 4a3f
00000280: c5bf 26bf e803 f73f 6530 59bf b949 57be
00000290: cac6 6e3f f7b0 50bf 524d 583f 5b9f 03be
000002a0: eb6c 553f 4b34 903f 75b6 313f c167 4a3f
000002b0: 0579 da3d 6f11 89bf 940d 8f3d 8693 4d3f
000002c0: f418 1abf eaea 8abf 02ab 8e3f 7aca 953f
000002d0: 1b06 99be 7eab 0fc0 362b 8abf 3ebd fdbe
000002e0: 3006 a33f 5547 8b3f d056 0f40 6c54 2340
000002f0: 04da 2a3f 7082 a93f 209e d03f 40a2 16c0
00000300: 50be 5f3f 579b dcbf 7e12 273f 6687 55bf
00000310: 23b2 79bf 3900 94be 58e7 c43f 919e 2abf
00000320: 844c 7e3d b550 b93e fff6 e73e c7a4 d03f
00000330: 7077 8dbe a2b4 463f 0394 b43f 70c0 42bf
00000340: c58d 13bf a2e5 403c 5cc4 cbbf 1dcc 64bf
00000350: 584b 543e f57e c13c 897a e63e 4bb4 cf3f
00000360: b1da 1940 54ad ad3e d63c c33e bf18 84bf
00000370: fab4 643f 8e84 e93d e5f9 ba40 b87c 6dbf
00000380: 38c4 5dbf c9f2 b13f f884 febe 18c5 a63d
00000390: 5e17 84bd 2177 99be 00af 4e41 addd ddbf
000003a0: e57c aebe 28fd 8f3c 6158 38bf fda3 85be
000003b0: e6b7 85bf 8ef4 39bf ef87 84bf e94e cabf
000003c0: bd1c 073f 263d 163f 675c 26c6 162c 66c5
000003d0: b905 1ec6 c24b 21c5 26c2 8bc6 a768 24c6
000003e0: 6bc6 57c5 fab8 20c5 2f2f 6ec6 9531 1ac6
000003f0: 76a9 b53f e321 1c3e 0bad 34bf a799 19bf

fc1.bias f4 [4096]
-1.1937866 0.49452 0.6963616 -0.8528106 -1.3976649 -0.45441112 -0.9375443 -0.91196406
-0.29839367 -0.10769752 -0.0818424 -1.3432463 -0.66514075 -1.4751716 -1.2950487 -0.8312611
-0.8266488 -1.5387697 -1.1314447 -1.4965711 -0.94335586 -0.08070766 -0.13976221 -0.015906189
-1.1435702 -0.011013013 -1.5188057 -0.44887176 -1.1792096 -0.47545594 -0.6633532 -0.8101901
-1.1517669 -0.8850828 -0.018416852 -0.2494388 -1.0512404 -0.7069405 -0.44450745 -1.7731355
-2.6199563 0.11900643 -0.66399527 -1.353822 -0.11204213 -0.19700052 0.1319856 -0.3226441
-0.5957871 -0.83913946 -0.6193623 0.10090078 -0.9781296 -0.8984548 -2.360597 -0.34132522
-1.2278178 -2.0129757 0.20932637 -0.09470671 -1.7650013 -0.5532988 -1.8955334 -0.6129005
-1.8231171 -0.95873404 0.23757711 -0.0027985626 -0.57104313 -0.1955532 -0.4813237 -0.52122855
-0.76772696 -1.0119646 -1.0579426 -1.4261955 -0.7160654 -0.27496284 -1.0889062 -0.6471967
-2.073497 -0.0927022 -0.69175494 -0.9995602 -0.4711417 -0.77047855 -0.94072163 -1.1561424
0.004691787 0.10720907 -0.6729892 -1.3154604 -0.959949 -0.012921863 -0.21467224 -1.1318893
-1.0636286 -0.37032643 -0.300396 -0.3643169 -2.0080433 -1.3176662 -0.119855516 0.086640544
0.08733628 -1.1189334 -0.2935557 -1.7718413 -0.4825378 -0.38564783 -1.0537592 0.5322342
-0.72628444 -0.34521833 -1.3913971 -0.45430207 -0.6661206 -0.026662705 -0.9776037 0.59612316
-1.2087904 0.0016079902 0.31508422 -0.19784395 -0.44820976 -1.9022187 -1.5619404 -0.5864633
0.14137426 0.06289913 -2.8288395 0.4451857 -1.0423381 -0.40291595 -1.1143059 -1.1694951
-0.47209972 -1.2505238 -0.3473798 -1.5054265 -0.27364555 -0.8719971 0.26271135 -0.18665098
-0.8819623 -2.4659257 -1.4373114 -0.48333728 -0.42701945 0.11448331 0.16560479 -0.85132116
-0.59094584 -1.2003256 -0.62833697 -0.14355616 -0.748741 -0.82567173 -0.53223646 0.44601068
-0.77366006 0.027320514 -1.262936 -1.4931744 -0.58697695 0.3091059 -0.9474953 -1.3585792
-0.40017784 -1.9208311 -0.4165668 -0.8667127 0.32801548 -1.5697752 -0.66691035 -1.2806758
-1.454737 -0.10867531 -0.9402682 -0.51652545 -1.3530353 -1.6317362 -1.7467731 -0.06943239
-0.37995377 -1.6769185 -1.4406074 0.31370658 -0.8996821 0.76270586 -0.58659333 -1.2531251
-0.4661773 -0.5791457 -0.39192852 -1.5209802 -0.34281096 -1.250312 -1.5577791 0.2614509
-1.3702159 -0.33321887 -1.1830469 -0.39946312 0.27546763 -1.0381266 0.037329722 -2.050515
-0.16816571 -0.86246026 -0.85119164 -0.64963776 -0.9388229 -1.1925837 -1.2172855 0.008832292
-0.3223777 -1.1151301 -0.9261213 0.94487965 0.7655779 -2.1914303 -1.606347 0.35826606
-0.57292724 -0.35750294 -0.5654826 0.023182344 0.23677741 -0.088839106 -0.29646382 -0.53121644
-1.2891418 -0.22164132 -0.75608516 -1.6582178 -0.51041883 -1.2289071 -0.41710797 0.14775665
-0.8333226 -1.6900558 -1.6322235 -1.2383039 -1.1914734 0.9815513 -0.46689114 -1.2562951
-0.6945187 -0.6683991 0.32887557 -0.6964127 -1.2148389 -1.1979163 -0.89038247 -1.230238
00000000: 00ce 98bf ba31 fd3e c144 323f cc51 5abf
00000010: afe6 b2bf 93a8 e8be e702 70bf 7a76 69bf
00000020: 0ec7 98be 8490 dcbd fd9c a7bd 7fef abbf
00000030: aa46 2abf 6cd2 bcbf 28c4 a5bf 87cd 54bf
00000040: 419f 53bf 68f6 c4bf 2ed3 90bf a48f bfbf
00000050: c57f 71bf 0f4a a5bd d31d 0fbe b24d 82bc
00000060: 8260 92bf ed6f 34bc 3a68 c2bf 85d2 e5be
00000070: 57f0 96bf f66e f3be 84d1 29bf 9e68 4fbf
00000080: 196d 93bf c994 62bf f0de 96bc e36c 7fbe
00000090: 0c8f 86bf 0dfa 34bf 7b96 e3be 1bf6 e2bf
000000a0: 5dad 27c0 a5b9 f33d 98fb 29bf 0a4a adbf
000000b0: 5876 e5bd 81ba 49be 3c27 073e 9c31 a5be
000000c0: 8185 18bf d8d1 56bf 878e 1ebf 11a5 ce3d
000000d0: b466 7abf 2201 66bf 0514 17c0 2ec2 aebe
000000e0: 2229 9dbf 98d4 00c0 a759 563e 97f5 c1bd
000000f0: 90eb e1bf fda4 0dbf d7a0 f2bf 0ce7 1cbf
00000100: e75b e9bf 986f 75bf 6a47 733e 1768 37bb
00000110: e22f 12bf 193f 48be 0f70 f6be 3c6f 05bf
00000120: c189 44bf 0e88 81bf aa6a 87bf 938d b6bf
00000130: 1050 37bf eec7 8cbe 4761 8bbf afae 25bf
00000140: 2db4 04c0 a7da bdbd da16 31bf 2de3 7fbf
00000150: 7c39 f1be 153e 45bf 22d3 70bf 79fc 93bf
00000160: 90bd 993b 6e90 db3d 0549 2cbf 0261 a8bf
00000170: 38bf 75bf 39b6 53bc 0ad3 5bbe c0e1 90bf
00000180: fb24 88bf 6d9b bdbe 81cd 99be bf87 babe
00000190: c883 00c0 49a9 a8bf cf76 f5bd 9970 b13d
000001a0: 5ddd b23d 3639 8fbf ef4c 96be b2cb e2bf
000001b0: 320f f7be a273 c5be 95e1 86bf 8040 083f
000001c0: c7ed 39bf 75c0 b0be 4d19 b2bf 489a e8be
000001d0: e186 2abf bf6b dabc 3c44 7abf 879b 183f
000001e0: a5b9 9abf 33c3 d23a b852 a13e 9b97 4abe
000001f0: c07b e5be e77b f3bf aaed c7bf 7522 16bf
00000200: 6ac4 103e 42d1 803d b50b 35c0 61ef e33e
00000210: 566b 85bf 004b cebe 93a1 8ebf 04b2 95bf
00000220: 0eb7 f1be 2a11 a0bf c4db b1be d1b1 c0bf
00000230: 451b 8cbe 343b 5fbf 1a82 863e 6f21 3fbe
00000240: 48c8 61bf bad1 1dc0 d2f9 b7bf fc77 f7be
00000250: 4ba2 dabe 3a76 ea3d 4d94 293e 2ff0 59bf
00000260: 3a48 17bf 45a4 99bf b1da 20bf 6300 13be
00000270: 7dad 3fbf 395f 53bf a640 08bf 835b e43e
00000280: 960e 46bf 45cf df3c e3a7 a1bf 5720 bfbf
00000290: 1f44 16bf 2143 9e3e 0d8f 72bf ece5 adbf
000002a0: 1ce4 ccbe cbdd f5bf 3e48 d5be e2e0 5dbf
000002b0: a5f1 a73e 65ee c8bf a3ba 2abf 2fed a3bf
000002c0: d234 babf 2991 debd 6bb5 70bf 033b 04bf
000002d0: 4330 adbf bbdc d0bf 4396 dfbf 9232 8ebd
000002e0: 4d89 c2be 44a5 d6bf d365 b8bf 269e a03e
000002f0: 9151 66bf b140 433f fb2a 16bf 6766 a0bf
00000300: cbae eebe e542 14bf dbaa c8be 7baf c2bf
00000310: eb84 afbe 390a a0bf 4e65 c7bf e4dc 853e
00000320: 3c63 afbf aa9b aabe 156e 97bf 6e86 ccbe
00000330: 180a 8d3e 55e1 84bf 0de7 183d a33b 03c0
00000340: a233 2cbe 32ca 5cbf b2e7 59bf a94e 26bf
00000350: b356 70bf 95a6 98bf 03d0 9bbf 51b5 103c
00000360: b10e a5be 95bc 8ebf 4916 6dbf a2e3 713f
00000370: eafc 433f 6540 0cc0 c79c cdbf a66e b73e
00000380: 5cab 12bf a00a b7be 78c3 10bf e6e8 bd3c
00000390: c775 723e 47f1 b5bd 1bca 97be cdfd 07bf
000003a0: 9902 a5bf f1f5 62be cc8e 41bf 7b40 d4bf
000003b0: cfaa 02bf d44c 9dbf 2d8f d5be 854d 173e
000003c0: a154 55bf c053 d8bf b3ec d0bf be80 9ebf
000003d0: 3382 98bf f246 7b3f 5b0c efbe 47ce a0bf
000003e0: facb 31bf 341c 2bbf 6162 a83e 1a48 32bf
000003f0: d77f 9bbf 5255 99bf 1bf0 63bf 7078 9dbf

fc2.weight f4 [1, 4096]
-0.008607569 -0.0066273054 -0.019845817 -0.043742795 -0.0073151416 -0.004423674 0.01439382 0.012797602
-0.0007350632 0.012636219 0.029071487 -0.0022244628 -0.010778998 -0.025828052 -0.005872536 0.044610433
-0.006632481 -0.03554407 0.011048451 -0.004588552 0.026152588 0.0138651505 -0.046910264 -0.004654059
-0.019616008 0.04057188 -0.03286711 0.009046973 -0.021076418 -0.030599637 0.0156832 -0.0023100548
-0.022949714 0.009008437 -0.025041206 0.015412269 0.024121497 0.033217575 0.033400707 -0.008909311
-0.010691685 0.0049237316 -0.0023547595 0.0030070627 0.0032916227 -0.01925488 -0.017529855 -0.026788726
-0.0092044445 0.052533522 0.0028746787 0.0035165586 -0.011577879 0.013504023 -0.005318506 0.031254273
-0.023424078 0.02103392 -0.009162276 -0.0013779819 -0.012475144 -0.0039224494 -0.050113976 0.02854983
0.001328693 0.03631516 0.033975303 -0.00029225904 -0.018358858 0.017317848 -0.017374726 -0.020726955
0.0005517419 -0.027740655 0.032333635 -0.0054462017 0.014653168 0.012395241 -0.0030440288 0.029669337
0.0043961946 -0.015489121 0.014926497 -0.031035662 0.034963146 -0.007903679 0.0067022406 0.012530471
-0.024502028 -0.0006967145 0.055525478 0.024217416 0.011381115 -0.02485802 -0.020131625 0.01287861
0.021796001 -0.00082689937 0.0035900546 -0.011496165 0.023436842 -0.020046424 0.0018115159 0.014259023
0.020409117 0.024439933 0.07237676 0.011756279 -0.009495428 0.043152772 0.009065186 -0.013119186
-0.0014246558 -0.005772102 -0.02568059 -0.009401495 -0.03833624 0.0029262868 0.010524462 -0.045090314
-0.032136798 -0.0161988 0.014395892 0.012447257 -0.0023766875 -0.012630118 0.037437662 -0.0011275548
0.017019045 0.0011031837 0.027856175 0.028879749 0.017631067 -0.022885941 -0.0047665583 0.019257894
-0.0044236546 -0.007822555 0.025287598 -0.0028605273 -0.0021116983 -0.0077361986 -0.023006398 -0.009679657
-0.0238052 0.038923897 0.023379026 0.03478559 -0.0029419165 0.0021198315 -0.030285774 -0.014729918
-0.018582525 -0.0008171445 -0.0025269773 -5.3143062e-06 -0.0024504287 -0.006576307 0.014368679 -0.013207496
0.030764746 0.0065255864 -0.012771669 -0.0054712207 -0.035540193 0.0066003557 -0.018723438 -0.0045472383
-0.022254223 -0.0007271841 0.020344682 -0.0385786 0.021284634 0.023478607 0.011874641 -0.0010588972
0.015910493 -0.02511173 -0.03036079 -0.046297338 -0.008180971 0.018345574 -0.01591205 0.022347098
-0.020023815 -0.0008621782 0.014033461 0.025084428 -0.040205304 -0.0054882234 0.038797017 0.0463755
0.041949086 0.043633282 0.009676039 -0.0027229546 -0.048132185 -0.027389184 0.0037243725 0.011476331
-0.002928196 0.00020256414 -0.011268329 -0.0029270307 0.009038565 0.011203593 0.014573317 0.02448939
0.017126871 0.03850751 -0.02579482 0.021393329 -0.02435698 -0.001517219 -0.010994069 -0.0071592205
0.01588772 0.021821856 0.011827159 0.007261968 0.00290703 0.0094217975 0.013286541 0.009056024
0.04496877 0.021605529 0.0019100321 0.0063162427 -0.015627151 -0.016564786 -0.015876323 -0.032587346
0.0061328253 -0.030223364 -0.012530623 -0.038440675 0.005731033 -0.012146448 -0.010565744 -0.010946049
0.002591713 0.0316586 -0.002943446 -0.017376566 -0.015516685 -0.020310838 0.013013492 -0.01379727
-0.016360596 0.0011759452 0.0098336665 0.005312289 -0.002578287 -0.039316285 -0.0042830715 0.014488158
00000000: c306 0dbc de29 d9bb b293 a2bc a52b 33bd
00000010: dbb3 efbb 78f4 90bb 0fd4 6b3c 09ad 513c
00000020: 42b1 40ba 2508 4f3c 5427 ee3c 4bc8 11bb
00000030: 659a 30bc 5a95 d3bc 676e c0bb 6eb9 363d
00000040: 4855 d9bb a996 11bd 9004 353c 905b 96bb
00000050: f43d d63c a82a 633c fa24 40bd 1481 98bb
00000060: c0b1 a0bc b32e 263d aa9f 06bd c139 143c
00000070: 74a8 acbc 17ac fabc 0e7a 803c 4a64 17bb
00000080: 0a01 bcbc 2098 133c 3723 cdbc be83 7c3c
00000090: 729a c53c 270f 083d 2ecf 083d 5cf8 11bc
000000a0: 2d2c 2fbc 4157 a13b 4f52 1abb 2412 453b
000000b0: 44b8 573b 69bc 9dbc c59a 8fbc 0874 dbbc
000000c0: 3dce 16bc 642d 573d 1b65 3c3b 1076 663b
000000d0: 25b1 3dbc fa3f 5d3c dd46 aebb 7b04 003d
000000e0: dae3 bfbc 544f ac3c 5f1d 16bc 669d b4ba
000000f0: 8c64 4cbc e487 80bb 5044 4dbd 55e1 e93c
00000100: 8a27 ae3a 35bf 143d b029 0b3d 583a 99b9
00000110: 5165 96bc 29de 8d3c 7155 8ebc 93cb a9bc
00000120: c6a2 103a 5f40 e3bc 4670 043d 0d76 b2bb
00000130: d713 703c 6915 4b3c 547e 47bb 1c0d f33c
00000140: f40d 903b 15c6 7dbc 448e 743c 803e febc
00000150: 8435 0f3d 6f7e 01bc 789e db3b 9b4c 4d3c
00000160: 7ab8 c8bc b8a3 36ba af6e 633d 9a63 c63c
00000170: db77 3a3c 0ca3 cbbc 14eb a4bc ce00 533c
00000180: 878d b23c 47c4 58ba 1f47 6b3b 695a 3cbc
00000190: 9ffe bf3c 6638 a4bc 6370 ed3a ad9e 693c
000001a0: 0531 a73c 4136 c83c 443a 943d 689d 403c
000001b0: b692 1bbc f6c0 303d 2586 143c dbf1 56bc
000001c0: 84bb baba e723 bdbb 1a60 d2bc ba08 1abc
000001d0: 7606 1dbd f2c6 3f3b cb6e 2c3c 9fb0 38bd
000001e0: e0a1 03bd 59b3 84bc bfdc 6b3c 94ef 4b3c
000001f0: 33c2 1bbb 8eee 4ebc 3c58 193d 76ca 93ba
00000200: 866b 8b3c b498 903a a232 e43c 3995 ec3c
00000210: 076f 903c 4c7b bbbc ca30 9cbb bbc2 9d3c
00000220: 4ef4 90bb 2c2a 00bc f027 cf3c af77 3bbb
00000230: 6b64 0abb f07f fdbb ea77 bcbc 6d97 1ebc
00000240: 1f03 c3bc aa6e 1f3d 5f85 bf3c 567b 0e3d
00000250: 2bcd 40bb dfec 0a3b df19 f8bc c155 71bc
00000260: 613a 98bc a435 56ba a59b 25bb 8b51 b2b6
00000270: 5f97 20bb 107e d7bb 9c6a 6b3c 4164 58bc
00000280: 5906 fc3c 96d4 d53b 4340 51bc ed47 b3bb
00000290: 9892 11bd cc47 d83b e561 99bc 0001 95bb
000002a0: 7d4e b6bc 80a0 3eba e4a9 a63c 9804 1ebd
000002b0: 1d5d ae3c 3556 c03c db8d 423c b2ca 8aba
000002c0: b956 823c 1db7 cdbc 31b7 f8bc 47a2 3dbd
000002d0: 7b09 06bc 7549 963c fd59 82bc 4311 b73c
000002e0: fc08 a4bc cd03 62ba 9aec 653c dc7d cd3c
000002f0: 51ae 24bd 8ed6 b3bb 9fe9 1e3d 3cf4 3d3d
00000300: ced2 2b3d d0b8 323d 4088 1e3c 9973 32bb
00000310: 4126 45bd 485f e0bc 9a14 743b 3907 3c3c
00000320: fae6 3fbb 6667 5439 cc9e 38bc 6dd3 3fbb
00000330: 7d16 143c 468f 373c ecc4 6e3c f99d c83c
00000340: a74d 8c3c 0dba 1d3d a94f d3bc 1041 af3c
00000350: 4a88 c7bc 6cdd c6ba 7820 34bc e597 eabb
00000360: f726 823c c0c3 b23c b3c6 413c cef5 ed3b
00000370: df83 3e3b e25d 1a3c cbaf 593c b85f 143c
00000380: 2c31 383d 14fe b03c 0b5a fa3a 7cf8 ce3b
00000390: 8304 80bc e0b2 87bc 100f 82bc 4f7a 05bd
000003a0: def5 c83b fd96 f7bc 3e4d 4dbc f873 1dbd
000003b0: 64cb bb3b e501 47bc f11b 2dbc 0f57 33bc
000003c0: bbd9 293b 73ac 013d d4e6 40bb 4d59 8ebc
000003d0: b239 7ebc ea62 a6bc 8b36 553c f20d 62bc
000003e0: a806 86bc 2c22 9a3a 631d 213c b612 ae3b
000003f0: 7af8 28bb 1d0a 21bd 0259 8cbb bd5f 6d3c
