checkpoint/without_perturb/NGD/mlp_epoch275.pt (torch, 67261 bytes, 3 tensors)

fc1.weight f4 [4096, 2]
000000 a2 9b 25 c0 67 81 c2 bf 97 8d 9f bd bb e7 01 3f
       -2.587624 -1.519574 -0.07790678 0.5074422
000010 87 c2 39 bf 93 86 1a 3d 8b 09 ca 3f a1 47 ce bd
       -0.7256245 0.037725996 1.5784162 -0.10072256
000020 fe 41 e0 be 48 fa e1 3e c3 ab 59 3f 5d 27 0d bc
       -0.43800348 0.44136262 0.8502771 -0.008615342
000030 a9 2a ca bf de ee 8a bf aa 55 68 3f f0 fd 2e 3d
       -1.5794269 -1.0854146 0.90755713 0.042722642
000040 41 87 1d c0 81 5c bf bf bc d0 4a 3e 4c 1b 40 3e
       -2.4613802 -1.4950105 0.19806188 0.18760413
000050 ec d4 1a bf d4 b8 64 3f cb 58 0e 40 14 77 cb be
       -0.60481143 0.89344525 2.2241695 -0.39739287
000060 ae 1a bd 3f a0 ad 8d 3f 70 77 42 bf 19 a8 84 3e
       1.4773767 1.1068611 -0.759635 0.25909498
000070 75 fb bb 3e 8b 03 de 3e 60 10 e8 bf 91 7d bb bf
       0.36715284 0.43362078 -1.8129997 -1.4647695
000080 c3 a2 95 3f f9 91 29 3e 87 06 3c 3f 18 2b 03 bf
       1.1690296 0.1655959 0.7344746 -0.5123763
000090 39 db ca 3e ce a5 9d 3f 05 d4 ac be 35 68 f8 3e
       0.3962038 1.2316225 -0.33755508 0.48517004
0000a0 c3 91 1f bf f6 6c f9 3c a8 ee 03 bf a0 04 cd 3d
       -0.6233179 0.030447464 -0.51536036 0.10010648
0000b0 ad 49 7b 3e 3d 63 02 40 43 ed 80 3f e4 88 bb 3f
       0.24539824 2.037307 1.0072407 1.4651151
0000c0 7e c4 17 3f 46 3e e7 be db ad 5a 3e c7 c7 1b 3f
       0.592842 -0.45164698 0.21355383 0.6085171
0000d0 93 6d 95 3e 49 01 b5 bc da 66 47 3f c1 80 ed bd
       0.2918516 -0.02209534 0.77891314 -0.115968235
0000e0 7d 46 b8 bf a9 46 cf be 56 06 21 3f d9 36 43 3f
       -1.4396511 -0.40483597 0.6290029 0.76255566
0000f0 f6 c6 0e 3f 65 b9 29 be e9 94 af 3f 37 b2 96 be
       0.5577234 -0.16574629 1.3717319 -0.29432842
000100 da 97 cb bf a5 4e 4b bf 59 73 b0 3f a3 4f e8 3e
       -1.5905716 -0.7941688 1.3785201 0.45373258
000110 5f 63 5c 3f 7a 02 ae be 73 43 d7 3f ec f4 53 bf
       0.8608913 -0.33986264 1.6817459 -0.82795596
000120 bc a4 53 bf 1d 08 9f bf ed b3 44 bf 1e ac 9c bf
       -0.8267324 -1.2424351 -0.76837045 -1.2240026
000130 f5 fe a3 3e b2 b2 ea 3f a9 71 53 bf 0a cc 0f c0
       0.32030454 1.8335783 -0.82595307 -2.2468286
000140 a0 28 10 3f bf 30 38 bf f8 31 cd 3f 38 89 89 bf
       0.5631199 -0.7194938 1.6030874 -1.0745001
000150 a3 f9 22 bf b1 4a 2a bf be 5f bf 3e 21 9b c5 3e
       -0.63662165 -0.6652022 0.37377733 0.38594916
000160 4c 38 ce 3e 44 91 d0 bf e6 56 b5 3e 67 1f e9 bf
       0.40277326 -1.6294332 0.3541786 -1.8212708
000170 1c 9f c7 bf 58 61 f3 bf d3 55 a1 3f b9 22 e8 bd
       -1.5595431 -1.9014082 1.2604316 -0.11334748
000180 8c 98 1f 3f f3 d6 cb 3f 96 b8 fc 3f 57 66 d6 bf
       0.62342143 1.5924972 1.9743831 -1.6749982
000190 2e 90 90 be 21 36 1e 3f 93 82 db be 4a 8c b8 bf
       -0.28235 0.61801344 -0.42873058 -1.4417813
0001a0 8d f9 05 3f a7 93 a6 3e 40 57 af 3f 84 29 04 bf
       0.5233391 0.32534525 1.3698502 -0.5162585
0001b0 ba 43 4e bf 80 cb 03 3f 05 14 96 3e 37 3a de 3e
       -0.8057209 0.5148239 0.2931215 0.4340379
0001c0 6e f9 a6 3f da 49 81 bf 40 cc 22 3f cd 67 d8 bf
       1.304487 -1.0100663 0.6359291 -1.6906677
0001d0 8b b0 15 40 11 17 c8 3e 75 8f 66 3f e8 fb db be
       2.3389003 0.39080098 0.9006265 -0.42965627
0001e0 77 b6 be 3e 42 73 88 3f 73 06 92 be 6d 1f ec bf
       0.37248585 1.0660174 -0.28520545 -1.844709
0001f0 86 03 88 bf 5a bd 21 3c 93 73 fb bf 2d 18 94 bf
       -1.0626075 0.009871805 -1.9644645 -1.1569878
000200 04 d7 bc be 28 9b 86 bf df 74 8c 3f c6 e8 81 be
       -0.36882794 -1.05161 1.0973166 -0.25372905
000210 a1 de 89 3f ba 02 91 be d9 7c 89 3f 99 77 85 bf
       1.0771066 -0.28322393 1.0741225 -1.0427123
000220 67 8f c9 3e 33 05 42 3f 34 a2 ab be db 1a 4e 3f
       0.3936722 0.75789183 -0.3352219 0.8050973
000230 e2 e1 0e 40 04 01 15 40 d9 2b 1d 3f 9e cb c8 be
       2.2325368 2.328187 0.6139503 -0.39217848
000240 0f 6a be bf a4 1d 67 3e 54 29 f3 3f 02 9d 45 bf
       -1.4876117 0.22569901 1.8996987 -0.771927
000250 61 5c c9 3e da be 14 3f 35 68 57 bf f7 17 fb bf
       0.39328292 0.58103716 -0.8414338 -1.9616688
000260 f6 8d 54 bf 04 42 f0 3e bf fc 90 3f ea 4c 0c bf
       -0.83029115 0.46925366 1.1327132 -0.5480486
000270 87 47 b4 3f 3c b3 df 3e 67 56 69 3d 8a d5 81 bf
       1.4084328 0.43691432 0.056967165 -1.0143292
000280 3a 28 c9 be a3 c4 e1 bf c2 c3 ad be c3 e8 80 be
       -0.39288503 -1.7638134 -0.33938414 -0.25177583
000290 29 91 49 3e 3b 4a b1 3f 09 32 0d 40 43 64 c4 3e
       0.1968428 1.3850778 2.206179 0.38357744
0002a0 0b 27 72 bf b6 93 37 be c4 c7 2a 3e 57 b2 4e be
       -0.94590825 -0.17927441 0.16677767 -0.20185219
0002b0 94 bc 36 3e 3e ba af be cc f8 f6 be d3 b2 9b bd
       0.17845374 -0.3432178 -0.48236692 -0.076024674
0002c0 96 ce 9d 3f 22 12 87 3e cc 5e 73 3f 4b c8 ad bf
       1.232867 0.26381022 0.95066524 -1.357675
0002d0 71 03 9c bf b2 0a 7a 3f 20 95 9e 3e 87 3f 40 bf
       -1.218855 0.9767257 0.30973148 -0.75096935
0002e0 cf 47 c0 bf 2d ea 5d bf c1 6d a9 3e c4 2a e7 bf
       -1.5021914 -0.8668545 0.33091548 -1.8059926
0002f0 fa c3 ca bf ef 91 83 bd f0 2d 28 bf a2 20 c4 bf
       -1.5841057 -0.06424319 -0.65695095 -1.5322459
000300 d0 38 4d 3f 3c 25 1a 3f b1 6b 71 bf 6b 09 9d 3e
       0.80164814 0.60213065 -0.9430495 0.30671248
000310 67 ad bb be b5 2d a7 3f 30 c5 20 c0 c2 20 2e 3e
       -0.36655733 1.3060824 -2.5120354 0.17004684
000320 f3 ac ef 3e a2 73 45 3e 2b 38 84 be 84 52 5c 3f
       0.46811637 0.19282392 -0.25824103 0.8606341
000330 1a ce d3 bf 73 c4 94 be 48 02 f6 3e 82 75 a8 bf
       -1.6547272 -0.2905613 0.48048615 -1.316086
000340 66 61 93 3e 24 2a c0 3f cc 84 e5 3f aa 70 cf 3f
       0.28785247 1.501286 1.7931151 1.6206257
000350 b8 9b e7 3f 0f 15 92 3f b0 65 67 bf 2f 4c 07 bf
       1.8094397 1.1412677 -0.9038954 -0.5285062
000360 f1 e5 f2 3f cc 2e ac bf ef a8 99 bf 1f 51 81 bd
       1.8976423 -1.3451781 -1.200468 -0.06314301
000370 ca e3 08 3f d9 3c f7 bf 07 c1 19 3f 23 43 9a be
       0.5347258 -1.9315444 0.6006016 -0.30129346
000380 79 5c 19 3f 90 f7 16 be e8 02 1e 3f cb 91 0b bf
       0.5990673 -0.14742875 0.61723185 -0.5451934
000390 3b b8 21 c0 8d b6 f5 bf a5 90 03 bf 4c 65 f8 3f
       -2.5268695 -1.9196335 -0.51392585 1.9405913
0003a0 d8 7c 9b bf ea 83 04 bf 10 a2 f2 bf c2 36 eb bf
       -1.2147474 -0.51763785 -1.8955708 -1.8376086
0003b0 46 7b e5 3f eb a8 df 3e c7 a1 40 3f 62 78 79 3e
       1.7928245 0.43683562 0.7524685 0.24362329
0003c0 24 f6 43 3f d2 19 9c bf ee 87 17 bf 40 b5 1e be
       0.76547456 -1.219538 -0.5919179 -0.15498829
0003d0 6b 77 24 3f dd 94 4e 3f b4 86 a9 3f 1a d7 bf be
       0.6424472 0.806959 1.3244233 -0.37468797
0003e0 ff ae d7 3e 53 e5 24 bf 49 7c 82 3f e6 f3 0d bf
       0.421257 -0.6441242 1.0194179 -0.55450284
0003f0 7b be ae be 38 b4 93 3f 00 ec af bf 86 12 9c bf
       -0.341297 1.1539373 -1.3743896 -1.2193153

fc1.bias f4 [4096]
000000 5d 05 99 3f 4f 32 e1 bf 05 c2 e6 be 20 3e f5 3d
       1.1954762 -1.7593478 -0.450699 0.1197474
000010 0b c4 4b bf 96 de 4b bf 9b f9 e4 bf e0 a0 2b bf
       -0.7959601 -0.79636514 -1.7888674 -0.6704235
000020 af c2 90 bf 64 3b e5 bf cc c7 80 bf 7f f9 a0 bd
       -1.1309413 -1.790875 -1.0060973 -0.078600876
000030 6b 10 fd be ed 47 e4 3e 0e f1 81 3e 25 c4 8f bf
       -0.49426588 0.44586125 0.25379223 -1.1231734
000040 df 6e b5 bf d9 ea 74 bd b8 c7 a0 bf 6c 58 89 3e
       -1.417446 -0.05979428 -1.2560949 0.26825273
000050 e8 c7 ba bf b5 08 8e bf 54 8b 09 bf ab ca a5 bf
       -1.4592257 -1.1096407 -0.5372822 -1.2952474
000060 0b d9 00 bf 20 5b cf bf 10 21 90 3e ae f7 bc bf
       -0.5033118 -1.6199684 0.28150225 -1.4763086
000070 95 5f 8d bf 03 87 87 bd 1f b5 c7 bf f2 31 f6 be
       -1.1044794 -0.06617548 -1.5602149 -0.4808498
000080 e3 40 32 bf d7 d6 09 3e 7e d0 68 bf a9 01 c8 3e
       -0.6963026 0.13460861 -0.90943134 0.39063767
000090 f0 5f 3a bf a5 c9 85 be fa 3a 1f bf 78 48 1a c0
       -0.7280264 -0.26130405 -0.62199366 -2.4106731
0000a0 e3 86 ad bf ef ff c7 bf 09 fa 64 bf e8 c2 e9 bd
       -1.3556789 -1.562498 -0.89444023 -0.114141285
0000b0 4b 30 8b bf 9b df ac bf 6f 2f 97 bf d7 72 c5 be
       -1.0874113 -1.3505739 -1.181135 -0.38564178
0000c0 63 8b e1 bd 09 fe b9 3e a5 30 a5 bf 82 f6 9a bf
       -0.11012914 0.36326626 -1.290547 -1.2106478
0000d0 ad 30 6e bf 86 58 9e bf 45 9d 5f bf 9d d1 84 3e
       -0.93043023 -1.2370765 -0.8734935 0.25941172
0000e0 12 d7 2b bf 08 3b 58 bf fc 9a da bf 1a 90 4c bf
       -0.67125046 -0.84465075 -1.7078547 -0.7990738
0000f0 9a 10 ca be 72 db ef 3e 5b e3 bb bf b0 d4 a3 bf
       -0.3946579 0.4684711 -1.4678758 -1.2799282
000100 6d be 23 bf 47 0e 5d bf 44 88 02 bf 6c 1c ad bf
       -0.6396244 -0.8634991 -0.50989175 -1.3524299
000110 70 34 37 bf 50 05 f0 be 44 f6 e7 bf c1 7a ca bf
       -0.7156439 -0.46879053 -1.8122029 -1.5818712
000120 22 b3 4f bf 96 94 6f 3f e7 14 97 be 3f c1 6f 3f
       -0.8113271 0.935861 -0.29508135 0.93654245
000130 9e 1a 5a bf 4d 79 01 be dc 9c c0 bf 65 7a 2e 3f
       -0.85196865 -0.12643929 -1.504787 0.6815551
000140 a6 6b 88 3e 45 73 0b 3f ce 3d 84 bd cb de 92 bf
       0.2664463 0.5447276 -0.06457101 -1.1474241
000150 e3 40 48 3d 28 0e 38 3b 14 18 5a bf de 3b 0c be
       0.048890006 0.002808461 -0.8519299 -0.13694713
000160 ee 76 04 c0 f4 2e 16 be d5 7e a1 bd ea 18 23 bf
       -2.069759 -0.14666349 -0.078855194 -0.6370989
000170 56 ed 43 be 04 ce df bf 31 07 d8 bf 99 4c fb bd
       -0.19133505 -1.7484746 -1.6877195 -0.12270469
000180 fb e8 3f 3e 1c fa bf bf a7 a2 0b 3d 1e 94 13 be
       0.18741219 -1.4998202 0.034090664 -0.14411971
000190 d5 7e dc bf 97 c4 f4 3e 6f 0b b5 bf d8 c0 b4 3b
       -1.7226206 0.47806236 -1.4144114 0.005516153
0001a0 a6 1a 91 bf 7d 2f 69 be 03 f2 ec 3e aa c3 7a bf
       -1.1336257 -0.22772022 0.4627839 -0.9795481
0001b0 4f b2 15 3f df 1f 9f bf 68 f9 31 bf d2 1e dc 3e
       0.584752 -1.2431601 -0.6952119 0.42992264
0001c0 49 b8 4d be c5 16 89 bf c8 16 1c bd 8f 0e fe 3e
       -0.2008983 -1.0710074 -0.038107663 0.49620482
0001d0 39 88 3b bf e6 75 2f bf a5 d1 4b bf d8 29 04 bf
       -0.73254734 -0.68539274 -0.7961677 -0.5162635
0001e0 97 71 23 bf e5 35 b1 be a5 7c 83 bc 11 24 84 bd
       -0.638452 -0.3461143 -0.016050646 -0.064521916
0001f0 95 dc 09 c0 1c 7d 86 bf 92 72 2e be a0 fa b2 be
       -2.1540883 -1.050693 -0.17035893 -0.34956837
000200 b3 d0 2c be 32 c9 d5 be 0f cd 36 3e 12 46 df be
       -0.16876487 -0.41755062 0.17851661 -0.43608147
000210 5e 57 45 bf 14 2c c5 be c6 61 32 be 8e 80 bd bf
       -0.77086437 -0.3851019 -0.1742011 -1.4804857
000220 cb 6f 85 bf ff 9b b3 be 79 99 66 be 91 d1 83 3f
       -1.0424742 -0.35079953 -0.22519483 1.029833
000230 f3 03 93 bf ce 8e 44 be 06 96 75 bf 8f c7 68 bf
       -1.148558 -0.191951 -0.9593204 -0.909295
000240 03 94 29 be db e2 37 be 76 ac cb bf 53 da 9a bf
       -0.16560368 -0.17957632 -1.5912006 -1.2097877
000250 e3 32 74 bf fc 29 4b bf 6a 64 32 be 35 66 af 3d
       -0.95390147 -0.7936094 -0.17421117 0.08564416
000260 65 5f ea bf 17 55 9b bf 57 de 08 c0 79 c4 9c be
       -1.8310362 -1.2135342 -2.1385705 -0.30618647
000270 15 e8 6b be bf 8e a9 bf 8c de 6e bf 86 14 18 be
       -0.23037751 -1.3246688 -0.9330833 -0.14851579
000280 e6 bc 54 bf 77 93 0b bf 7c 51 2e bf 4e b9 74 3c
       -0.83100736 -0.5452189 -0.68093085 0.014936758
000290 37 bc 4f bf 0d 64 f2 bf 58 20 b4 3e db 52 23 be
       -0.8114657 -1.8936783 0.35180926 -0.15949576
0002a0 aa 93 7e bf 37 16 95 bf ef 15 81 bf 79 85 83 bf
       -0.9944407 -1.1647404 -1.0084819 -1.0275108
0002b0 64 a0 cd bf 3f 70 0a be 79 c2 e1 bf 92 fb ea be
       -1.6064572 -0.13519381 -1.7637473 -0.45895058
0002c0 da 5d 8d bf 17 00 e7 bf 7c da 1c c0 e9 63 25 3e
       -1.1044266 -1.8046902 -2.4508352 0.16151394
0002d0 5d ed 89 bf 0d 18 af bf 9c 66 74 bf 6e 2b aa 3e
       -1.0775563 -1.3679215 -0.9546907 0.3323626
0002e0 87 71 b5 be d1 65 b8 bf d5 1b ca bf 87 c6 11 c0
       -0.35438177 -1.4406072 -1.5789744 -2.2777421
0002f0 c2 61 99 bf 55 40 17 c0 6d d2 08 bf 15 cb ab bf
       -1.1982958 -2.3633015 -0.53446084 -1.3421351
000300 27 10 c1 bf 77 32 71 be 28 c7 9a 3e f3 83 e3 3e
       -1.5083054 -0.23554407 0.3023007 0.44436607
000310 c2 f2 1e be f9 66 ff bd df 13 11 bf 86 26 59 be
       -0.15522292 -0.12470812 -0.56670946 -0.21206102
000320 f0 e6 cd bf 3a 57 62 bf c0 65 b4 bf fd a3 29 3f
       -1.6086102 -0.8841435 -1.4093552 0.6626585
000330 93 cd 1c bf 7b ca ae bf dc d3 e6 3f 59 e8 be bd
       -0.6125118 -1.3655542 1.8033404 -0.093216605
000340 ff 71 b9 bf 12 73 40 bd 70 1e 80 be 4a 1f a6 bf
       -1.4487914 -0.04698474 -0.25023222 -1.2978299
000350 90 e4 b6 bf ef 13 57 bf 6d 28 5a bf 24 a8 61 bf
       -1.4288502 -0.8401479 -0.85217935 -0.8814719
000360 46 9a 13 c0 b4 d9 46 3e b9 aa 61 3d ca 6d 8b be
       -2.306291 0.19418985 0.055094454 -0.272322
000370 7b 99 ef be 23 07 34 bf 6b 3f 9f be e2 58 47 bf
       -0.46796784 -0.7032339 -0.31103072 -0.7787
000380 33 11 97 bf b3 2c 29 bf 25 44 ab bf 20 59 fb bf
       -1.1802124 -0.6608383 -1.3380171 -1.9636574
000390 21 43 d5 3e b8 99 2a 3f 3a e1 0e c0 18 41 67 3f
       0.41652778 0.66640806 -2.2324967 0.903337
0003a0 0f 34 a0 3d 06 9e 36 bf b0 16 38 bf 2f 1a 79 bf
       0.078224294 -0.71334875 -0.7190962 -0.9730558
0003b0 ef dd 00 3f c6 de 5b 3e f7 3e 88 bf b5 b1 9d bf
       0.50338644 0.214717 -1.0644215 -1.2319857
0003c0 72 ef a6 bf 52 9b f8 be 33 e1 a0 3e f0 10 bf be
       -1.3041823 -0.48556 0.31421813 -0.3731761
0003d0 bf cf c3 bf 70 6c 79 3f df 1f 5b be 85 9c d9 bf
       -1.5297774 0.9743109 -0.21398877 -1.7000891
0003e0 af 24 ad bf 3b f7 1f bf d8 d6 a9 bf cf df 06 bf
       -1.352682 -0.6248662 -1.326869 -0.52685255
0003f0 ae 12 89 bf 1d ce 1b bf 4b df 06 c0 e3 e9 8b bf
       -1.0708826 -0.6086138 -2.1073787 -1.0930752

fc2.weight f4 [1, 4096]
000000 12 24 68 be ad 31 9d bc 79 b7 81 bc 38 2c c8 bd
       -0.2267001 -0.019188726 -0.015834557 -0.09774059
000010 57 fc 17 3d 73 87 35 be 03 c1 92 3c 52 02 2b bd
       0.037105884 -0.17727451 0.0179143 -0.04175026
000020 d1 45 08 3c b4 0e fd bc ba 70 84 bc 91 b4 83 3e
       0.008317427 -0.0308908 -0.016167033 0.257237
000030 41 e7 06 3d e6 8c 4b bd 44 5c 29 3e 6a e7 bf bc
       0.032935385 -0.049694918 0.16539103 -0.023425777
000040 6a 1f e8 3c 7b 2e ad 3d c1 d6 95 bc 14 a7 06 3e
       0.028335292 0.08456131 -0.01829088 0.13149673
000050 d2 eb 96 3c ea fa 8b bc 78 2b 0a bd 8c 72 cc 3b
       0.018422995 -0.017087419 -0.03373286 0.006239241
000060 cc b5 dd 3b 9e 8c 54 3c 30 06 a1 bc b2 a3 9e bb
       0.0067660566 0.012972979 -0.01965627 -0.0048412913
000070 a0 50 05 bc 12 94 24 3e 21 37 7c bc 4b c8 05 3e
       -0.008136898 0.1607211 -0.015394003 0.13064687
000080 65 91 19 3c 10 c5 0c be 5b e2 05 bd 11 f0 81 be
       0.009373044 -0.13747048 -0.032686573 -0.2537847
000090 91 97 77 3c c7 48 84 3b 5c 1a 5c bd 59 f1 34 3d
       0.01511182 0.004036996 -0.053736076 0.04417548
0000a0 29 ba a1 bc 55 00 51 bd 66 5d a3 bc 8c a1 0e be
       -0.019742088 -0.051025707 -0.019941997 -0.13928813
0000b0 b5 f1 6c bd ff ff 2a bd 18 47 c0 bc 3f 42 69 be
       -0.057847697 -0.041748043 -0.0234714 -0.22779177
0000c0 32 25 43 3d c9 e4 af bb c3 c9 c9 bb c3 8b a0 3c
       0.047642894 -0.0053678495 -0.006158085 0.019597894
0000d0 aa 34 0e 3c 2c 9a 44 3d 99 77 13 bc 65 f5 df bd
       0.008679548 0.047998592 -0.009000682 -0.10935477
0000e0 79 6b 25 3d 7f 5e 9e bb 97 77 f0 3d 54 f0 ad 3c
       0.040385697 -0.004833042 0.1174156 0.021232761
0000f0 a7 71 d4 bd d9 b4 75 bd fa 46 90 3c 28 c2 10 bd
       -0.1037324 -0.059986923 0.01761197 -0.03534141
000100 fd 3e 08 3d b5 27 bc 3d 28 06 76 3d f5 0c b2 bb
       0.033263195 0.09187261 0.060064465 -0.0054336735
000110 5b a4 9e bd 4e 4d 12 bd 7a 14 53 be 02 95 8e 3b
       -0.07746192 -0.035718255 -0.2061328 0.004351259
000120 1d b0 24 3c 91 20 19 be 37 08 1d be c2 c3 21 bd
       0.010051754 -0.1495383 -0.15335165 -0.03949333
000130 e9 87 e7 ba 01 54 3f 3d de f6 80 3d 6f 7f 34 bd
       -0.0017664406 0.04671097 0.06297086 -0.044066843
000140 7b 10 61 3c d5 db cf 3c 93 23 13 be ba f6 89 bc
       0.013736839 0.025373379 -0.14369039 -0.016841281
000150 4e c5 94 bc c6 ab 3c bd be 8e f0 ba 51 41 03 bb
       -0.018160488 -0.046062253 -0.0018353087 -0.0020027945
000160 43 8d f3 bb 28 85 22 3c f4 25 92 bd 6f 6c 19 bd
       -0.007432611 0.009919442 -0.07136145 -0.037456926
000170 9f a0 ab 3c eb b1 ab bc aa 7a a9 bc af 8c a1 bc
       0.020950614 -0.020958861 -0.020688374 -0.019720403
000180 1b 68 77 3d 9a 94 2b bd 1a cc ad 3e 85 a2 3d 3c
       0.060402017 -0.041889764 0.3394478 0.011574392
000190 d7 60 b2 bc e2 86 c3 3e 17 f8 8b bc f2 94 0a 3c
       -0.021774692 0.38188845 -0.017086072 0.008458363
0001a0 0e 28 b0 bd fd 4c 25 bf c7 90 3b bf ec bb c6 3b
       -0.0860139 -0.645706 -0.7326779 0.0060648825
0001b0 ea cd ea 3c 57 60 c4 3c ee d3 11 3c ee 4e ab bd
       0.02866264 0.02397172 0.008900626 -0.08364664
0001c0 ad dd 47 3d 7f df e4 bc f4 51 f9 3c 0c c0 b7 be
       0.04879539 -0.027938602 0.030434586 -0.35888708
0001d0 bb 7b 18 3c eb e4 91 3c fb e3 f6 bc 57 73 95 bd
       0.009306843 0.017809352 -0.030138006 -0.0729739
0001e0 e3 2c 19 bd e3 c6 c3 3c e9 be 0f be 95 9f b6 be
       -0.037396323 0.023898548 -0.1403767 -0.35668626
0001f0 39 66 19 bb de db a2 3c 89 8e dd 3d 37 9a dd 3c
       -0.0023406877 0.019880231 0.10818202 0.027051074
000200 87 30 9c 3c c4 dc ba 3d a9 f1 20 3d 57 d9 84 bd
       0.019066108 0.09124139 0.039292965 -0.06486767
000210 2e bd cf 3c b9 3b db bd 97 de b6 b9 81 01 fe 3b
       0.025358763 -0.107047506 -0.00034879587 0.007751644
000220 e3 6a 33 bd 59 92 bb ba 55 7a a8 bc 7b 9f 3f 3d
       -0.043803107 -0.0014310583 -0.020566145 0.04678295
000230 0a 97 b2 3c bf 09 01 3f f6 ae 23 bd 52 53 79 3c
       0.021800537 0.50405496 -0.039961778 0.015217619
000240 86 a8 92 3b 62 e8 db bb 90 40 15 bc 19 54 f8 be
       0.004475656 -0.006711052 -0.009109631 -0.4850166
000250 bd 78 ba 3d eb 46 ef bb d6 b8 ee 3c a3 d9 d0 bc
       0.0910506 -0.0073021553 0.029140871 -0.025494402
000260 28 33 05 bb 66 77 92 3c 0e 40 cf 3b 87 eb c8 bc
       -0.002032468 0.0178792 0.0063247746 -0.02452637
000270 c1 fb 7d 3d 11 05 82 3c cd ee fc 3c 02 10 18 3d
       0.06200767 0.015871556 0.030875588 0.03712464
000280 7a 66 10 bc 6b 39 ad 3c 44 6a 3e 3d 01 40 a5 bc
       -0.008813495 0.021145543 0.04648806 -0.020172121
000290 78 d0 c6 bc f3 5f 5b 3c 81 c8 35 bc 7a c2 2f bd
       -0.024269328 0.013389575 -0.011095167 -0.042910077
0002a0 1d ea 3d bd ea f9 66 3c 6e 66 1a 3d 54 e3 0e bd
       -0.046365846 0.01409767 0.03769534 -0.034884766
0002b0 9c 84 c8 3b 9e 05 33 bc 52 38 96 3b 5b 80 93 3c
       0.006119324 -0.010926632 0.0045843506 0.01800554
0002c0 fe bb 0e 3d 4f eb fb bc 74 1a d4 3b 85 7d 57 bd
       0.034847252 -0.030751852 0.00647288 -0.05260994
0002d0 70 7b 82 bc a7 32 52 bd f6 1d d6 3b c1 cd 02 3e
       -0.015928 -0.051317837 0.0065343333 0.12773801
0002e0 af e5 65 3c de d6 fa 3b b7 ea b7 bc e9 0b 49 bc
       0.014031812 0.0076550087 -0.022450788 -0.012270906
0002f0 8f cc 7a 3d 56 6b c4 3c cc 11 d8 3b 38 f0 74 bc
       0.06123024 0.023976963 0.0065939184 -0.014949851
000300 14 37 35 bc 08 bd 52 3d cd 98 5a bb b1 25 81 bd
       -0.011060495 0.051449805 -0.0033355237 -0.06306017
000310 45 f0 2b bb 16 85 7c be ef 00 cc bc 3c 3f 7d bb
       -0.002623574 -0.24660143 -0.024902789 -0.0038642427
000320 bb ab 80 3d c0 09 09 3b 7a e3 15 3d a9 e6 29 bd
       0.06282755 0.0020910352 0.03659389 -0.04147974
000330 96 79 b2 bc e7 87 0a bc 7e 86 f3 bc 87 2c 2b bc
       -0.021786492 -0.008455253 -0.029727217 -0.010447628
000340 bc 97 fd 3e d6 60 3f be e4 a4 20 be 1a f6 f6 bb
       0.49529827 -0.18689284 -0.15687901 -0.007536662
000350 7c bc 2e bd 13 58 0e be 1d b8 98 be 74 bd c1 3c
       -0.04266022 -0.13900785 -0.29827967 0.023649909
000360 e1 f1 af 3c 75 17 61 3d c1 ee ce 3c be f0 e4 3d
       0.021477642 0.05495401 0.025260331 0.111787304
000370 3e 5d 97 3d e2 60 cb bb a0 0b 85 bc 75 f9 9b bd
       0.073908314 -0.0062066177 -0.016240895 -0.076159395
000380 c9 cf f2 bb be 33 8f bc 1f 12 d2 3c b0 40 0e 3d
       -0.007410024 -0.017480727 0.025643406 0.03472966
000390 9f c9 ea bd 1b 7f bf bd 51 05 8a ba bd 05 1b 3e
       -0.114642374 -0.09350415 -0.0010530149 0.15138908
0003a0 66 60 bc 3b f0 16 bc 3b 9c 2c af 3b db bd 3c 3c
       0.0057487963 0.005740039 0.005345894 0.011519874
0003b0 23 88 a4 bd c7 0e ce 3d 65 e4 d5 3c 03 13 a9 3c
       -0.080337785 0.10061412 0.026109884 0.020638948
0003c0 9a 7c 3a 3e e6 73 b6 bb 2f 6b a6 3d dd 90 f0 3c
       0.18211594 -0.0055680154 0.081259124 0.029365951
0003d0 31 99 96 bb 07 ad 94 3e fb c4 83 3d 9d 9a 3e 3b
       -0.0045958986 0.2903826 0.064340554 0.0029083856
0003e0 64 55 9f 3c 5c 9e f3 3b 5b 59 21 3d 0b 36 8d bc
       0.019449897 0.0074346494 0.039391857 -0.017237684
0003f0 64 c3 45 3c 80 97 a3 bc a6 9d 0a 3d 42 85 e9 3c
       0.012070511 -0.019969702 0.03384175 0.028505925
