checkpoint/without_perturb/NGD/mlp_epoch132.pt (torch, 67261 bytes, 3 tensors)

fc1.weight f4 [4096, 2]
000000 fb 90 7c be 17 7b 8d 3f 80 f6 41 3e b2 b6 5a bf
       -0.2466468 1.1053189 0.18941689 -0.8543502
000010 f4 1a 86 3f 47 db 55 be 4e 43 c9 bf f3 02 86 3e
       1.0476975 -0.20884429 -1.5723665 0.26174125
000020 f4 f8 98 bf 81 cd bc 3f 91 f0 a4 bf 16 4e 79 3f
       -1.1950974 1.4750215 -1.2885915 0.97384775
000030 56 63 b4 3e 53 67 26 3f ad b6 e6 3f 94 10 ae bf
       0.35232037 0.6500141 1.8024498 -1.3598809
000040 1a 7e 1e bd 4f 9a e8 be 03 b0 7f 3e c7 16 ee 3d
       -0.03869448 -0.45430228 0.24969487 0.11625438
000050 0e 52 ca bf 12 be 74 3f d6 5a b1 bf 8a 77 c7 3f
       -1.5806291 0.95602524 -1.3855846 1.5583355
000060 36 12 91 bf ec 64 2e bf 26 6a ad be 00 7d c1 be
       -1.1333683 -0.68122745 -0.33870047 -0.3779068
000070 5b 29 6e 3e 22 5c 42 3f 2e 5f 3b bf b5 60 44 bf
       0.23257963 0.75921834 -0.7319211 -0.76710063
000080 5a 95 b2 3e 1e 41 0d 3f 74 e5 ed 3f 0c 9d df be
       0.3487957 0.55177486 1.8585649 -0.43674505
000090 17 f9 30 3e 35 cc 79 3f b8 ce ca 3f c2 f5 07 c0
       0.1728252 0.9757722 1.5844336 -2.1243749
0000a0 1c 66 33 c0 35 e7 c1 bf 64 cf 3b bf e7 63 a0 3e
       -2.8031073 -1.5148684 -0.7336333 0.3132622
0000b0 41 98 1d bf ae 86 df 3e dd cc ea 3e e8 1b aa 3f
       -0.61560446 0.4365744 0.45859423 1.3289766
0000c0 e2 a9 0e 40 36 76 27 40 90 07 c3 be 9f 62 4e bf
       2.2291188 2.61659 -0.38091707 -0.80619234
0000d0 ee a6 da 3e 0d 3c d6 bd 55 4d 3f bd a1 f8 2f 40
       0.42705482 -0.104606725 -0.04670461 2.74955
0000e0 9c 4c 96 3f b1 db 36 bf 3a cc c0 3e a9 bd 3e bf
       1.1742129 -0.7142897 0.37655813 -0.7450815
0000f0 d0 fd ca bf 69 06 09 40 29 e3 5d 3f 66 ec b4 3e
       -1.5858707 2.1410162 0.86674744 0.35336608
000100 fb bd 7b be 1c f7 52 bf b4 85 d7 3e 74 f9 e9 be
       -0.2458419 -0.8240831 0.42094195 -0.4569813
000110 2f a2 12 bf 81 ce e3 be 38 0e 19 bf c4 98 2f 3f
       -0.5727872 -0.44493487 -0.5978732 0.68592477
000120 60 7d 29 3e 3f 2f d5 3f 0f 22 6a 3f c0 0f 06 be
       0.16551733 1.6655043 0.9145822 -0.13091946
000130 8b 0a 42 3f 16 84 9e bf bf 0a f7 3e 3d ac de 3e
       0.7579734 -1.238406 0.48250386 0.43490782
000140 78 ba d7 3e e7 76 1b 3f 89 b9 8a bf a1 fe 96 3f
       0.42134452 0.60728306 -1.0837871 1.1796457
000150 fc a7 4d bf 44 1f 40 3d 7c d1 20 3f ae 0c ef 3f
       -0.8033445 0.046904817 0.6281965 1.8675745
000160 5b c4 95 be 67 36 9e be dc 09 11 bf 70 6d 2e 3f
       -0.2925137 -0.3090088 -0.5665567 0.6813574
000170 1f 0b d7 be 0e 86 0c 3f 7e 8a 51 bf 9d 52 d7 3e
       -0.42000672 0.5489205 -0.8185195 0.42055216
000180 cb f0 b5 bf 7e 5f 78 3f 0b dd a3 bf 2a 71 41 c0
       -1.4214109 0.9702071 -1.2801832 -3.022532
000190 b9 c2 38 3e e8 5c 93 3f 16 25 37 3f 14 14 54 3f
       0.18043031 1.1512728 0.71540964 0.82843137
0001a0 19 39 a4 be 8e 21 77 3e 9a 0c e5 3e ae 47 e6 3d
       -0.32074812 0.24133894 0.44736177 0.112441406
0001b0 fa 6f 8b 3f 70 5f 51 3e fd 70 05 bf dd 71 02 3f
       1.0893548 0.20446563 -0.5212553 0.5095499
0001c0 6e 44 ab 3c 10 05 9d 3f 68 46 99 bf 85 1b a5 3e
       0.020906653 1.226717 -1.1974611 0.32247558
0001d0 02 bd 79 3f 66 4f 80 3f 23 66 ba bf 83 99 df 3f
       0.9755403 1.002423 -1.456242 1.7468723
0001e0 eb ad 3b bf 75 38 5f be 89 50 b7 be b6 1e 95 bf
       -0.7331225 -0.2179888 -0.3580363 -1.1649997
0001f0 03 4f 81 bf 76 39 98 bf a8 09 eb be c7 3d bf bd
       -1.0102237 -1.1892536 -0.45905805 -0.09337955
000200 21 82 71 3f 19 7e 1e c0 c2 a1 ed bf a4 61 af 3f
       0.94339186 -2.4764464 -1.856499 1.3701673
000210 b5 e3 0e 40 a7 61 98 be 4d 79 3a bf 09 0b e9 bf
       2.2326481 -0.29762003 -0.7284134 -1.8206493
000220 1b bb 96 3e bb 95 56 bf 3e 5e de 3f fe 93 89 be
       0.29439625 -0.8382222 1.737251 -0.26870722
000230 d9 aa c1 be dc f7 af 3d 26 2e 9f 3f 20 ce 77 3f
       -0.3782566 0.08592197 1.2435958 0.96798897
000240 98 1d 78 bf 67 a5 ae bf 37 dc f5 3e e4 9e 40 bf
       -0.96920156 -1.3644227 0.48019573 -0.7524245
000250 44 45 c6 3f 0e 1e 60 3e 89 ec 8b bf c8 56 c6 be
       1.5489888 0.21886465 -1.093156 -0.38738084
000260 21 e0 94 be 66 7d 09 3e 93 5b 88 3f bf 97 b2 be
       -0.29077247 0.13426742 1.0652946 -0.34881398
000270 a2 f4 6f 3f 1f 85 57 3f 51 dc 16 3f e3 09 85 3f
       0.93732655 0.841875 0.58929926 1.0393642
000280 11 b2 0e 3f d0 5f cc bd 42 ac 5e 3d c7 d7 cf 3f
       0.5574046 -0.09979212 0.054363497 1.6237725
000290 73 b1 88 bf c6 b2 87 3e ef 11 00 c0 6a d1 a0 3d
       -1.0679153 0.2650358 -2.0010946 0.078524426
0002a0 c8 5d 9e 3e 92 32 0d bf 97 d7 38 bd a9 42 8a 3e
       0.30930924 -0.5515529 -0.045127477 0.27003983
0002b0 b9 f3 00 bf 37 df 14 be a1 46 34 3e e6 45 a4 3f
       -0.5037189 -0.14538275 0.17605068 1.2833831
0002c0 e9 ab 81 3e bd bc b6 3f ab 5f 24 bf 80 ce 85 3d
       0.2532647 1.4276348 -0.6420848 0.065335274
0002d0 d0 10 db be 68 7e 26 bf d9 a9 a5 3d 78 49 d3 be
       -0.42786264 -0.6503663 0.080890365 -0.4126699
0002e0 05 ea 42 bf d8 e3 fe bf 71 f2 72 bf 83 88 00 bf
       -0.76138335 -1.9913282 -0.94901186 -0.502083
0002f0 91 79 f7 bf 97 e9 ce 3f 95 b2 ff be d6 75 39 3f
       -1.9333974 1.6165036 -0.49940935 0.7244543
000300 13 1a 21 3f 4f 1b d0 bf 42 82 f4 be 3b d2 b8 bd
       0.6293041 -1.6258334 -0.4775563 -0.09024473
000310 0e 7c 7b bd 70 eb 90 bf b3 59 58 bf 5d d6 6e 3f
       -0.061397605 -1.132185 -0.8451187 0.9329584
000320 84 34 2b be da b6 06 3e cb 27 aa bf 2d a3 0a 3f
       -0.16719252 0.1315569 -1.3293394 0.54155236
000330 9b 35 83 bf 09 d7 ef 3f 1b fe 8c 3f 3e bd 3e bf
       -1.0250734 1.8737499 1.1015047 -0.7450751
000340 c3 f5 a0 be 0f a9 9e 3e ce a0 99 bd fb 92 c7 3f
       -0.314375 0.30988356 -0.07501374 1.559173
000350 49 95 8d bd 00 e5 e9 be 66 cf 8c bd f5 08 d8 3e
       -0.069132395 -0.45682526 -0.068754956 0.42194334
000360 61 16 e5 bf 96 b0 07 bf 3e bb a6 3f f9 1a f0 3e
       -1.7897455 -0.53003824 1.3025892 0.46895579
000370 5e 1f 8d 3f 25 f3 2a bf 30 d2 23 be fd 31 b1 be
       1.1025198 -0.6677726 -0.15998149 -0.3460845
000380 0e da cf 3f b6 6c 92 3e 10 e9 5e 3f d1 a6 7e 3f
       1.623842 0.28598565 0.87074375 0.9947329
000390 aa 31 a9 be 54 42 59 bf 82 7e 30 bc 26 f0 7d 3f
       -0.33045703 -0.84866834 -0.010772349 0.9919456
0003a0 08 61 1d c0 1f 2e 64 bf 4f 4f e7 bd 5e 62 40 bf
       -2.4590473 -0.89132875 -0.11294424 -0.75150096
0003b0 da 86 4e 40 03 8d 14 40 8a 5f 8b 40 c1 d1 aa 40
       3.2269807 2.3211067 4.3554125 5.3381047
0003c0 f8 31 69 3f 19 68 e1 be f2 67 85 bf ca e4 61 3f
       0.9109187 -0.44024733 -1.0422347 0.8823973
0003d0 63 ba 5b 3f bf c5 5d bf 6b e7 07 bf 8c 16 cf be
       0.8583128 -0.8662986 -0.5308749 -0.4044689
0003e0 50 e4 97 3d cc 8f 50 3e 42 2f 25 c2 0c dd 42 bf
       0.07416594 0.20367354 -41.29615 -0.7611854
0003f0 1d 91 c2 43 bc 87 8e 43 39 13 26 3e 67 77 1f be
       389.1337 285.06042 0.1621827 -0.15572892

fc1.bias f4 [4096]
000000 60 78 75 bf 97 1a 44 bf 84 dc 03 c0 75 97 53 bf
       -0.958868 -0.7660307 -2.0603342 -0.8265298
000010 3a c0 0e 3e 2b e5 23 bf a4 71 bd be 27 41 9e bf
       0.13940516 -0.6402156 -0.37000763 -1.2363633
000020 e5 a4 0b bf 9c b8 65 bf c6 88 de be 5b 2f a9 bf
       -0.54548484 -0.89734817 -0.43463725 -1.3217577
000030 6b 82 20 bf 97 b3 b9 bf 36 0a 80 bf ed f2 a6 3e
       -0.62699 -1.4507931 -1.0003116 0.32607213
000040 42 80 a1 3e 4d be 61 bf b7 3d f3 be 09 18 c9 3e
       0.31543165 -0.88181 -0.47508022 0.3927615
000050 2c 9e ce bf d1 d1 d6 bf c5 24 8c bf ec 86 da be
       -1.614202 -1.6782781 -1.0948721 -0.42681062
000060 9f 25 5d bf ff 96 55 bf 07 6f b2 3c 12 5c 87 be
       -0.8638553 -0.83433527 0.021781458 -0.26437432
000070 6a 16 35 bf 1d 4c eb be 5c 0a 6e bf 7a 2e cd bf
       -0.70737326 -0.45956507 -0.9298456 -1.6029809
000080 8a a1 e5 bf 2c 22 76 3e 05 de a4 bf e4 32 b3 bf
       -1.7939923 0.24036473 -1.2880255 -1.3999906
000090 69 58 8e bf 8e 8f c8 bf 67 85 01 c0 d9 cc 5e bf
       -1.1120731 -1.566881 -2.0237672 -0.8703132
0000a0 17 29 c8 bf b1 96 e5 be fe 4c ab 3d 16 ad 5a bf
       -1.563754 -0.4484153 0.083642945 -0.8542036
0000b0 41 76 4f 3f 23 ab 5d bf 65 88 b4 be 99 54 02 c0
       0.81039816 -0.8658926 -0.3526031 -2.0364134
0000c0 f5 32 27 c0 6d f0 3c bf 4c a1 dc bf 38 c6 93 bf
       -2.6124852 -0.7380436 -1.7236724 -1.1544867
0000d0 11 90 09 bf 2c ba 47 3f 02 4c 90 3c a5 98 6c bf
       -0.5373545 0.7801845 0.017614368 -0.9242042
0000e0 e1 22 91 bf 87 39 0f bf 27 c6 f1 be 03 8e 37 bf
       -1.1338769 -0.55947155 -0.4722149 -0.7170107
0000f0 a7 33 a2 bf a3 b7 45 bf 85 7a 90 bf b9 c3 03 3f
       -1.2672013 -0.7723333 -1.128739 0.51470524
000100 99 09 3c bf 84 74 a3 3e 93 73 af bf 8b bb ab bf
       -0.73452145 0.31924832 -1.3707145 -1.3416609
000110 c8 fd f4 bf 47 5d 71 bf 26 3b f0 bf 08 f4 ea bd
       -1.9139948 -0.94282955 -1.8768051 -0.114723265
000120 1a d6 30 bf a3 8e 9b bf 1f 44 99 be e8 1b 76 3f
       -0.69076693 -1.2152904 -0.29934785 0.9613633
000130 fd ff 5f 3d a6 af eb bf e0 df 96 bf 75 26 f9 bf
       0.05468749 -1.8412979 -1.1787071 -1.9464861
000140 77 09 65 bf 93 8a ae bf 4d a3 97 bf 2b a9 f3 bf
       -0.8946757 -1.363604 -1.184671 -1.9036001
000150 68 71 c0 bf 1d 7a b8 bf db e7 58 be eb db be bf
       -1.5034609 -1.4412266 -0.21182196 -1.4910864
000160 a6 11 5c 3f c3 65 3f bf bc 31 75 be 35 87 8d be
       0.8596443 -0.7476465 -0.23944753 -0.27642217
000170 64 a1 1b bf 6f d1 16 bf 9e 10 9c bf 0d 80 90 bf
       -0.6079314 -0.5891332 -1.2192571 -1.1289078
000180 aa a2 bf bf 7c aa 0b 3f b2 3b e6 bf bd 93 f7 be
       -1.4971516 0.54557014 -1.7986968 -0.48354903
000190 a0 16 6a bf e8 9a e7 bf c7 6b 38 bf 9a 07 af be
       -0.91440773 -1.8094149 -0.72039455 -0.34185487
0001a0 15 08 bd bf 52 2d e6 bf 8c 90 c7 be 04 8c 89 bf
       -1.4768091 -1.7982581 -0.38977468 -1.0745854
0001b0 0f f9 08 c0 fe f1 15 c0 58 54 c5 bf cf fc a1 be
       -2.1402013 -2.342895 -1.5416365 -0.3163819
0001c0 7e 47 34 3e 8a f3 04 bf f9 6e 9a bf 94 5a c2 bd
       0.17605397 -0.5193411 -1.2065116 -0.09489933
0001d0 99 5f 62 bf a4 14 b5 be f8 bf bf 3e ad 1d 7c bf
       -0.8842712 -0.3536731 0.37451148 -0.9848278
0001e0 60 1f 86 bf a5 9d 9c bf 74 2e a3 bf ca 7a 21 3e
       -1.0478325 -1.2235609 -1.2748551 0.15769497
0001f0 a6 97 21 bf ab 0e 21 bf f3 ac e6 3e e4 b2 b4 be
       -0.6312202 -0.62913007 0.45053825 -0.35292733
000200 40 c5 27 bf b7 4e da bd 5f 72 96 3e ec 3b 85 be
       -0.65535355 -0.10659545 0.29384133 -0.2602228
000210 bd 2c 0c c0 5b 71 82 bf ec af 83 3f ea 33 cf be
       -2.1902306 -1.0190843 1.0288062 -0.40469295
000220 96 61 ef be d0 e3 f0 bd 02 24 04 bf 32 48 23 bf
       -0.4675414 -0.11762202 -0.51617444 -0.63782036
000230 f8 d2 46 bf b9 58 ac be 05 d0 9d be d2 ce 66 bf
       -0.7766566 -0.3366144 -0.3082277 -0.9015933
000240 db ea 24 bf 63 18 4f bf 3b b7 c0 be da 6d 9a 3d
       -0.6442086 -0.80896586 -0.37639794 0.07540484
000250 19 32 cc bf d1 87 03 c0 b6 e9 04 c0 a1 7a 70 bf
       -1.5952789 -2.0551646 -2.0767646 -0.93937117
000260 a3 8c be be 54 8e 25 3f b1 66 74 bf 35 55 a4 3e
       -0.37216672 0.646703 -0.95469195 0.32096258
000270 c2 4f 2e bf 57 85 04 c0 2c 50 6b bd ca 05 ec 3d
       -0.6809045 -2.0706384 -0.057449505 0.11524542
000280 55 14 33 bf be 36 ab bf 04 25 9b bd 6b 52 97 bf
       -0.699529 -1.3376081 -0.075754195 -1.1822027
000290 ce 39 84 bf 30 db 6b bf 75 9c 84 bf 0b e4 87 be
       -1.033014 -0.9213133 -1.0360247 -0.2654117
0002a0 cb df d7 bc 19 85 ae bf 01 ad aa bf 90 a1 68 bf
       -0.02635183 -1.3634368 -1.3334047 -0.90871525
0002b0 20 47 04 c0 4f 9d 82 bf 0e d9 7e bf 7a 8c bb bf
       -2.0668411 -1.0204257 -0.9954995 -1.4652245
0002c0 49 ef 3e bf 11 9d f2 bf 85 5b 58 be 6f 19 2e 3f
       -0.7458387 -1.8954183 -0.21128662 0.6800756
0002d0 1f 00 1f c0 ca 98 36 be bd 27 cc be 49 89 04 c0
       -2.4843824 -0.17831722 -0.39874068 -2.0708792
0002e0 a4 69 77 3f 55 2e 9d bf 0e 09 d8 be 0e 74 7c bf
       0.9664557 -1.2279764 -0.42194408 -0.98614585
0002f0 0f 19 25 bf b1 6f d4 3e 10 ca a6 bf 03 a4 e9 bf
       -0.6449136 0.41491464 -1.3030415 -1.8253177
000300 ee e2 79 be 5a d8 75 bf dd e0 93 bf 30 ca 0f bf
       -0.24402973 -0.9603325 -1.1552998 -0.5616789
000310 f2 a3 3a 3f ec b3 4c bf 68 31 f9 bb ed 2c 26 bf
       0.7290641 -0.7996204 -0.0076047666 -0.649123
000320 ae 0f 9a bf 0e 0d f9 bf ba 19 6e bf 0b ce 1d 3e
       -1.2036035 -1.9457109 -0.93008006 0.1541063
000330 8a 53 08 bd 7e 8c 05 bf 9d c4 f9 be 9c 1e d2 be
       -0.033282794 -0.521675 -0.48782817 -0.41038978
000340 56 c8 43 bf cc ba 0a bf d6 6d 86 bf 86 d9 dc be
       -0.76477563 -0.5419128 -1.0502269 -0.43134707
000350 5d 81 0e 3f 5a 93 c4 bf 96 1e 17 bf d5 49 cf be
       0.5566614 -1.5357468 -0.59031045 -0.40486017
000360 22 84 25 bf f4 27 ae be a2 c0 9d bd 7a 50 00 c0
       -0.64654744 -0.34014857 -0.077027574 -2.004912
000370 ac a9 21 bf 8a be 62 be 76 b4 e2 3d 2d 9c fa bd
       -0.63149524 -0.22142997 0.110695764 -0.122368194
000380 c3 cc b3 bd 8e 18 22 bf ea 7b 26 bf fd ca 77 bf
       -0.087792896 -0.6331872 -0.6503283 -0.9679411
000390 df bb 88 bf 0f 77 64 be a2 b4 1d 3f ab 5e fd bf
       -1.0682334 -0.22311042 0.6160375 -1.9794515
0003a0 a3 c1 6f bf 21 08 d2 bf c9 9a dd bf 4d 20 a3 bf
       -0.9365484 -1.6408731 -1.7312862 -1.2744232
0003b0 e7 e7 27 bf be 50 aa be f8 47 de bf db 32 17 be
       -0.6558823 -0.33264726 -1.7365713 -0.14765494
0003c0 d4 90 85 bf 6c 14 59 bd ea b4 0d bf c7 ac 5b bf
       -1.0434823 -0.05299799 -0.5535418 -0.8581051
0003d0 fa 6e a7 bf a3 05 eb 3e 50 26 e4 3b 04 d9 c6 bf
       -1.3080742 0.45902738 0.006962575 -1.5534978
0003e0 fc 29 c8 3e 8a b4 d1 be 09 ff 2c be 0b d8 a5 bf
       0.39094532 -0.40958053 -0.16894163 -1.2956556
0003f0 91 4c 35 3f d2 f3 32 bf a7 0d 07 3f 07 ad c9 bf
       0.70819956 -0.6990329 0.52755207 -1.5755929

fc2.weight f4 [1, 4096]
000000 18 0b 50 bc 85 3e 6a 3b 83 bc 2c bc 32 ec 59 3c
       -0.012697957 0.003574283 -0.010542992 0.013300942
000010 8c d8 46 bc 84 c4 30 bc 4c e4 ed 3b f4 f5 de bb
       -0.01213659 -0.0107890405 0.007259881 -0.0068042222
000020 d8 31 dc bb 4a 4b 29 bd db 11 2a 3c 96 c3 23 bc
       -0.006719809 -0.041331567 0.010380234 -0.009995362
000030 d5 8b d0 3b 09 d6 f8 bc 95 19 d6 bb af 1d f8 bb
       0.0063643255 -0.030375497 -0.0065338113 -0.007571898
000040 50 3f ca bc 21 de 93 bb 73 db c3 3c d8 e2 d7 bc
       -0.024688393 -0.004512564 0.023908352 -0.026353285
000050 72 00 b3 bb 3d f1 2f bc 79 7b 14 bb 2c de c5 ba
       -0.0054626996 -0.010738668 -0.0022656603 -0.001509612
000060 eb 9f 5c 39 56 84 3e bb c7 2a ea 3b 35 1d cc 3c
       0.00021040409 -0.0029070578 0.0071462127 0.02491627
000070 4c ba 52 3c b4 95 96 3b 09 2c 07 bd c9 9a e0 bb
       0.012861799 0.0045954827 -0.03300098 -0.0068543893
000080 41 0f d2 bb 44 a7 d0 3b 39 5a b4 bc 6d e6 15 bd
       -0.00641051 0.006367596 -0.022015678 -0.036596704
000090 57 02 95 3c de b2 bd 3c 0b 4d a4 3c 9e 78 a1 3b
       0.018189592 0.02315658 0.020056268 0.004927709
0000a0 87 ed f9 3c 44 6a 99 bc 64 ca 01 b8 88 c1 c0 bc
       0.03050877 -0.01872743 -3.0944488e-05 -0.023529783
0000b0 67 9e 34 3d e5 ef a9 3a 7c d0 d4 3b 08 0c f5 3c
       0.044096377 0.0012965171 0.00649458 0.029912964
0000c0 7e bb a9 3c 90 2e 41 bc 9f 89 92 bc 42 d3 03 bc
       0.020719286 -0.0117908865 -0.017887888 -0.008045973
0000d0 8f af 9c 3c 1e 7a 21 bb db 16 ce 3c 26 42 e5 bb
       0.019126682 -0.0024639438 0.025157383 -0.006996411
0000e0 82 5d da 3c e3 70 a8 3c 60 72 a5 bc e9 22 64 3c
       0.026655916 0.020561641 -0.02019614 0.013924339
0000f0 f1 91 84 bb 50 e2 38 3c 43 8b a4 bc 04 e1 0d bc
       -0.004045718 0.011284426 -0.020085936 -0.008659605
000100 c5 23 a1 bc f6 27 6a 3d 48 6c 02 3d 32 0b 89 3c
       -0.019670377 0.057167016 0.031841546 0.016728971
000110 2f 4a 5c 3c 38 0b 09 3d ab b0 37 3d c3 ee 89 bc
       0.013445421 0.033457965 0.044846218 -0.016837483
000120 1e 50 07 bb 1f 81 cd bb ce 8d 84 bc 1f c0 4b 3c
       -0.0020647119 -0.006271496 -0.016180899 0.012435942
000130 91 81 5b bb 61 6a db bb 51 47 8e 3c 4f 16 7b bc
       -0.0033493976 -0.006696031 0.01736799 -0.015325143
000140 35 6d 20 bd 49 36 6f bc 9a a2 08 3c ee f7 7b 3a
       -0.039166648 -0.014600345 0.0083395485 0.00096118345
000150 1e 00 19 3c bd c0 6d 3c aa dd 69 bc a6 7f 07 3c
       0.009338407 0.014511284 -0.01427404 0.00827018
000160 2f 5f 93 3b dc 8b 99 3c a9 ec 2a 3c bd b8 2b 3b
       0.0044974308 0.018743448 0.010432401 0.0026202642
000170 8e aa a1 3c 00 50 b0 bc 06 2d 1e 3c 7a c6 f0 3c
       0.019734647 -0.021522522 0.009654289 0.029391516
000180 4c 17 8d bb f0 8c c7 3a 7b ae f8 3b 13 e3 d5 bb
       -0.0043057557 0.0015224498 0.007589159 -0.0065273135
000190 b2 47 61 bc 8a 2b 79 bc 28 2e f6 3c 8c 89 b0 3b
       -0.013750004 -0.015208134 0.030051306 0.0053874906
0001a0 b0 b3 9b 3c d9 57 03 3d 0e 62 58 bc 57 ef b0 3c
       0.01900658 0.0320662 -0.013206972 0.021598501
0001b0 4e fa 08 3c 3d 88 6f 3c 22 8e 2d 3c 3e d3 c5 3c
       0.008360459 0.014619884 0.010592969 0.02414858
0001c0 b5 43 d0 3b d2 63 96 bc 8d 50 06 bd be ed 9c bc
       0.0063557276 -0.018358145 -0.032791663 -0.019156333
0001d0 a4 ee c1 ba ee 82 b6 3c 36 d3 3b 3c 68 a0 52 3c
       -0.0014795852 0.022279229 0.011463931 0.012855627
0001e0 2a a4 3c bc 3f c8 9b 3a b8 35 51 ba 06 17 aa 3b
       -0.011513749 0.001188524 -0.0007980722 0.005190733
0001f0 64 8f ea 3c 19 1f db 3c fa d6 88 3a 25 cb 34 bd
       0.028632827 0.026748227 0.0010440045 -0.044139046
000200 a3 c9 bb 3c 69 3d a8 bc e6 a1 1d bd 46 50 40 bd
       0.022923296 -0.020537095 -0.038484477 -0.046951555
000210 e0 36 a6 3b f8 17 27 3c 18 43 9c bb 3d 9e 43 39
       0.0050724596 0.010198586 -0.0047687404 0.00018655598
000220 12 3e 18 bd e9 76 14 3d fe 18 f1 bc a9 35 be bc
       -0.03716857 0.036246214 -0.029430863 -0.023218947
000230 05 8a 5d 3b 63 42 b9 3c 45 a8 45 bb 19 c0 69 3b
       0.003380419 0.022614663 -0.003016011 0.0035667478
000240 38 dc c6 bc ba 28 f4 bc a7 07 1b 3d 09 0b d8 bc
       -0.02427493 -0.029804576 0.037849095 -0.02637245
000250 71 4e 25 bd 2b cc fb 3b 9c 14 cb 3c 61 d1 07 bd
       -0.04035801 0.007684251 0.0247901 -0.033158664
000260 7d 47 a4 3c 46 34 9b 3a de ae 93 bb 29 b5 06 3d
       0.02005362 0.001184114 -0.00450693 0.03288761
000270 c2 59 83 bc 43 74 c0 3a 75 b0 b7 bc 5b 9e 46 bd
       -0.01603401 0.0014683086 -0.022423008 -0.048490863
000280 c1 c2 de bc 94 21 8a 3b 22 09 62 3c e4 3d b9 bc
       -0.027192475 0.0042154286 0.013796123 -0.02261252
000290 9e 29 80 bc 86 a5 85 3c 7c 95 11 3c 91 5a 1d 3d
       -0.015644845 0.01631428 0.0088857375 0.03841645
0002a0 c6 f0 02 3d b8 66 67 bc 7d d7 8d bc 33 66 cc bb
       0.0319679 -0.014123611 -0.017314667 -0.006237769
0002b0 62 61 29 bc a8 e4 d1 3c f9 4a 8e 3c 36 3f 2f 3c
       -0.010338159 0.025621727 0.017369734 0.010696223
0002c0 dc 28 f6 3b b9 59 a2 3b 24 75 17 3b cb 24 22 bc
       0.007512195 0.0049545434 0.0023110593 -0.009896467
0002d0 29 93 c4 bc c4 07 96 bc 74 35 c3 bc 33 d5 a9 3c
       -0.023995953 -0.01831425 -0.0238292 0.020731544
0002e0 69 49 1c bd 19 81 d5 bc ff 9a 03 3c 2d d2 da 3c
       -0.038155947 -0.026062535 0.008032559 0.026711548
0002f0 8e d9 54 bc 59 05 82 3b 3d 93 18 bd b3 78 11 3d
       -0.012991322 0.0039679226 -0.037249792 0.0355155
000300 34 4a c1 bc 20 f3 76 bb 41 bf 21 bc 75 4e 41 bc
       -0.023594953 -0.0037681535 -0.009872259 -0.011798491
000310 23 a2 24 3c 51 3e 90 3b 2a 67 74 bb 5b e3 0f bb
       0.010048422 0.00440196 -0.0037292936 -0.0021955583
000320 23 b8 d8 bb 1f ec 11 bb 79 31 50 ba 8e d8 86 3c
       -0.0066137477 -0.0022265983 -0.00079419423 0.016460683
000330 23 a6 ae 3c 1b 2d 34 ba 56 ec a7 b9 b7 e4 d6 bc
       0.021319455 -0.00068731763 -0.00032028806 -0.026232107
000340 f3 c0 0b bc bc 8c dd bb 19 91 80 3b 6a 8f fc bc
       -0.008529889 -0.0067611616 0.003923547 -0.030830104
000350 c3 55 65 3d ca 83 88 3c 22 c1 2a 3d 78 07 0a 3b
       0.055989992 0.016664404 0.041688092 0.002106158
000360 99 eb ab bc de 31 b7 3c b2 3a 2f bc cf 97 ea 3b
       -0.020986365 0.022362646 -0.010695146 0.0071592103
000370 2a cf 60 3c dd 1c c3 3c 95 11 9d bb bd 49 10 3d
       0.013721267 0.023817474 -0.0047933557 0.035226572
000380 60 af 5f bc 04 44 e8 bc 42 1f 0b bd 53 11 3c bd
       -0.0136526525 -0.028352745 -0.033965357 -0.04591496
000390 50 d7 37 3a c7 f8 59 bc d0 45 48 bc db 64 03 bd
       0.000701298 -0.013303942 -0.012223676 -0.032078605
0003a0 d6 d8 30 bc 3a fc 9d bc 42 5b 77 bb 1a 5f 13 3c
       -0.010793885 -0.01928531 -0.0037743603 0.008994842
0003b0 d3 64 40 3c 99 c0 b0 3b 55 f4 27 bd 32 ee c4 3c
       0.011742788 0.005394053 -0.041004498 0.024039362
0003c0 e7 83 e4 3b 4b e1 12 bd 07 0f 65 bc 72 cb 09 bc
       0.006973732 -0.035859387 -0.013980634 -0.008410322
0003d0 da 1c 93 bc a0 f7 24 bc 05 76 fe bc 49 aa 00 bd
       -0.017958093 -0.010068804 -0.031062135 -0.031412397
0003e0 9e f7 a6 3b c9 a2 0a bd e8 41 3d bd 61 a2 0a bd
       0.0050954362 -0.03384665 -0.04620543 -0.033846263
0003f0 84 22 58 bd 7f 40 4b ba 0d bd e0 ba 74 c6 4c 3c
       -0.05276729 -0.0007753446 -0.0017146185 0.012498487
