checkpoint/perturb/1/NGD/mlp_epoch492_seed5.pt (torch, 67297 bytes, 3 tensors)

fc1.weight f4 [4096, 2]
000000 5c d1 eb 3f 3c d5 04 3f 1e 20 db bf 8a c6 d9 bf
       1.8423266 0.5188787 -1.7119176 -1.7013714
000010 64 44 01 40 45 89 89 be bc d8 05 be 96 fd b7 bf
       2.0197992 -0.2686254 -0.13070959 -1.4374263
000020 0d f3 97 3e 97 e2 16 3b b9 24 ad bf 2e 17 3b bf
       0.2967762 0.0023023242 -1.3526832 -0.73082244
000030 bd 5e 45 3f 4a f4 cd be ba bb 15 bf 45 47 48 bf
       0.77097684 -0.4022544 -0.58489573 -0.7823375
000040 5e a2 1f 40 ef 78 9f 3f 19 43 ac be 72 0e 77 bf
       2.494285 1.2458781 -0.3364494 -0.96506417
000050 59 ca 04 be e3 0c 1a bf c7 79 14 3e d1 67 19 be
       -0.12967815 -0.60175914 0.1449958 -0.14981009
000060 78 f3 df be 12 7d 47 3f 24 fb 6e bd b3 f3 01 c0
       -0.4374044 0.7792522 -0.058344975 -2.0304992
000070 b3 92 30 40 7e 60 d0 3e 5f 19 8f bf 34 c5 ec 3f
       2.7589538 0.40698618 -1.1179618 1.8497682
000080 3e fa 85 be 42 7d 3b bf d0 62 62 3f d5 0b 7d be
       -0.26167482 -0.73238003 0.88432026 -0.24711545
000090 24 b7 fb bd 6c ab fa 3e 8d b0 97 40 dd ca 72 c0
       -0.12290791 0.4895891 4.7403016 -3.7936318
0000a0 f6 a7 ef bf 88 f6 45 3b 15 52 0c 3f ab ce d1 bf
       -1.8723133 0.0030206759 0.5481275 -1.6391195
0000b0 e0 5b e8 bf c2 96 53 be 18 a5 06 bf 96 4d d9 bf
       -1.8153038 -0.20662978 -0.52595663 -1.6976802
0000c0 1e bf 0b 3f e0 56 8e 3e c1 32 ac 3e ef de bb 3f
       0.54588497 0.27800655 0.33632472 1.4677409
0000d0 fa 04 98 bd 9c a9 65 3d 2a 91 91 bf 24 22 52 bf
       -0.07422824 0.056069955 -1.1372426 -0.82083344
0000e0 1f 78 e5 bf c0 8f 60 3f 13 57 90 3f 8e fa f1 bd
       -1.7927283 0.87719345 1.1276573 -0.11815368
0000f0 93 9d 83 c0 8f 57 fb bf cf 13 03 bf fe cd c2 3e
       -4.112985 -1.9636096 -0.512021 0.38047785
000100 07 ad 5c bf 81 73 9a 3f 7d 7c 4e bf 65 44 02 3f
       -0.8620152 1.2066499 -0.80658704 0.5088561
000110 76 3c 9e bf 03 4c 6c 40 b2 bf 60 bf 59 1a 3e bf
       -1.2362201 3.6921394 -0.87792504 -0.74258953
000120 ce f9 90 3e ae c2 bf bf 74 45 9e be 17 a6 1a bf
       0.28315586 -1.4981287 -0.30912364 -0.60409683
000130 a3 ce fb bf 6c 04 0c be ba f5 01 c0 74 b4 de bf
       -1.9672436 -0.13673562 -2.030623 -1.739882
000140 42 ce 50 bf 3c 8a c4 be 9d 8e 79 bd a8 ed bc bf
       -0.81564724 -0.38386714 -0.060927022 -1.4760027
000150 c1 a7 94 bd 73 0a 0c bf ff 44 22 3e ed 27 99 bf
       -0.07258559 -0.54703444 0.15846632 -1.1965309
000160 c2 6e 9a bf 90 fa 84 3f 57 73 81 c0 20 2c bc bf
       -1.2065051 1.0388966 -4.0453296 -1.4700966
000170 24 a4 e3 3f 3b 58 a0 bd 05 85 bc c0 53 d4 15 c0
       1.7784467 -0.078293286 -5.8912377 -2.3410842
000180 60 13 55 bf 9e 08 3e be 60 52 6e be 61 1f cd bf
       -0.8323269 -0.18557975 -0.23273611 -1.6025201
000190 99 0e 64 bf 60 f4 84 be ca 93 6d be 36 cb e3 3e
       -0.89084774 -0.25967693 -0.23200908 0.44490975
0001a0 71 f0 82 3e fd d2 85 3f 66 78 65 c0 c4 a0 3f c0
       0.25574067 1.0455014 -3.5854735 -2.9941874
0001b0 18 f6 3a be 33 6d 07 3e c5 d7 00 3f f8 f5 63 be
       -0.1825794 0.1322525 0.5032924 -0.22261798
0001c0 11 12 e5 bd ae 3c 57 be 97 b3 50 c0 9d 4d 22 c0
       -0.111850865 -0.21019241 -3.2609613 -2.5359871
0001d0 76 9e a0 c0 ee 33 c8 bf 88 42 c0 bf 5f 18 a9 bf
       -5.0193434 -1.5640848 -1.5020304 -1.3210562
0001e0 5c d7 39 c0 78 e0 01 40 69 56 aa bf fa 94 e7 3f
       -2.9037695 2.0293255 -1.330762 1.8092339
0001f0 03 5b ba 3e 39 3c 9a be ab 29 d3 bf 41 b8 ea 3c
       0.3639756 -0.3012407 -1.6497091 0.028652312
000200 45 df c5 3e 48 3d 78 3f 09 9e 42 3e 79 43 3d 3e
       0.38646904 0.9696851 0.19005598 0.1848277
000210 52 c8 28 3f fa ee ad 3f 20 d4 06 be f3 8f bc bf
       0.65930665 1.3588555 -0.13166857 -1.473143
000220 dc ce d8 be 98 e6 5b 3e 83 cb e9 bf f2 41 6d bd
       -0.4234532 0.21474683 -1.8265232 -0.05792422
000230 e8 bb 14 3f e4 fa 87 be a4 95 0c c0 26 64 b2 be
       0.5809922 -0.26558602 -2.1966333 -0.34842032
000240 7a 9c 9b bf 8d fb 8b bc 89 1e fa be 0f 14 74 3f
       -1.2157128 -0.017087722 -0.4885142 0.95343107
000250 8d ab 63 bf 72 1e 3d 3f 8e 5f 06 bf 3e a5 50 bd
       -0.8893364 0.7387458 -0.52489555 -0.050938837
000260 60 ec d5 be d4 9b df bf ae cb 99 c2 80 17 26 c2
       -0.41781902 -1.746943 -76.89781 -41.52295
000270 ad 03 61 3f 98 74 9a 3d e9 b9 07 3e 9b 6c b4 bf
       0.87896234 0.0754177 0.13254513 -1.4095644
000280 8c 7c a2 c0 01 43 7f bf a9 b0 bd bf fe 16 ac be
       -5.0777035 -0.99711615 -1.4819537 -0.33611292
000290 18 e2 b6 bf dc 7b 97 bf ec 5b 56 c0 a6 ea 9c bf
       -1.4287748 -1.1834674 -3.3493605 -1.2259109
0002a0 d2 f1 94 bf 67 41 5a bf 8c 0b 12 c3 d8 c4 96 c2
       -1.1636298 -0.85256046 -146.0451 -75.38446
0002b0 c7 7c fe bf 5a 11 0e 3f c6 4a b2 3e 63 d4 de 3a
       -1.9881829 0.55495226 0.34822673 0.0017000552
0002c0 58 17 ea be 10 e6 b5 be 76 c0 ff be f2 d7 ba 3e
       -0.45720935 -0.35527086 -0.49951524 0.36492878
0002d0 e9 aa 77 3d 84 18 a1 3d b4 24 08 bf 22 a0 cf be
       0.060465727 0.07866004 -0.53181005 -0.4055186
0002e0 ae a5 08 3e 81 b1 57 be cd 8a ad be f9 82 5c bf
       0.13344452 -0.21063806 -0.3389496 -0.8613735
0002f0 a3 7c d5 be a3 ed cf 3e 79 d6 71 3f a9 6f ef bc
       -0.41696653 0.4061099 0.94467884 -0.029228048
000300 74 95 03 c1 34 61 2e c0 91 ca c3 3e b1 32 31 bf
       -8.223988 -2.7246828 0.38240483 -0.69217974
000310 ce 72 06 3f d2 71 bf bf b9 71 89 3d a4 62 56 3e
       0.5251893 -1.495661 0.06711144 0.20936066
000320 1c 43 7c c2 74 f3 f4 c1 a9 b4 17 3f e3 eb 53 bf
       -63.065536 -30.618874 0.5926004 -0.8278181
000330 c4 3c 9d bf e1 50 52 3d f5 ad 5d bf 78 10 93 be
       -1.2284169 0.051346663 -0.8659356 -0.28723502
000340 6b 52 06 c0 27 4c bb bf 2c 2d 4c c3 2f 73 c6 c2
       -2.0987804 -1.4632615 -204.17645 -99.22497
000350 41 74 80 bd 0e 4e a0 be 8c 21 76 c3 9c 41 de c2
       -0.06272174 -0.3130955 -246.13104 -111.12814
000360 e9 60 8f bf 38 22 45 3e 5b 30 d7 c3 86 1d 4a c3
       -1.120145 0.19251335 -430.37778 -202.11533
000370 3c 03 8d 3d 1b 98 ae bf a3 30 fe 3d 65 6c ee bf
       0.068853825 -1.3640169 0.124116205 -1.8626829
000380 9d a8 05 c1 81 03 40 c0 27 a2 0d 3f 95 6f f4 be
       -8.353665 -3.0002139 0.5532555 -0.4774138
000390 b9 ab 05 c1 21 59 be bf 7a 74 98 be 91 e5 84 3e
       -8.354424 -1.487095 -0.29776365 0.25956395
0003a0 3a 3b 43 bf 3f ee 95 bf 02 fd 9d c2 0e b9 0c c2
       -0.7626225 -1.1713332 -78.994156 -35.180717
0003b0 88 08 9a c2 e0 29 07 c2 a9 db 1e c0 1f 2c a6 bf
       -77.01666 -33.790894 -2.482157 -1.2982215
0003c0 a6 05 52 bf 31 5c 99 3f 3c 02 cf bd 80 9a c0 3f
       -0.8203987 1.198126 -0.10107848 1.504715
0003d0 ae 61 1e bf 54 04 d5 bf f0 2a 0d c0 7a 0d 9c 3f
       -0.618678 -1.6641946 -2.2057457 1.2191613
0003e0 56 a4 c1 bf fc 9a c2 3e 2f dd b6 3e 83 2a 2c 3f
       -1.5128276 0.3800887 0.35715625 0.6725237
0003f0 aa e3 bb c3 95 8b 2f c3 18 aa 81 bf 29 f0 32 3f
       -375.77863 -175.54524 -1.0130033 0.69897705

fc1.bias f4 [4096]
000000 1d 63 88 bf 8d 36 8d bf 56 72 56 bf 7b 01 00 bf
       -1.0655247 -1.1032273 -0.8376821 -0.5000226
000010 3b 19 2d be 0e 8b e2 bf c2 14 cd 3e 52 3e 39 c0
       -0.16904156 -1.7698686 0.400549 -2.8944287
000020 11 e2 0a c0 a9 af b5 bf 39 2f ab bf fc d9 10 bf
       -2.170048 -1.4194232 -1.3373786 -0.5658262
000030 a0 aa 1d c0 12 a2 8e bf 36 bc 9a 3e b2 78 75 3f
       -2.4635391 -1.114321 0.3022172 0.9588729
000040 3d 7b ea be 8d 56 62 bf 9f f4 73 3d b2 17 c8 be
       -0.45797148 -0.88413316 0.05955946 -0.39080578
000050 16 fd 0c 3e da ef a3 bf 9c 7d b0 be 37 38 9d bf
       0.1376842 -1.2807572 -0.34470832 -1.228278
000060 3f 03 3a bf 44 4a 04 bf e3 7d 13 bd 39 9f 3c bf
       -0.72661203 -0.5167582 -0.036008727 -0.73680454
000070 56 9b 9f bf 16 9e f3 be 65 ec 8f be bf 7c b1 bf
       -1.246928 -0.47581547 -0.28110042 -1.3866194
000080 1e de 0a bf e2 f3 86 be 51 ae 41 3f 43 e3 23 be
       -0.54245174 -0.26357943 0.7565661 -0.16004662
000090 54 9e 70 bf 36 d8 0b c0 2c 83 9b be 34 0a 9e bf
       -0.9399159 -2.1850715 -0.30373514 -1.2346864
0000a0 eb 95 b5 bf 0b 02 1f be b9 2a 5b be 8c 45 59 be
       -1.4186376 -0.15528123 -0.21403016 -0.21217936
0000b0 93 b3 5b be 34 7c 55 bf 41 c4 e3 bf 82 7d 85 3e
       -0.21455221 -0.83392644 -1.7794267 0.26072317
0000c0 09 1d 35 bf 24 a5 6f 3e cb da f4 be a6 97 93 bf
       -0.7074743 0.2340284 -0.47823176 -1.1530654
0000d0 0a e3 a3 bf 50 a4 37 bf 84 e8 f7 be 59 08 65 bf
       -1.2803662 -0.71735096 -0.48419583 -0.8946586
0000e0 f0 c4 4d bf 9c 5c b5 bd 3f b6 8d bc d3 52 24 bf
       -0.8037863 -0.088555545 -0.017298816 -0.6418888
0000f0 22 59 f9 bd bd 42 4b bf 55 72 77 bf 7a ef 96 bf
       -0.12175204 -0.7939871 -0.9665883 -1.1791832
000100 6a 15 95 bf 38 7f a5 bf 94 51 3a bd dc 44 59 bf
       -1.164716 -1.2929449 -0.045487955 -0.84870696
000110 f6 bd ee be 3d b1 01 3f 9f 5e af bf 2a be ef bf
       -0.46629304 0.5066107 -1.3700751 -1.8729908
000120 25 f5 67 bf c3 64 fe bf 49 ec 97 bf 82 25 09 bf
       -0.90608436 -1.98745 -1.1868984 -0.5357286
000130 b3 5c 15 bf 74 fb 7c bf 57 44 70 bf 6b 54 a3 bf
       -0.5834457 -0.98821187 -0.9385428 -1.2760137
000140 98 e0 bd be 92 85 b6 bf 6d eb 49 bf b8 c7 1e bf
       -0.37085414 -1.4259512 -0.78874856 -0.62023497
000150 e2 f6 ef bf fd bc 49 bf 97 b5 16 3f db ef 0a c0
       -1.8747218 -0.78804 0.58870834 -2.1708896
000160 36 4d f4 bf c2 9b ab bf ad 7a fd be 19 f1 cc be
       -1.9086063 -1.3406909 -0.49507657 -0.40027693
000170 48 e3 3d bf f3 4c 14 be 99 d3 e3 bf 28 7a fb bf
       -0.7417493 -0.14482479 -1.779895 -1.9646654
000180 5f 3d a6 be 12 3b a2 bf 4b 0c 7e bf ea 67 59 bf
       -0.32468697 -1.2674277 -0.9923751 -0.84924185
000190 dc 65 08 bf d0 38 8b bf bc d0 d1 bf 2e cc 15 be
       -0.53280425 -1.0876713 -1.6391826 -0.1462867
0001a0 e0 29 1b be ed e9 a5 be 92 92 34 c0 24 e6 95 bf
       -0.15152693 -0.32405034 -2.821446 -1.1710858
0001b0 ed de 76 bf dc 8a 1c bf 96 22 03 bf a3 88 4a bf
       -0.9643391 -0.6114938 -0.5122465 -0.7911474
0001c0 8d 30 a2 3f 20 40 7c bf e5 43 0e bf 67 d7 d2 bf
       1.2671067 -0.98535347 -0.5557235 -1.6471986
0001d0 41 8c 8d bf d5 a8 83 bf 9d 69 82 bf 6e 9d 08 be
       -1.1058427 -1.0285898 -1.0188481 -0.13341305
0001e0 c2 fc b1 bf b0 56 f2 bf b7 c1 34 bf ce 14 37 3e
       -1.390526 -1.8932705 -0.70608085 0.1787903
0001f0 e0 97 a4 3e 2c b6 a5 bf c2 b2 6d bf fb 5a f3 be
       0.3214712 -1.294622 -0.9285089 -0.4753035
000200 8e 81 b1 3e cf da 23 bf c3 f7 12 bf a8 11 f2 bf
       0.34669155 -0.6400575 -0.57409304 -1.8911638
000210 b1 66 29 bf 2c 14 8b be 0e ca ab bf ce ab 11 be
       -0.6617232 -0.27163827 -1.3421037 -0.14225695
000220 d6 6a ff be b0 22 79 bf f8 50 2b bf 04 a6 96 be
       -0.49886197 -0.97318554 -0.66920424 -0.29423535
000230 e0 b5 c0 bf 45 67 32 bf 90 70 0b bf 78 26 35 3b
       -1.5055504 -0.69688827 -0.5446863 0.0027641337
000240 21 79 c7 bf 32 73 07 3f b8 18 86 3e 29 12 10 3e
       -1.5583841 0.5291015 0.26190734 0.14069428
000250 d2 fc 76 bf a2 13 67 bf a5 4f d7 be 48 73 59 bf
       -0.96479523 -0.9026433 -0.4205295 -0.8494153
000260 4b 4f 9c bf cb ea 35 bf 3d 8b 84 be e8 82 fc bd
       -1.2211698 -0.7106139 -0.2588748 -0.12329656
000270 0f e1 53 be 9e 48 a1 be be a8 c8 be 22 3c 7a bf
       -0.20691322 -0.31500715 -0.3919124 -0.97748005
000280 4c 76 b3 bf a1 0a ad be 19 64 5f bf 3c 77 61 bf
       -1.4020476 -0.33797172 -0.8726211 -0.8807256
000290 c9 26 dd bf 07 57 d3 be 53 2d 2d 3e 11 5f fd bf
       -1.7277461 -0.41277334 0.16911821 -1.9794637
0002a0 ab 7c 3d be b5 09 ba 3e be 68 5a bf 8f dc 1a be
       -0.18504588 0.3633553 -0.85316074 -0.15123199
0002b0 d9 a2 85 bf f9 0d bf be 71 86 0b bf 3f 21 04 bf
       -1.0440322 -0.37315348 -0.54502016 -0.5161323
0002c0 9d 0f fe bd 02 53 16 3f 06 14 08 bf ed d0 12 bf
       -0.12405322 0.5872041 -0.53155553 -0.57350045
0002d0 83 ec 89 3e 07 45 69 bf 10 ec 1f bf 88 0e 01 bf
       0.26938257 -0.9112095 -0.6246958 -0.504128
0002e0 64 b2 a8 3e e9 9f f7 be 3d 26 25 bf a2 65 06 bf
       0.329486 -0.4836419 -0.6451147 -0.5249883
0002f0 73 3d ee bf 8d 02 0a bf f2 b7 b7 bf aa 4e 56 bf
       -1.8612503 -0.5391014 -1.4353011 -0.8371378
000300 98 72 17 be cc 8a f2 bf 98 48 23 bf 44 6c b5 bf
       -0.14789808 -1.8948607 -0.63782644 -1.4173665
000310 e2 b9 86 bd ec 24 85 bf ec 60 82 bf 29 2c 88 bf
       -0.06578423 -1.0401893 -1.0185828 -1.0638477
000320 5f 62 2a 3e 87 48 c6 3e 8f 71 31 bf 6a 02 80 bf
       0.16639088 0.3872721 -0.693139 -1.0000737
000330 35 4b 74 bf ca a4 f7 be d3 ac 83 bf 27 34 36 bf
       -0.95427257 -0.48367912 -1.0287117 -0.7117333
000340 ac 51 43 be 48 69 c7 bf 48 e7 60 bf 1c 8b 8f bd
       -0.19074124 -1.5579004 -0.8785291 -0.07008955
000350 a0 d3 3d 3e 09 db 3f bf 6d d5 9e bf 53 03 68 bf
       0.1853776 -0.74943596 -1.2408882 -0.9063007
000360 d5 8e d1 bf 56 1b 0a bf 01 5a 81 bf 92 6a ee bf
       -1.6371714 -0.5394796 -1.0105592 -1.8626273
000370 17 53 bc bf a9 0f 6b bf 30 da d2 be d5 3a f9 bf
       -1.4712857 -0.9182077 -0.4118209 -1.9471079
000380 3f c0 d2 3d b9 e8 a2 3e 84 4a 4b be fe bd 0f be
       0.10290574 0.31818178 -0.19852644 -0.1403732
000390 91 37 ba bf 05 87 33 bf 4e 3e 93 bf 69 64 2b bf
       -1.4548208 -0.701279 -1.1503389 -0.6695009
0003a0 d3 ba ff bf 28 22 4d bf da 59 c0 3d 0b a5 82 3e
       -1.9978889 -0.80130243 0.09392138 0.25516543
0003b0 3b b4 f0 3e e5 dc 61 bf a9 91 80 bf d9 e3 53 bf
       0.47012505 -0.88227683 -1.0044452 -0.8276954
0003c0 61 3c 0a 3f e9 94 3a be b8 cd 2a bf 83 1c 3c c0
       0.5399838 -0.18220867 -0.6672015 -2.9392402
0003d0 a6 90 b7 bf 5b ed dc bf ef 9b c8 bf 0a 47 87 bf
       -1.4341018 -1.7259935 -1.5672587 -1.0568554
0003e0 e1 5c 8a be 88 01 9f be 01 5b e2 bd 11 cc 74 3e
       -0.27023986 -0.31055856 -0.11052514 0.2390597
0003f0 ec 6c 08 c0 61 5e 04 bf 24 4e 7a 3e 87 b4 0c c0
       -2.131648 -0.5170651 0.24443871 -2.1985185

fc2.weight f4 [1, 4096]
000000 27 2e 67 bc bc 2f 0d bd 16 33 1e bb ec f5 83 3d
       -0.014110125 -0.03446935 -0.0024139336 0.0644339
000010 48 ab fb 3c 2b 38 fb 3c 82 e4 8d 3c df 32 ff 3c
       0.030721322 0.030666431 0.017320875 0.031152187
000020 cf c3 10 3c 84 a8 f2 bc 6e c5 da ba 4b b6 92 bc
       0.008835747 -0.02962137 -0.0016690919 -0.01790919
000030 a2 03 9d 3c bd 3c 44 3c 6a 5e 09 bc 00 14 06 3c
       0.019166771 0.011977372 -0.0083843265 0.008183479
000040 d8 67 f1 ba 52 32 cd 3b 8f 10 2d 3c d0 52 8d bc
       -0.0018417789 0.006262102 0.01056303 -0.017251402
000050 92 e2 05 bd 4c b0 54 bc f7 2e 52 3c 23 54 e0 bb
       -0.032686777 -0.012981486 0.01282858 -0.0068459674
000060 95 6d 4e bb 31 8a 82 3b 61 dc 65 3d dd d1 05 3d
       -0.0031498421 0.003983759 0.056118373 0.032670844
000070 36 e4 ed 3c 62 cf b2 3a bc 82 28 bd 57 cb 5e bc
       0.029039484 0.0013642127 -0.041140303 -0.013598285
000080 ec 09 8c 3c 72 a3 3e bc fe de 8d 3c 3e f4 95 bc
       0.017094575 -0.011635648 0.017318245 -0.01830494
000090 81 29 30 3d 0f 13 62 3c d1 8c 64 3d fe 42 83 bc
       0.04300833 0.013798489 0.055798355 -0.016023155
0000a0 08 ca 50 3c 22 38 bf bb 80 1c 08 bc 19 21 a1 3c
       0.0127434805 -0.005835549 -0.008307576 0.019669103
0000b0 a7 57 9d 3c 8a b2 69 bc f3 83 b5 3a 43 fa 83 bc
       0.019206835 -0.014263758 0.0013848528 -0.016110545
0000c0 76 d8 6e bc 4e 89 35 3b 05 ac 90 3c 8e 26 97 3b
       -0.0145779755 0.0027700248 0.01766015 0.0046127504
0000d0 b8 44 d6 3c 08 ba 4b bc 4c 25 7d bc 63 7f 70 bc
       0.026155815 -0.01243449 -0.015450787 -0.014678809
0000e0 c3 25 97 bc ae 17 e8 bb 6f 45 03 bc 47 2a 8b 3c
       -0.018450623 -0.007082901 -0.00801216 0.016987933
0000f0 b4 2d ba 3c 58 d2 d7 3c 45 b6 05 3b 7d 14 b8 3c
       0.022726871 0.026345417 0.002040283 0.022470707
000100 b3 5d 4c 3d 73 0b e8 bc cc b3 1f 38 2d 14 fe 3c
       0.049894046 -0.028325772 3.8076003e-05 0.03101548
000110 16 86 16 3c b4 cd dc 3c b7 38 ac bc 15 04 e8 bb
       0.009187242 0.026953556 -0.021023137 -0.0070805647
000120 01 f2 9c bb 0e 6c b0 3b bf f6 28 bd 1d 39 af bc
       -0.0047895913 0.005383975 -0.04125094 -0.021389538
000130 9c 37 e8 3b 5c 95 00 bd b3 61 4f 3c ec e8 c5 3b
       0.0070867073 -0.03139244 0.012657571 0.0060397293
000140 75 ae 1c 3d cb 9b ad ba 7e 67 38 bc 8f 99 ca 3c
       0.038252313 -0.0013245282 -0.011255143 0.024731426
000150 26 ec 40 bc 69 ae b0 bc 79 0a 95 bc 26 fe 03 bc
       -0.011775052 -0.02156754 -0.01819347 -0.008056199
000160 29 03 d3 3b 05 74 5f 3d 2c a6 1a bc 14 be 89 3b
       0.0064395857 0.054554004 -0.0094390325 0.0042035673
000170 f3 b9 81 bb 40 2d a3 bc b1 10 ba 3c e4 32 df bc
       -0.0039589345 -0.019919038 0.022713037 -0.027245946
000180 14 22 38 3d 48 94 82 bc 6d e8 bc 3c 9a 0c 95 bc
       0.044954374 -0.015939847 0.023060048 -0.018194485
000190 45 a1 0a bc 6a 4c 50 bc e7 fa 34 bd cd 86 0a bc
       -0.008461301 -0.012713531 -0.04418459 -0.008454991
0001a0 58 5e 2d 3c a3 b8 d7 bc b5 8c 0b 3c b5 f1 fc bc
       0.010581575 -0.026333159 0.008517434 -0.030876974
0001b0 82 d4 70 bc 2c e1 64 bd 0d 39 8f 3c c7 af de bc
       -0.014699103 -0.055878803 0.017483259 -0.027183427
0001c0 37 9a b2 3c a2 ea 1d 3c 3b eb ef 3c 97 be 44 3c
       0.021802051 0.00963846 0.029286971 0.012008331
0001d0 85 01 63 bc 70 06 22 bc 6b 7b 29 bc 7f c6 44 3c
       -0.013855343 -0.00988923 -0.010344367 0.012010216
0001e0 e2 02 a8 3b e6 e0 04 3c 8a 19 14 3d 50 7d c5 3a
       0.005127297 0.008110261 0.03615717 0.0015067253
0001f0 86 a0 3a 3b 9a ef 3f 3b 85 3f 40 bd 9f 76 2f bd
       0.0028477027 0.00292871 -0.046935577 -0.042837735
000200 23 c0 5d bc 64 b6 ce ba fa 72 c6 bb 73 c2 29 3c
       -0.0135345785 -0.0015770909 -0.0060561867 0.010361302
000210 48 8f 2b bd b9 8a 91 3a 08 82 cc bc b9 53 8e ba
       -0.04188469 0.0011103965 -0.024964347 -0.0010858692
000220 08 90 44 3c 94 5a 57 bc 6e cb 51 3c 91 f1 32 3c
       0.01199723 -0.013144154 0.012804849 0.010921852
000230 77 8a fe 3a dc c9 0a bd 75 a4 a6 bb a4 22 09 bc
       0.0019419928 -0.033883914 -0.005085523 -0.008370075
000240 f8 a1 13 bc 87 97 32 3d 38 4b 8e 3a 4d ee 28 3d
       -0.009010784 0.04360154 0.0010856157 0.041242886
000250 d4 75 8c bc d0 ba 38 bc ef 0f b9 bc 10 40 53 3c
       -0.017146029 -0.011275008 -0.022590606 0.012893692
000260 a4 ad 5c bd 4e 96 8e 3c 40 a1 a8 ba 1f 70 09 bc
       -0.053876534 0.017405655 -0.0012865439 -0.008388548
000270 d7 5d 93 39 d9 fd 4d 3c 98 f2 e4 bc 0f c8 83 bb
       0.0002810794 0.012572729 -0.027947709 -0.0040216516
000280 86 f3 8e ba a9 b3 04 3c 5d 22 d4 bb 37 39 12 3d
       -0.0010906316 0.008099475 -0.006473823 0.035699096
000290 e2 79 17 3d ec 36 b7 3c da f1 1f bb 81 40 68 3c
       0.03698147 0.022365056 -0.002440563 0.014175535
0002a0 21 ca a6 bb 2f a4 9f 3c d9 ae 4b bd 8e 13 94 bd
       -0.0050900136 0.019487469 -0.049727295 -0.07230292
0002b0 11 9c b6 bc 20 88 73 3b 7c 50 9e 3c ec 4d 88 bb
       -0.022291215 0.0037159994 0.019325487 -0.0041596796
0002c0 6a 2f f3 3b 5d b9 c6 bc 37 ee c1 3b 22 30 28 3b
       0.0074214237 -0.02425831 0.00591829 0.0025663455
0002d0 9d 57 0b 3d 07 67 ab 3c a5 22 c6 bc 4b 90 13 bd
       0.0340191 0.02092315 -0.024186442 -0.03602628
0002e0 fa c2 71 b9 2c ff 00 3d 6b 2a 64 bd 3a cb 05 bc
       -0.00023056185 0.03149335 -0.055704515 -0.008166129
0002f0 49 2d da bc 8e 48 52 bb 67 ec c3 3c 9f 0a a8 bc
       -0.026632922 -0.0032086703 0.023916436 -0.020512877
000300 65 69 a0 bc 82 16 ae 3c 7c 6e 2d bd f5 33 52 bb
       -0.019581506 0.021250967 -0.042341694 -0.0032074426
000310 6b d9 10 bd aa d1 95 bb 8b aa 48 bb 82 29 fc 3c
       -0.035363596 -0.004572113 -0.003061923 0.030781511
000320 a6 7b c2 bb ce 74 75 3c e5 c6 45 bc 60 be db ba
       -0.00593515 0.014981462 -0.012071346 -0.001676511
000330 9f 35 58 bd 46 7c 83 bb cd a6 c9 bc ba b2 ed 3c
       -0.052785512 -0.0040126173 -0.02461567 0.029015888
000340 6b e1 37 bc 14 5b 4f bb 75 97 f4 bc 35 a8 53 bb
       -0.011223177 -0.003163998 -0.029857377 -0.0032296304
000350 ad ea a0 3c 03 85 83 3c 22 df e2 3c 44 37 8c bc
       0.019643152 0.016054636 0.027694289 -0.017116196
000360 20 01 d7 3c 39 f1 01 3c b1 13 67 bd 36 92 01 3c
       0.026245654 0.007931047 -0.056415264 0.007908395
000370 97 ba 3a bc 04 db 82 bc d4 f2 33 bc d5 9a fe bc
       -0.011397026 -0.015973575 -0.010983188 -0.031079689
000380 d1 28 b5 3c cd 30 ff 3c 3c d9 fa bb 3d f2 f9 3c
       0.02211419 0.0311512 -0.007655291 0.030511016
000390 38 0c 6e bc bf fa 2f 3b ce fb 84 bc 28 0a 29 3a
       -0.01452928 0.0026852337 -0.016233351 0.0006448352
0003a0 25 22 57 3b b9 0d 26 3c f2 22 23 3d 99 c9 f6 3c
       0.0032826748 0.010135108 0.03982825 0.030125426
0003b0 54 29 1e bd 9b bf 04 3b 0f 86 23 bd 52 5a 35 bd
       -0.038613632 0.0020255807 -0.03992277 -0.04427559
0003c0 0d 75 72 3b fe 5c 3a 3d a4 57 5a 39 41 b6 9f 3c
       0.0036996037 0.04549884 0.00020822749 0.019496085
0003d0 ab 7e 85 bc 9f 8c 66 3c 66 12 1b bd d3 86 86 bc
       -0.016295752 0.014071613 -0.037859343 -0.016421711
0003e0 00 b9 0b bd f4 76 65 bc 64 16 02 bd 3c d3 02 bc
       -0.034111977 -0.014005411 -0.031759635 -0.0079849325
0003f0 e1 80 79 bc e3 fa 3f bb 66 87 68 bc f8 f9 c9 3c
       -0.015228481 -0.0029293827 -0.014192438 0.024655327
