checkpoint/perturb/1/NGD/mlp_epoch496_seed7.pt (torch, 67297 bytes, 3 tensors)

fc1.weight f4 [4096, 2]
0	0xbf51f544	-0.8201487
1	0x3eca8a57	0.3955867
2	0x3f662379	0.89897877
3	0xbfb1b5a9	-1.3883563
4	0xbe2abff6	-0.1667479
5	0x3e92130a	0.2853015
6	0xbf241ad6	-0.6410345
7	0xbf64c373	-0.8936073
8	0x3f9eb2c7	1.2398309
9	0xbefbbe90	-0.49168825
10	0xbf946f0c	-1.1596389
11	0xbeeb9978	-0.46015525
12	0x3f355cba	0.70844615
13	0x3f81a4e4	1.0128446
14	0x4123f60e	10.247572
15	0x40caa231	6.3322988
16	0xbfca954d	-1.5826813
17	0xbea628a3	-0.32452878
18	0x3f45b7ba	0.7723347
19	0xbf2f57d6	-0.684934
20	0x3e4b54b4	0.1985653
21	0x3f4832d0	0.78202534
22	0x3f839ddf	1.0282553
23	0xbf397bad	-0.7245434
24	0xbe566663	-0.20937495
25	0xbe5c448f	-0.21510528
26	0xbfe87210	-1.8159809
27	0xbeb0bef6	-0.34520692
28	0xc003ef60	-2.0614853
29	0x3f2c9464	0.67413926
30	0xbfa96542	-1.3234026
31	0xbfae0a2f	-1.3596858
32	0xbdaab6c6	-0.083356425
33	0xbcc0591b	-0.023479989
34	0xbfbb4c18	-1.4632597
35	0x3f5f50f2	0.8723289
36	0x3f5a892c	0.8536556
37	0xbf30be12	-0.69040024
38	0xbf541213	-0.8284008
39	0xbf1b0b7a	-0.60564387
40	0xc00d79ac	-2.2105513
41	0x3e0cd65d	0.13753648
42	0xbf07fd08	-0.5312047
43	0xbfc67b9d	-1.5506474
44	0xc08d845b	-4.4224067
45	0xc012bccb	-2.292773
46	0x3f004a09	0.5011297
47	0x3e8520d2	0.26001602
48	0xbe3675f6	-0.17818436
49	0xbe84e101	-0.25952914
50	0xbc6cee4f	-0.014461114
51	0xbec48db2	-0.38389355
52	0xc03dd583	-2.9661567
53	0xbf87e35d	-1.0616261
54	0xbfcc4769	-1.5959293
55	0xbe91116f	-0.28333613
56	0xc1cbae3e	-25.46008
57	0xc149b4a7	-12.606605
58	0xbee0071a	-0.43755418
59	0xc006f1e9	-2.108515
60	0xc140623f	-12.023986
61	0xc0a13a9c	-5.0384045
62	0xbf8b00d4	-1.0859628
63	0x3ea06276	0.3132512
64	0x3e087868	0.13327181
65	0x3e3af097	0.1825584
66	0xbf03bf8a	-0.5146414
67	0x3f4cefe3	0.8005354
68	0xbf9f22b6	-1.2432468
69	0xbfdbe6f8	-1.7179861
70	0xbf1518fa	-0.58241236
71	0xbf1d8692	-0.61533463
72	0xbf62ca04	-0.885895
73	0x3f993797	1.197009
74	0x3eef5a1c	0.46748435
75	0xbe136ae5	-0.14396246
76	0xbf4fdf93	-0.8120052
77	0xbec5eca8	-0.38657117
78	0xbf84c172	-1.0371535
79	0x3f179cf7	0.59223884
80	0xc0107ee9	-2.257746
81	0x3ecefe77	0.40428516
82	0xbf556580	-0.83358
83	0xbe42cdf3	-0.19023876
84	0xbe00eb76	-0.12589821
85	0xbf754f78	-0.95824385
86	0xbf86ed02	-1.0541079
87	0xbe8bffe0	-0.27343655
88	0xbecc0ec5	-0.39855018
89	0xbe3134b7	-0.17305265
90	0xc29477e7	-74.234184
91	0xc20a2911	-34.540104
92	0xbf5343eb	-0.8252551
93	0x3e272b49	0.16325106
94	0x3e4a6b9c	0.19767612
95	0x3f84c4e2	1.0372584
96	0xbf8b0cba	-1.0863259
97	0x3df6bcb6	0.120477125
98	0xbe5e0c74	-0.21684438
99	0xbfb31f3f	-1.399391
100	0xc060de5f	-3.5135725
101	0xbfe01130	-1.7505245
102	0xbed08577	-0.40726826
103	0x3f081ba6	0.5316719
104	0xbed3d306	-0.41371936
105	0x3f8d7b6c	1.105329
106	0xbf9b7460	-1.214489
107	0x3fe2b303	1.771088
108	0xbee1114e	-0.43958515
109	0xbeee513a	-0.46546346
110	0x3eebadbb	0.46030983
111	0xbf939f09	-1.1532909
112	0xbf8ff735	-1.1247317
113	0xbea12b62	-0.3147841
114	0xbfaffa57	-1.3748273
115	0xbe69b041	-0.22821142
116	0xbf1607e2	-0.5860578
117	0xbefaa863	-0.48956594
118	0xc2174934	-37.821487
119	0xc18c671b	-17.550344
120	0xc042b2ba	-3.0421586
121	0xbf9ba369	-1.2159244
122	0xbf9af8fd	-1.2107235
123	0x3f01c944	0.5069773
124	0xbedcaadd	-0.43099108
125	0x3f1d070d	0.61338884
126	0xbfe93683	-1.8219761
127	0xbf4e128f	-0.8049707
128	0x3f11a34e	0.5688981
129	0x3e0882e7	0.13331185
130	0xbf75267f	-0.95761865
131	0xbf45b826	-0.77234113
132	0xbe655a0d	-0.22397633
133	0xbf4ba432	-0.7954742
134	0xc00892ba	-2.1339555
135	0xbf3fced0	-0.74924946
136	0xc013acad	-2.3074143
137	0xc007a614	-2.1195116
138	0xbea9b5c1	-0.3314648
139	0x3f0cec6d	0.5504826
140	0x3e01c48e	0.12672636
141	0xbfc1f4c4	-1.5152822
142	0xc0ab657a	-5.3561373
143	0xbfb842fc	-1.4395442
144	0x3e85da4f	0.2614312
145	0xbe197217	-0.14984928
146	0xc3083c02	-136.2344
147	0xc2847801	-66.23438
148	0xc3ba0c24	-372.09485
149	0xc32cad26	-172.67636
150	0xc40c6ade	-561.6698
151	0xc38cecd0	-281.8501
152	0x3d8a6277	0.06757062
153	0xbf0c9732	-0.54918206
154	0xc3bd763c	-378.9237
155	0xc337bb1a	-183.73087
156	0x3f393817	0.7235121
157	0xbf8ab4e3	-1.0836452
158	0xbf07c1e8	-0.5303025
159	0x3e089a2b	0.1334006
160	0xc16ba13c	-14.726864
161	0xc08b82df	-4.3597255
162	0xbda1deb4	-0.079038054
163	0x3e134b80	0.1438427
164	0xc302948f	-130.5803
165	0xc284b6b8	-66.35687
166	0x3e292df1	0.16521432
167	0xbf373052	-0.71558106
168	0xbf2c5069	-0.67310196
169	0xbf36643e	-0.7124671
170	0xbf30e4f4	-0.69099355
171	0x3e6cb998	0.23117673
172	0xbf4145ae	-0.7549695
173	0xbdf55228	-0.11978561
174	0xc50815d4	-2177.3643
175	0xc4848ee2	-1060.4651
176	0xbef0c71e	-0.47026914
177	0xbf5925ae	-0.8482312
178	0xc48a3634	-1105.6938
179	0xc4054dbf	-533.2148
180	0xc14178d9	-12.092004
181	0xc01248dd	-2.2856972
182	0xc1a10984	-20.129646
183	0xc1b33cd7	-22.404707
184	0x3e9d58c5	0.30731788
185	0x3f4262dd	0.75932103
186	0xc49f0906	-1272.282
187	0xc4144025	-593.00226
188	0xc009aac5	-2.151048
189	0xbfa3d37f	-1.2798918
190	0xbf7d4348	-0.9893079
191	0xbb8f572b	-0.004374405
192	0xbeb71013	-0.3575445
193	0x3e3edcd5	0.18638928
194	0xbf952be9	-1.1654025
195	0x3f62803a	0.8847691
196	0x3fa464db	1.2843279
197	0xbf56380c	-0.8367927
198	0xbfb6a8fe	-1.4270322
199	0xbe894b89	-0.2681544
200	0xc02898ca	-2.6343255
201	0xbcbd4e35	-0.023108581
202	0x3f3d1ff2	0.7387687
203	0x3f299d60	0.6625576
204	0xc4b1c8f4	-1422.2798
205	0xc4231336	-652.3002
206	0x3d8afeed	0.067869045
207	0xbdc8f428	-0.09812194
208	0x3f1c3af9	0.61027485
209	0xbf67e48a	-0.905831
210	0xbf617779	-0.88072926
211	0xbf5c51e4	-0.86062455
212	0xbf2ca578	-0.67439985
213	0xc0415045	-3.0205243
214	0x3ecd8745	0.40142265
215	0xbf87b518	-1.060214
216	0xbf90ee46	-1.1322715
217	0xbfeac793	-1.8342155
218	0xbf06c6c7	-0.5264706
219	0x3f92edce	1.1478822
220	0xbe8ff6e3	-0.28118047
221	0xbf30ac12	-0.6901256
222	0xc4dcb96e	-1765.7947
223	0xc44db019	-822.7515
224	0x3ef1427a	0.4712103
225	0x3f25dc18	0.6478896
226	0xc42105f0	-644.0928
227	0xc395561e	-298.6728
228	0xbc6b3d2a	-0.014357844
229	0xbf1348e8	-0.5753312
230	0xc1ccee49	-25.61635
231	0xc08e08bb	-4.4385657
232	0xbfa4c49e	-1.2872503
233	0xbe42b64f	-0.19014858
234	0xbda6feb6	-0.08154051
235	0xbf5a3b88	-0.8524709
236	0xbed65aa5	-0.4186603
237	0x3eaedfb8	0.3415506
238	0xbe778961	-0.241735
239	0x3fa51092	1.2895682
240	0xbf377cbe	-0.71674716
241	0x3f5cafdf	0.8620586
242	0xbedf355b	-0.43595394
243	0xbef7b42e	-0.48379654
244	0xc227fb53	-41.995434
245	0xc187c413	-16.97074
246	0xc2a520b2	-82.56386
247	0xc218a5b1	-38.161808
248	0xc23f9d95	-47.90389
249	0xc1ae8759	-21.816088
250	0xbed332df	-0.4124975
251	0x3dc7a6d7	0.09748619
252	0x3f49be03	0.7880556
253	0xbf4f432c	-0.8096187
254	0x3dbeb5cd	0.093120195
255	0xbe99d57a	-0.30045682

fc1.bias f4 [4096]
0	0xbfebbb15	-1.8416468
1	0xbfa6f58c	-1.3043685
2	0xbf221fe9	-0.6332994
3	0x3db73f46	0.08947615
4	0xbf6b0e3d	-0.918186
5	0x3f805463	1.0025753
6	0xbfbf80ce	-1.4961183
7	0x3df075a9	0.11741192
8	0x3f073b99	0.52825314
9	0xbf45ab3f	-0.77214426
10	0xbf5b2fd8	-0.8561988
11	0xbf838aec	-1.027677
12	0xbf8d0b3a	-1.1019051
13	0xbe8f0db5	-0.27940145
14	0xbef0dfd1	-0.47045758
15	0xbf03190a	-0.5121008
16	0xbf38a189	-0.72121483
17	0x3d865afa	0.06560321
18	0xbf5a7888	-0.85340166
19	0xbf758865	-0.95911247
20	0xbe2e972b	-0.17049854
21	0x3f07e7f2	0.53088295
22	0x3f48e072	0.78467476
23	0xbf3cb952	-0.73720276
24	0xc00d1a94	-2.2047472
25	0xbfdef7b5	-1.7419344
26	0x3ebfa966	0.37433928
27	0xbe87a9eb	-0.26496825
28	0xbf41ae7b	-0.7565686
29	0xbf9bf94f	-1.2185458
30	0xbf694fc9	-0.9113737
31	0x3e89de79	0.26927546
32	0xbf8b84b7	-1.0899876
33	0xbfe7be2e	-1.8104913
34	0x3e807d94	0.25095809
35	0x3e0c5b63	0.13706736
36	0xbf6867f0	-0.90783596
37	0xc0063d19	-2.097479
38	0xbd509a8f	-0.05092865
39	0xbecd8fba	-0.40148717
40	0xbfd1c453	-1.6388038
41	0x3f1d0b26	0.61345136
42	0xbed647a2	-0.41851526
43	0xbf4c8235	-0.7988618
44	0xbf23b291	-0.63944346
45	0x3e387c61	0.18016197
46	0x3e2f4066	0.1711441
47	0xbfa67d9d	-1.3007084
48	0xbe4eaf3c	-0.20184034
49	0x3e5f11bc	0.21784109
50	0x3d237936	0.039910518
51	0xbf1cbd90	-0.6122675
52	0xbf9d0fc8	-1.2270441
53	0xbf7cf4c6	-0.98810995
54	0xbe5dc466	-0.21656951
55	0xbf05a92c	-0.5221126
56	0xbebe5e87	-0.37181494
57	0x3eb1055f	0.3457441
58	0xbf86e84e	-1.0539644
59	0xbea77f19	-0.32714155
60	0x3e0bdebd	0.13659187
61	0xbf1bb0f1	-0.60816866
62	0xbea791be	-0.3272838
63	0xbf4476d2	-0.76743805
64	0xbf8eab93	-1.114611
65	0xbf062fed	-0.5241688
66	0xbf2e48cd	-0.68079835
67	0x3e0737cb	0.13204877
68	0xbf583723	-0.8445913
69	0xbfbd813d	-1.4805065
70	0xbfaecdaf	-1.365652
71	0x3f1118b8	0.5667834
72	0xbeb2d48e	-0.3492779
73	0x3f3a7b67	0.7284455
74	0xbf2d21cd	-0.676297
75	0xbe93e648	-0.28886628
76	0xbfa57f25	-1.2929426
77	0x3f13b779	0.5770183
78	0xbf5c0fcd	-0.8596161
79	0xbf99f0cc	-1.202661
80	0xbdbb7c7b	-0.09154602
81	0xbf2ec242	-0.68265164
82	0xbea6a274	-0.32545817
83	0xbe831785	-0.2560388
84	0xbe3c8ae9	-0.18412365
85	0xbfc72799	-1.5558959
86	0xbfef06f8	-1.8674002
87	0xbf25eaf8	-0.6481166
88	0xbf526f6e	-0.8220128
89	0xbdf65482	-0.12027837
90	0xbeeb26b1	-0.45927957
91	0xbf8ad671	-1.0846692
92	0xbf6ef1f4	-0.9333794
93	0xbf33a1dc	-0.7016885
94	0xbf1d3d8f	-0.61422056
95	0xbefbadef	-0.49156138
96	0xbf381088	-0.71900225
97	0xbe47679b	-0.19473116
98	0xbfd60df5	-1.6723009
99	0xbf96dfda	-1.1787064
100	0xc0065f54	-2.0995684
101	0xbfb10c48	-1.3831873
102	0x3f17bdba	0.59273875
103	0xbdaf5ace	-0.085622415
104	0xc008f528	-2.1399632
105	0xbf5c6c2e	-0.8610257
106	0x3da07534	0.07834855
107	0xbf1c79e9	-0.6112352
108	0xbf90fa22	-1.1326334
109	0xbf3e0af3	-0.7423546
110	0xbf07d5d9	-0.5306068
111	0xbf9de861	-1.2336541
112	0xbf8c267b	-1.0949243
113	0xbf1d2005	-0.6137698
114	0xbe4e8605	-0.20168312
115	0xbe4361bb	-0.1908025
116	0xbf90d67b	-1.1315454
117	0xbf827a7d	-1.019363
118	0xbeeb8b10	-0.46004534
119	0xbf9f3c4d	-1.2440277
120	0xbf4e7a1d	-0.8065508
121	0xbfbbe926	-1.4680526
122	0x3f295e74	0.6615975
123	0x3f490798	0.7852721
124	0x3ce39d73	0.027785039
125	0xbf91663c	-1.1359324
126	0xbf92a3fb	-1.1456293
127	0xbe497eee	-0.19677326
128	0xbfd37d62	-1.6522639
129	0xbe89f799	-0.26946715
130	0xbe968640	-0.293993
131	0xbfc51fb7	-1.5400304
132	0xbfcaac62	-1.5833857
133	0xbed5d509	-0.41764095
134	0xbe024797	-0.12722622
135	0xbfd56fb0	-1.6674709
136	0xbf548751	-0.83018976
137	0xbd22e507	-0.0397692
138	0xbf87a3a2	-1.0596812
139	0xbff0ab47	-1.880227
140	0xbf2f5c99	-0.6850067
141	0xbf1753e2	-0.5911237
142	0xbf99ea94	-1.2024713
143	0xc02e8d7f	-2.7273862
144	0xc043d76d	-3.0600235
145	0xbf8ebdae	-1.1151636
146	0xbf7f30cd	-0.9968384
147	0xbed71dd2	-0.4201494
148	0xbf0b0710	-0.5430765
149	0xbf20e9ce	-0.6285676
150	0xbfc2910e	-1.5200517
151	0xbf237798	-0.6385436
152	0xbd8113b5	-0.06302587
153	0xbef21266	-0.47279662
154	0xbfc97c10	-1.5740986
155	0xbfadc317	-1.3575162
156	0xbf915598	-1.1354246
157	0x3f2defaf	0.67943853
158	0x3e055446	0.13020429
159	0xbf281f3a	-0.6567265
160	0xbf78e55e	-0.97224987
161	0xbfdc7852	-1.7224219
162	0xbfb6ffe7	-1.4296845
163	0xbf4bdc9c	-0.796335
164	0xbe6e57bb	-0.23275654
165	0xbfca778b	-1.5817732
166	0xbfe0a173	-1.754927
167	0x3eb40095	0.35156694
168	0xbe6cb584	-0.23116118
169	0xbe0c2ead	-0.1368968
170	0xbf8b15fa	-1.0866082
171	0xbfc373f2	-1.5269759
172	0xbf075656	-0.52866113
173	0xbf596ab7	-0.8492846
174	0xbf78af9b	-0.9714295
175	0xbfe9a97f	-1.8254851
176	0xbf608e87	-0.8771748
177	0xbfaec604	-1.365418
178	0xbf15bff6	-0.58496034
179	0xbf95b51d	-1.1695896
180	0xbf1a06c2	-0.6016656
181	0xbf58cd6e	-0.8468846
182	0xbf9f3a53	-1.2439674
183	0xbe424050	-0.18969846
184	0xbfa3502e	-1.2758844
185	0xbffc8ea2	-1.9731028
186	0xbf9c2b3e	-1.2200696
187	0xbf02c6b7	-0.51084465
188	0xbf055cc8	-0.520947
189	0xbfa1df80	-1.2646332
190	0x3cddfcb7	0.027098043
191	0xbf617716	-0.88072336
192	0xbff171af	-1.8862818
193	0xbfb78980	-1.4338837
194	0xbe9982f8	-0.29982734
195	0xbfd73049	-1.681161
196	0xbf624508	-0.88386583
197	0xbdfb109a	-0.12259026
198	0xbf635023	-0.88794154
199	0xbec06a4c	-0.37581098
200	0xbefc0cb7	-0.4922845
201	0xbf9868ef	-1.1907023
202	0xbf9f8b93	-1.246447
203	0xc025bdf6	-2.5897193
204	0xbfc148f3	-1.5100387
205	0xbe60b339	-0.21943368
206	0xbe31a90b	-0.17349641
207	0xbeb4c5e5	-0.35307232
208	0x3e7063d9	0.23475589
209	0xbfa26224	-1.26862
210	0xbf688fbb	-0.90844315
211	0x3e267155	0.1625417
212	0xbf69316c	-0.91091037
213	0xbf8e6369	-1.1124088
214	0xbf99ea5d	-1.2024647
215	0xbeea512b	-0.4576505
216	0x3da84922	0.08217074
217	0x3ee2e735	0.44317022
218	0xbf2923f0	-0.6607046
219	0xbe5b8fe3	-0.21441607
220	0xbfda221c	-1.7041659
221	0xbf130d17	-0.5744185
222	0xbf7b0cae	-0.9806622
223	0xc02436ca	-2.565844
224	0x3e6fe3f0	0.23426795
225	0xc0009830	-2.0092888
226	0xc0057d5e	-2.0857768
227	0xbf78f6c6	-0.97251546
228	0xbf5353d8	-0.8254981
229	0xbed16485	-0.40897003
230	0xbec130e4	-0.37732613
231	0xbf15715c	-0.583761
232	0xbeafca35	-0.3433396
233	0xbd9fcc56	-0.07802646
234	0xbf68e95e	-0.9098109
235	0xbf615561	-0.880209
236	0xbf8cc38b	-1.0997175
237	0xbfa7f63f	-1.3122023
238	0xbdcb2896	-0.099198505
239	0xbfddb659	-1.7321273
240	0xbfdd26bc	-1.7277446
241	0xbf2db1fe	-0.6784972
242	0x3d987a48	0.07445198
243	0xbf27784e	-0.65417945
244	0xbeabc8c0	-0.33551598
245	0xbf853e82	-1.0409701
246	0xbefdf943	-0.49604234
247	0xbf8a9638	-1.0827093
248	0xbea0cb0f	-0.3140492
249	0xbf363dec	-0.71188235
250	0xbc253ced	-0.010085327
251	0xbd3ea780	-0.04654646
252	0xbe54c1c8	-0.20777047
253	0xbfcec300	-1.6153259
254	0x3dc1b2b5	0.09457914
255	0xc0032b18	-2.0495052

fc2.weight f4 [1, 4096]
0	0x3d34a71c	0.04410468
1	0xbc04a8b3	-0.008096862
2	0xbc98840c	-0.018617652
3	0xbc7d4e90	-0.015460625
4	0x3c863a8a	0.016385335
5	0x3cfe987f	0.031078575
6	0xbc6a0a7b	-0.014284725
7	0x3ceed453	0.029153978
8	0xbbd1218a	-0.006382172
9	0xbd45d6ef	-0.04830068
10	0x3c3e02a7	0.011597312
11	0xbab04592	-0.0013448468
12	0xbc606ce1	-0.013697834
13	0x3c9363a8	0.017991856
14	0xbca930eb	-0.020653209
15	0xbad4bdde	-0.0016230901
16	0xbc1f5de0	-0.009726971
17	0xbb7893a4	-0.0037929798
18	0xbbb5c08b	-0.0055466346
19	0xbc9eeb61	-0.019399347
20	0x3d170c2d	0.036876846
21	0xbc8136a2	-0.015773121
22	0x3c209634	0.009801436
23	0xbc848966	-0.016178798
24	0xbc52acf6	-0.01285862
25	0xbbe0ddc4	-0.006862374
26	0x3cdc7f2e	0.026916113
27	0x3bee3fe0	0.007270798
28	0x3d23b98e	0.03997188
29	0xbc2aa78d	-0.010415924
30	0x3c9d7311	0.019219907
31	0xbce11f2e	-0.027480688
32	0xbbf10015	-0.007354746
33	0xbccb5933	-0.024822807
34	0xbca8a187	-0.020584835
35	0xbb7e0aaa	-0.003876368
36	0x3b8947fc	0.0041894894
37	0xbc57c9bc	-0.013170656
38	0xbc661e37	-0.01404529
39	0xbc924c3d	-0.017858619
40	0x3bab6b28	0.00523128
41	0xbb67074e	-0.0035252157
42	0xbcb7068a	-0.022341985
43	0xbd15a9b1	-0.036538783
44	0x3bd19938	0.006396439
45	0x3d1c4930	0.038155735
46	0x3d13b654	0.036062554
47	0xbc943262	-0.01809043
48	0xbd104d4f	-0.035229977
49	0xba1da9e9	-0.00060143933
50	0xbd0a873b	-0.033820372
51	0xbb930e19	-0.0044877646
52	0xbca35efe	-0.019942757
53	0x3d28b37e	0.041186802
54	0xbbefb8dc	-0.007315738
55	0x3c946ccf	0.01811829
56	0x3b8e95a8	0.0043513365
57	0xbb90514b	-0.004404222
58	0x3c5cd23c	0.013477858
59	0x3c03d217	0.008045695
60	0xbd38ecfd	-0.045147885
61	0xbcc7fe2c	-0.02441319
62	0xbcf875ac	-0.030329548
63	0xbce05866	-0.027385902
64	0xbc04ea57	-0.008112512
65	0xbd208b8d	-0.039195586
66	0xbcfce974	-0.030873038
67	0x3c5981f5	0.013275613
68	0xbcbc253a	-0.02296697
69	0xbc158b87	-0.009127504
70	0xbc6b4f7a	-0.01436221
71	0x3a0542cd	0.00050835015
72	0x3a9efa4c	0.0012129038
73	0x3c377c8b	0.011199127
74	0x3ce71a5f	0.028210817
75	0x3d29cc7b	0.041454773
76	0xbc9265b5	-0.017870763
77	0x3ccad534	0.024759866
78	0xbd49fed4	-0.04931529
79	0x3cbf5f3e	0.023360845
80	0xbcfe80dc	-0.031067304
81	0xbc13df94	-0.009025473
82	0x3bafa647	0.005360398
83	0x3a3b45c7	0.00071438815
84	0x3ca1d97a	0.019757021
85	0x3ab17ab7	0.00135406
86	0x3cb5b88e	0.02218273
87	0x3d6818e9	0.05666438
88	0x3d6030ef	0.054734167
89	0x3cc65fe4	0.024215646
90	0xbc58fc94	-0.013243813
91	0xbd32d9d0	-0.043664753
92	0x3c90702a	0.017631609
93	0x3cca8e97	0.024726195
94	0xbc54bf8d	-0.012985122
95	0xbc41fbad	-0.011839789
96	0x3c28c6a5	0.010301267
97	0xbbad57e8	-0.0052900203
98	0x3d3dddcd	0.046354104
99	0x3d0c7e62	0.034300216
100	0xbc0d39d6	-0.008619746
101	0xbbb00d7a	-0.0053727003
102	0x3ce42c82	0.027853254
103	0x3cadf60a	0.021235485
104	0x3c415f71	0.01180254
105	0x3b5c693a	0.0033632056
106	0xbcd823dd	-0.026384288
107	0x3d024729	0.031806145
108	0x3caca0b8	0.02107273
109	0xbd1bc34a	-0.03802804
110	0xbb17ebbf	-0.0023181287
111	0x3d0b5b39	0.034022544
112	0x3ce720af	0.028213827
113	0x3c4d7407	0.01253987
114	0x3d10280c	0.03519444
115	0xbca2076b	-0.019778928
116	0xbca49b67	-0.020093633
117	0x3c298620	0.010346919
118	0x3c3dbabe	0.011580167
119	0x3c44b152	0.012005167
120	0xbc7a4782	-0.015275838
121	0xbd1903d0	-0.03735715
122	0x3a56601d	0.0008177774
123	0x3ad57701	0.0016286076
124	0xbcb09941	-0.021557452
125	0xbc35fd2f	-0.011107727
126	0xbaa11470	-0.0012289416
127	0x3ba654c4	0.005076023
128	0x3cf45be4	0.029828973
129	0x3ca98527	0.020693375
130	0x3c0078d0	0.007841304
131	0xbd1908f5	-0.037362058
132	0x3c9ef369	0.019403176
133	0x3c4fb159	0.01267656
134	0x38c2b02e	9.283457e-05
135	0xbba1a3bf	-0.00493285
136	0xba6ffd43	-0.00091548654
137	0xbd1541f9	-0.03643987
138	0x3d1b3091	0.037888113
139	0xbc8a619b	-0.016892245
140	0xbd15e5aa	-0.036595978
141	0x3c8f0587	0.01745869
142	0xbc90c1f4	-0.017670609
143	0x3c0f00cc	0.008728217
144	0xbc9bde71	-0.019026967
145	0xbc9006f2	-0.017581437
146	0x3c48c421	0.012253792
147	0x3cbea228	0.023270682
148	0xbc3de670	-0.011590585
149	0x3cb44797	0.022006793
150	0xbcdb0d80	-0.026739836
151	0x3c27335b	0.010205115
152	0xbcab7a78	-0.020932421
153	0xbcb02a18	-0.021504447
154	0xb9f37b56	-0.00046440464
155	0xbc9860a8	-0.018600777
156	0x3c181a2d	0.009283585
157	0xbcedb7e1	-0.029018344
158	0xbb5c0116	-0.0033569983
159	0x3c841015	0.01612095
160	0xbd1881dd	-0.037233222
161	0x3b858887	0.004075113
162	0xbca0cfcc	-0.019630335
163	0x3ba43a70	0.005011849
164	0xbb257f5d	-0.0025252916
165	0x3cea2618	0.028582618
166	0xbc40b09a	-0.011760855
167	0xbbabc615	-0.005242119
168	0x3ce51758	0.027965233
169	0xbcaa29e4	-0.020771928
170	0xbcce102c	-0.025154196
171	0xbc84f0eb	-0.01622816
172	0x3d2c1f92	0.042022295
173	0xbc24d47a	-0.010060424
174	0xbd09cd63	-0.033643138
175	0xbc05cc52	-0.00816639
176	0x3c910e2b	0.017706951
177	0x3c2a2c99	0.0103866095
178	0xbc2dac73	-0.010600197
179	0xbccd0863	-0.025028413
180	0xbcd04867	-0.02542515
181	0x38ec0f84	0.00011256247
182	0x3c925e9c	0.017867379
183	0xbcfefdbe	-0.031126853
184	0x3cc78f4b	0.02436032
185	0xbc838e5b	-0.016059091
186	0x3ba1b7d0	0.0049352422
187	0xbcaaecec	-0.020864926
188	0xbcfc6103	-0.030807978
189	0x3b9bac84	0.00475079
190	0x3ce30694	0.027713098
191	0xbba6ab2d	-0.0050863237
192	0xbc8e993a	-0.017407048
193	0x3cebe0d2	0.028793726
194	0xbd09de80	-0.03365946
195	0x3ca4fe6a	0.020140845
196	0xb9942e52	-0.0002826327
197	0x3ac23167	0.0014815748
198	0x3b81f1d6	0.0039655967
199	0xbd2a2da3	-0.04154743
200	0xbbd7a6fb	-0.006581185
201	0x3cf8f5d5	0.03039066
202	0x3c23ff76	0.010009637
203	0xbc550b70	-0.013003215
204	0xb9e76d46	-0.00044141168
205	0xba8bf21b	-0.0010677011
206	0x3d0cc30f	0.03436571
207	0xbbedcb8b	-0.00725693
208	0x3c7363d6	0.014855346
209	0x3b882a45	0.0041554295
210	0xbcdfed84	-0.027334936
211	0xbc23f9ef	-0.010008319
212	0x3c793a5f	0.015211671
213	0x3cc30f27	0.023810936
214	0x3bc1c568	0.0059134252
215	0xbc866f8b	-0.01641061
216	0x3c74325c	0.014904585
217	0x3c0edaef	0.00871919
218	0x3bcbf92b	0.0062247715
219	0xbc21c931	-0.009874628
220	0x3cc8334e	0.024438526
221	0x3bf56104	0.007488372
222	0x3cbb49cd	0.02286234
223	0xbc66ca1d	-0.0140862735
224	0x3d13d20f	0.036089
225	0x3ced3acc	0.0289587
226	0xbc800652	-0.015628014
227	0xbaa11fe2	-0.0012292827
228	0x3d2d067b	0.04224251
229	0x3af5e04d	0.0018758863
230	0xb97155aa	-0.00023015463
231	0x3d25d054	0.04048188
232	0x3d643b2b	0.05572049
233	0x3d1c3f55	0.038146336
234	0xb7cebad3	-2.464411e-05
235	0x3c65f51e	0.014035491
236	0xbc437b36	-0.011931231
237	0x3cd53f50	0.026031166
238	0xbce165b9	-0.027514325
239	0x3d0fdbec	0.035121843
240	0x3a210cef	0.000614359
241	0x3be32425	0.006931799
242	0x3c26ccfd	0.010180709
243	0xbc38e662	-0.011285396
244	0xbc71e873	-0.014764893
245	0xbca15af0	-0.019696683
246	0xbb4d2043	-0.0031299747
247	0x3ca68c5f	0.020330606
248	0x3cd6eb56	0.026235264
249	0xbccb112b	-0.02478846
250	0xbcd54194	-0.026032247
251	0xbcb1bf20	-0.02169758
252	0xbcd795d1	-0.026316555
253	0x3c09819f	0.0083927205
254	0xbbdee3b6	-0.0068020476
255	0x3c1d14a9	0.009587445
