checkpoint/perturb/infty/modified_NGD/mlp_epoch500_seed17.pt (torch, 67303 bytes, 3 tensors)

fc1.weight f4 [4096, 2]
-1.0461916 1.230521 1.8662124 -0.34353164 0.06754864 0.44813412 -0.5985895 0.2514626
0.21132588 0.13313396 0.25223473 0.3826901 0.2352111 1.1807268 0.7960847 1.2370793
0.00494517 0.11729302 -1.1596639 0.6123931 0.34868515 0.1928816 1.052833 0.11977605
0.013675524 -0.53777635 -0.69941264 1.1372623 0.27497473 -0.4114107 0.11577202 -0.21541478
0.15191416 -0.17003249 -0.060117673 -0.629393 -1.3344847 1.2675158 0.90650314 0.13949844
0.7498769 1.1744546 -2.571263 1.4333272 1.0998816 -1.0092968 -0.59641963 0.8118518
0.21903385 0.7703284 0.9749627 0.9753888 1.0702003 0.2551872 0.26385853 0.48327532
-0.48492968 1.0631669 -1.6568264 2.4466538 -0.9277929 0.7583286 -0.48598412 1.0937471
-0.00750134 0.39621654 -0.1929533 0.55526286 1.0754199 -0.30575612 -0.8747941 1.31401
0.8432556 0.08151211 0.42407697 0.31881154 -0.59009165 -0.5825413 1.3250842 0.3534697
-0.30724964 -0.083169624 -0.62537503 -1.5815159 -0.16847885 -0.9176086 -0.4189946 -1.6684923
0.033537682 -2.0805056 0.6717366 -0.40399522 2.4772012 -0.34551138 1.9374061 1.474904
2.2713213 0.8093097 1.2988703 0.09497858 -0.17237058 -0.6953903 0.50463504 0.16943221
-0.85174483 -0.61904985 -0.4745161 -1.3954675 0.83031344 0.19528352 1.99709 -0.07245983
-0.4325397 -0.21065976 -0.024542997 0.39232984 -1.7758127 0.047816116 0.6334558 0.09483074
-0.89507425 -0.6615906 0.049226888 1.6131922 -0.5232692 -0.80145365 1.1209266 0.07585219
0.033783883 0.14624953 -0.18958938 -0.41249844 0.6646491 -0.51164174 -1.4570872 -0.8165498
0.7913293 -0.5532169 0.12199412 -0.2712627 0.8486505 0.24024443 -0.1245253 -0.9777653
0.13824932 0.90791136 -0.4979789 0.021708388 0.62626475 0.44629803 -2.1136832 -1.6968929
-1.1417315 0.9940583 0.59874004 0.11451769 -0.07342714 -1.081138 0.8368657 -0.017287636
-2.0679097 0.2691938 -0.25120518 -2.5278714 0.64475685 -0.9593684 0.4466595 0.28728637
0.799946 0.18192095 -1.5176256 -0.6293258 -2.3600495 -0.36770606 0.32291707 -5.6846194
3.2072475 1.5482836 0.42430133 -0.24438567 -0.16724719 0.029766103 -2.0260339 0.6914449
-0.8241751 0.20721444 0.4379298 0.7142628 -0.02625624 -0.30514964 -0.23970851 -0.91203094
-2.0766547 0.49906164 -0.77769774 0.24054319 0.09549413 -1.9296745 -0.4269611 1.0589142
-2.9020443 0.045411073 -1.2630534 -0.23067106 -1.0405259 -1.0648214 -1.8890816 -1.0274869
1.4886196 3.2873068 -0.31946227 -0.8532865 0.12597875 -1.6925335 0.5788362 -0.25302407
-0.8439834 -0.1281646 -1.1137413 -0.5616574 1.2802362 0.20303501 1.0892774 -1.9061829
0.036597844 0.15513785 -2.3458302 0.2943811 1.262644 0.021464812 -0.7879309 -0.46353075
1.3033401 1.6807266 -0.55346626 0.50721747 -8.256163 -0.14682885 0.16774744 -0.38229612
-1.3389939 0.78614986 -0.73541147 -0.23396425 0.46459386 -0.64308214 0.8943434 -1.7036339
0.30725548 0.11287699 0.7669008 0.16611226 0.34748515 0.6876382 2.7007759 2.1339407
00000000: 9be9 85bf b681 9d3f 0ce0 ee3f 61e3 afbe
00000010: f156 8a3d d671 e53e 293d 19bf b5bf 803e
00000020: d065 583e 4554 083e e924 813e f5ef c33e
00000030: 2edb 703e 0e22 973f 35cc 4b3f 9d58 9e3f
00000040: 180b a23b 5337 f03d de6f 94bf cbc5 1c3f
00000050: dc86 b23e c182 453e 3bc3 863f 254d f53d
00000060: 4e0f 603c b6ab 09bf b50c 33bf d091 913f
00000070: 7dc9 8c3e 6ca4 d2be e119 ed3d b195 5cbe
00000080: 638f 1b3e ff1c 2ebe f33d 76bd e61f 21bf
00000090: 65d0 aabf f53d a23f 9710 683f aed8 0e3e
000000a0: eff7 3f3f 8754 963f 938f 24c0 4477 b73f
000000b0: ecc8 8c3f a330 81bf f5ae 18bf 85d5 4f3f
000000c0: 694a 603e 3e34 453f 2897 793f 15b3 793f
000000d0: 53fc 883f e6a7 823e 7718 873e dd6f f73e
000000e0: b448 f8be da15 883f e312 d4bf fa95 1c40
000000f0: d683 6dbf d321 423f e9d2 f8be e8ff 8b3f
00000100: cdcd f5bb e5dc ca3e 8d95 45be b525 0e3f
00000110: 5ca7 893f 118c 9cbe 82f2 5fbf 7b31 a83f
00000120: 99df 573f d2ef a63d 9e20 d93e 443b a33e
00000130: 3f10 17bf 6d21 15bf 5c9c a93f fbf9 b43e
00000140: d34f 9dbe d654 aabd 9418 20bf 1d6f cabf
00000150: b885 2cbe 66e8 6abf 7686 d6be 2891 d5bf
00000160: cf5e 093d 0127 05c0 eef6 2b3f 76d8 cebe
00000170: 778a 1e40 dee6 b0be ecfc f73f a7c9 bc3f
00000180: 545d 1140 ec2e 4f3f 6241 a63f 2184 c23d
00000190: ea81 30be 1905 32bf c32f 013f a37f 2d3e
000001a0: f30b 5abf 0d7a 1ebf c6f3 f2be ae9e b2bf
000001b0: 6c8f 543f 67f8 473e a5a0 ff3f d265 94bd
000001c0: d875 ddbe 31b7 57be 650e c9bc 75df c83e
000001d0: d54d e3bf d5da 433d 292a 223f 9e36 c23d
000001e0: 9623 65bf 005e 29bf 22a2 493d 157d ce3f
000001f0: f8f4 05bf 112c 4dbf 867a 8f3f 6558 9b3d
00000200: f860 0a3d 70c2 153e b823 42be ff32 d3be
00000210: 7226 2a3f f4fa 02bf d581 babf 6809 51bf
00000220: 8f94 4a3f 9f9f 0dbf 0ed8 f93d f2e2 8abe
00000230: 2941 593f a302 763e 1f07 ffbd d44e 7abf
00000240: 3b91 0d3e e16c 683f 17f7 febe cad5 b13c
00000250: e352 203f 2d81 e43e 9646 07c0 c933 d9bf
00000260: 4224 92bf 9b7a 7e3f 0747 193f 4088 ea3d
00000270: f860 96bd bb62 8abf d53c 563f cd9e 8dbc
00000280: a258 04c0 c5d3 893e f79d 80be a5c8 21c0
00000290: c90e 253f 2b99 75bf 8eb0 e43e 3317 933e
000002a0: 43c9 4c3f 7c49 3a3e 8e41 c2bf 7f1b 21bf
000002b0: 0d0b 17c0 f843 bcbe 6355 a53e 67e8 b5c0
000002c0: 8b43 4d40 282e c63f 063e d93e 3d40 7abe
000002d0: d942 2bbe 0bd8 f33c 8aaa 01c0 8802 313f
000002e0: 24fd 52bf 0630 543e 5638 e03e edd9 363f
000002f0: 5417 d7bc 933c 9cbe 2676 75be dc7a 69bf
00000300: e9e7 04c0 0285 ff3e 3317 47bf f450 763e
00000310: 6d92 c33d 93ff f6bf a59a dabe 808a 873f
00000320: 18bb 39c0 f600 3a3d bcab a1bf 0935 6cbe
00000330: f42f 85bf 114c 88bf 6dcd f1bf b184 83bf
00000340: 168b be3f 3c63 5240 8f90 a3be fc70 5abf
00000350: 9300 013e f0a4 d8bf 9c2e 143f 5f8c 81be
00000360: 4c0f 58bf 953d 03be 138f 8ebf c8c8 0fbf
00000370: c8de a33f 69e8 4f3e 716d 8b3f cdfd f3bf
00000380: 9fe7 153d 75dc 1e3e 1522 16c0 1fb9 963e
00000390: 529e a13f f9d6 af3c d7b5 49bf e753 edbe
000003a0: d9d3 a63f 0d22 d73f f7af 0dbf 01d9 013f
000003b0: 3e19 04c1 4d5a 16be fcc5 2b3e 51bc c3be
000003c0: 2764 abbf 1e41 493f ed43 3cbf 5394 6fbe
000003d0: 3fdf ed3e 08a1 24bf b0f3 643f ad10 dabf
000003e0: 9750 9d3e 0d2c e73d 9c53 443f 5519 2a3e
000003f0: 93e9 b13e 0f09 303f 83d9 2c40 7c92 0840

fc1.bias f4 [4096]
-1.7476982 -1.0505121 -1.1079334 -0.5792433 -0.8699166 -0.6094856 0.08587218 -0.54117274
-0.93677014 -0.9231758 -0.16092952 0.3662487 -1.6876067 -1.4469433 -0.42879263 -0.9943599
-1.1258705 -0.30957362 -0.7889819 -1.0733368 0.120587274 -2.622446 -1.0690819 -1.1508886
-1.0193175 -0.63219535 0.29345283 -0.9667956 -1.7067854 -1.6919881 -0.6161804 -1.1439767
-0.63733643 -0.58312184 -0.79151654 -0.5447968 -0.84869236 -0.120345645 -1.2214996 -0.75764155
-0.15917797 -0.21597376 -1.8515145 -0.6805305 0.100173056 -0.3633036 -1.2168736 -1.025476
-1.9159857 -0.09946736 -1.2392243 -0.74912685 -1.6818593 -0.8780329 -1.1947817 -0.33549547
0.046824053 -1.2369441 -0.62187845 0.69145143 -1.2869703 -0.89223045 0.20141304 -0.6742399
-0.7326453 -0.46088022 -0.72436285 -1.5749673 -1.4205126 0.16499273 -1.053787 -0.3806653
0.23047565 -1.5688276 -1.1688173 -0.27799222 -0.8842638 0.5674692 -0.56035763 -1.128692
-0.1305258 -0.048182532 -1.0845169 -1.3793361 -1.3876208 -0.58716404 0.14118436 0.024399169
-0.51115036 -0.7689762 -1.1379367 -0.86700886 -0.6576156 -0.47992375 -1.2633039 -1.122058
0.17949077 -0.48375466 -0.29833674 -0.9721618 -0.64073384 -1.7475576 -0.8148409 -2.3495736
0.38595605 -0.3321219 0.16649078 -0.7915366 0.26773086 -0.85466295 -2.7067764 -0.4561779
-1.4114009 0.18737115 -1.3123579 -0.32605395 0.15281174 -0.61686134 0.03741924 -0.18929681
-0.5938489 -1.3863082 0.5560412 -0.868569 -1.4835083 -1.9360656 -1.1784896 -0.8960288
-0.8693221 0.21659443 -0.5202287 -1.0799718 -1.6655759 -1.0317363 -0.61212367 0.2477739
0.9803622 0.3983238 -0.8147688 0.21662712 -0.8701502 -1.3196442 -1.9238236 -0.51216173
-0.004332484 0.12296369 -1.5476139 -0.5335754 -0.70446223 -0.97303885 -1.6777065 -0.0906368
0.19110772 -1.0236839 -2.324825 -1.0915811 -0.8275967 -0.8863913 -1.0165024 -0.7021099
-0.55096 -1.3100231 0.8561495 0.07370321 -0.8580192 -0.5038133 -0.3037045 -1.0797875
-1.3384337 -0.41474617 -1.493108 0.18030559 -1.2925265 -1.1775231 -0.9490499 -0.5534235
-1.0691028 -1.0262223 -0.22755088 -1.9160496 -0.50592434 -1.9856936 -1.1778214 -1.762104
-0.46296594 0.20375292 -1.3968635 -0.7289806 -1.1418396 -1.0963094 -0.85816103 -1.2261385
-1.2524953 -0.47778338 -0.58826274 0.34623525 -0.04343505 0.43396807 -0.11787942 -0.22167374
0.52624077 -0.86490667 -0.5641029 -0.04139655 -0.15032563 -1.6986202 -1.1102071 -0.96538764
0.25670707 -0.17492071 -1.4537864 0.20891868 -0.17500922 -1.1984274 -0.06734838 0.17339179
-1.1785772 -1.0774107 -1.0351782 -1.1235799 -0.32933003 -1.4550722 -1.0172715 0.12026689
-0.8610319 -1.0327951 0.9059015 0.10728548 -1.0472779 -0.65980095 -0.61760813 -1.1846604
-0.34037063 -1.0686944 -0.3225341 -1.1087658 -0.6992774 0.71705043 -1.7043297 -0.74587154
0.22460906 -0.63255167 -1.0920409 0.41690248 -0.985109 -0.62088907 0.16942114 -1.1378913
-0.65551186 -0.4615487 -1.3922118 -0.6414002 -0.5973731 -0.9618934 -1.4328128 -0.9226209
00000000: 93b4 dfbf 2e77 86bf c3d0 8dbf 4a49 14bf
00000010: dbb2 5ebf 4007 1cbf c1dd af3d 4c8a 0abf
00000020: 2bd0 6fbf 4055 6cbf b5ca 24be f384 bb3e
00000030: 7f03 d8bf 7035 b9bf b58a dbbe 5f8e 7ebf
00000040: 861c 90bf 6f80 9ebe b8fa 49bf 1a63 89bf
00000050: 76f6 f63d 28d6 27c0 add7 88bf 5150 93bf
00000060: ff78 82bf 8ed7 21bf 733f 963e eb7f 77bf
00000070: f277 dabf 1193 d8bf 00be 1dbf d46d 92bf
00000080: 7b28 23bf 7947 15bf d4a0 4abf ce77 0bbf
00000090: e743 59bf c777 f6bd 195a 9cbf ccf4 41bf
000000a0: 8dff 22be 3a28 5dbe 6dfe ecbf 3f37 2ebf
000000b0: 8827 cd3d ee02 babe 84c2 9bbf cc42 83bf
000000c0: 053f f5bf 8bb5 cbbd e79e 9ebf c7c6 3fbf
000000d0: 2a47 d7bf c4c6 60bf 9bee 98bf 10c6 abbe
000000e0: 94ca 3f3d 2f54 9ebf 6d33 1fbf f602 313f
000000f0: 71bb a4bf 3769 64bf 383f 4e3e fc9a 2cbf
00000100: a48e 3bbf 7ef8 ebbe d86f 39bf 8798 c9bf
00000110: 5bd3 b5bf dbf3 283e 7ee2 86bf 90e6 c2be
00000120: cf01 6c3e 58cf c8bf ce9b 95bf ff54 8ebe
00000130: 1d5f 62bf a945 113f 9973 0fbf fb78 90bf
00000140: 8ea8 05be 0c5b 45bd 73d1 8abf 168e b0bf
00000150: 8f9d b1bf 6250 16bf a292 103e c4e0 c73c
00000160: c0da 02bf a0db 44bf e9a7 91bf 4bf4 5dbf
00000170: 7f59 28bf 91b8 f5be f1b3 a1bf 999f 8fbf
00000180: 6ecc 373e b1ae f7be 98bf 98be 99df 78bf
00000190: 2207 24bf f8af dfbf 6a99 50bf 6a5f 16c0
000001a0: 089c c53e e20b aabe 8f7c 2a3e 25a2 4abf
000001b0: 0514 893e 31cb 5abf d33b 2dc0 2690 e9be
000001c0: c9a8 b4bf 39de 3f3e 58fb a7bf 8bf0 a6be
000001d0: ae7a 1c3e a0ea 1dbf eb44 193d 06d7 41be
000001e0: 7b06 18bf 8c72 b1bf b758 0e3f 8a5a 5ebf
000001f0: 9ae3 bdbf ffd0 f7bf bfd8 96bf 2562 65bf
00000200: e58b 5ebf eeca 5d3e b52d 05bf 843c 8abf
00000210: 9731 d5bf ef0f 84bf 23b4 1cbf 71b8 7d3e
00000220: 04f9 7a3f 19f1 cb3e b094 50bf 80d3 5d3e
00000230: 2ac2 5ebf 1aea a8bf da3f f6bf 081d 03bf
00000240: 83f7 8dbb 63d4 fb3d 3618 c6bf 6698 08bf
00000250: a357 34bf 1319 79bf 16bf d6bf c99f b9bd
00000260: beb1 433e 1308 83bf efc9 14c0 eeb8 8bbf
00000270: 61dd 53bf 8aea 62bf c01c 82bf 79bd 33bf
00000280: b70b 0dbf d6ae a7bf 9d2c 5b3f b5f1 963d
00000290: 25a7 5bbf e9f9 00bf 287f 9bbe 7a36 8abf
000002a0: cc51 abbf 9c59 d4be 2a1e bfbf 07a2 383e
000002b0: 8271 a5bf 14b9 96bf eff4 72bf 2aad 0dbf
000002c0: 5cd8 88bf 415b 83bf 1903 69be 1d41 f5bf
000002d0: 4284 01bf 352b febf dac2 96bf a08c e1bf
000002e0: df09 edbe 9ba4 503e 6ccc b2bf 799e 3abf
000002f0: cd27 92bf de53 8cbf 71b0 5bbf 1bf2 9cbf
00000300: c451 a0bf 06a0 f4be 6398 16bf bf45 b13e
00000310: f3e8 31bd 1031 de3e c46a f1bd 71fe 62be
00000320: b7b7 063f 866a 5dbf 0c69 10bf 6e8f 29bd
00000330: f6ee 19be 636c d9bf 441b 8ebf a523 77bf
00000340: 1c6f 833e 6a1e 33be ac15 babf c7ee 553e
00000350: 9e35 33be 1266 99bf f3ed 89bd 9e8d 313e
00000360: 9edb 96bf 98e8 89bf b880 84bf 77d1 8fbf
00000370: f29d a8be ce3f babf f435 82bf 7d4e f63d
00000380: 966c 5cbf a132 84bf 29e9 673f 7db8 db3d
00000390: 340d 86bf b7e8 28bf 911b 1ebf f4a2 97bf
000003a0: 0f45 aebe faca 88bf 3123 a5be 0aec 8dbf
000003b0: d803 33bf 9e90 373f 7a27 dabf 70f1 3ebf
000003c0: ebff 653e e8ee 21bf ffc7 8bbf 3e74 d53e
000003d0: 1a30 7cbf 96f2 1ebf bc7c 2d3e 6ca6 91bf
000003e0: a0cf 27bf 1c50 ecbe ff33 b2bf ce32 24bf
000003f0: 72ed 18bf a53e 76bf 6966 b7bf e230 6cbf

fc2.weight f4 [1, 4096]
0.043074824 0.0006837748 -0.006298795 0.006490446 -0.035616927 0.03402045 0.0015446586 0.020317186
-0.012478404 -0.022768442 -0.01661124 0.028568706 -0.037684277 -0.015575451 0.046827324 0.002186242
-0.018706897 -0.0033752744 -0.04505715 0.0050166254 0.018101506 0.024914015 0.035141688 -0.007063844
-0.0071612955 0.014094457 0.0011638178 -0.020749057 0.029242758 0.0016461202 0.013539286 0.016463699
0.018249322 0.018729992 -0.0049977377 0.020717999 -0.008259357 0.015233984 0.007941585 -0.01812687
-0.040874906 -0.0015921138 0.01752645 0.0042070583 -0.0018408338 -0.017676014 -0.0006864171 0.03200605
0.031535454 0.024014965 -0.011486641 0.028868586 -0.016990442 -0.020481357 -0.0029243992 0.0073700626
0.013123891 -0.027092336 -0.011211391 0.0066084214 9.585043e-05 -0.0051424503 0.018399574 0.020423457
0.0040952405 -0.012098179 -0.011365242 -0.027306864 0.015642142 0.024106937 0.008545503 -0.03444815
-0.004522339 0.0024219295 0.039002206 -0.0152793005 -0.052965395 0.014701388 -0.03603337 -0.026226766
0.034105875 -0.020031126 0.019393401 0.018730015 0.010783222 -0.026544455 0.019547297 0.05772268
0.013917246 0.0024756205 -0.0020010534 -0.0030617386 0.03593573 -0.0016238724 0.027592378 -0.0031034944
0.016568022 0.053369295 -0.005809255 -0.009155275 -0.0012062133 0.010352949 -0.010648686 0.013260624
-0.030194458 -0.013820072 0.0027260254 0.024025137 0.0006915021 0.043851294 0.026716502 -0.0053498284
0.02439225 -0.029463278 0.001464585 0.0027335882 0.0061384146 0.022705846 0.04706472 0.04040484
0.0014433322 -0.021196824 0.017436253 -0.010044504 -0.03187131 -0.022971032 -0.019136488 0.01909881
0.013712318 -0.013204096 0.007670347 0.009630941 0.011711874 -0.016657734 -0.010192874 -0.010381791
-0.008655449 0.033574607 -0.0061435536 0.0034894259 0.0068775006 -0.007340795 -0.0011639895 -0.00038616246
0.040009532 -0.013523259 -0.00042882076 -0.0061764317 0.025953468 0.0438021 0.00017333943 -0.021276161
0.035021678 0.0038920464 0.04342669 -0.029742796 -0.018567093 0.0024728714 -0.0021501626 -0.043242604
-0.005353403 0.0018972799 0.029201685 0.014295144 -0.010112703 -0.0048144516 0.027442522 -0.039733443
0.02036225 -0.0032710277 0.0053403676 -0.013447793 0.0012766493 0.0132554835 0.0058693853 0.034043472
-0.013423634 -0.009357245 0.029435351 0.025983833 -0.024391135 -0.012566507 0.024575816 -0.033806328
-0.040222425 0.031530973 -0.0022762353 0.04239947 -0.013800057 0.013386108 -0.027237965 0.012575715
0.014212489 -0.02203222 -0.006812102 0.0060848454 0.0028177716 0.011894367 -0.020069076 0.010130025
-0.03880142 -0.025064493 -0.03135215 0.01182369 -0.030171564 0.04461542 0.000676697 -0.011736659
0.04159758 0.0083928965 -0.019690108 0.019238828 -0.01981449 0.00022498156 -0.0033327905 -0.043392304
0.0027988774 0.030296056 -0.013253118 0.03683725 -0.01611711 -0.004073579 0.01260366 0.013521735
-0.04450856 0.029859714 -0.009744357 0.052011807 -0.013304072 -0.0034300843 0.009060747 -0.02688286
-0.005483435 -0.012399376 -0.00948465 0.0036689483 0.014008148 0.033566937 -0.01990317 -0.011294677
0.031220254 0.0068715736 0.0004174086 -0.021187786 0.0007401701 0.03194609 -0.010933178 0.0043897233
0.002137473 0.03510194 0.0040782522 0.001630611 -0.03209191 0.030804269 -0.034913383 -0.0035801334
00000000: 3a6f 303d 5a3f 333a 1f66 cebb cfad d43b
00000010: 0ee3 11bd 0759 0b3d 2476 ca3a 3a70 a63c
00000020: 3872 4cbc e284 babc 4c14 88bc eb08 ea3c
00000030: d45a 1abd 2d30 7fbc 02ce 3f3d 0e47 0f3b
00000040: 353f 99bc b533 5dbb d98d 38bd 8162 a43b
00000050: 9c49 943c 7a18 cc3c bbf0 0f3d d177 e7bb
00000060: 4da9 eabb 70ec 663c 3f8b 983a edf9 a9bc
00000070: 828e ef3c a1c2 d73a e2d3 5d3c e1de 863c
00000080: 9a7f 953c a46f 993c 10c4 a3bb cbb8 a93c
00000090: 4152 07bc f697 793c 6c1d 023c cd7e 94bc
000000a0: 726c 27bd 79ae d0ba a193 8f3c 5ddb 893b
000000b0: 2248 f1ba 4acd 90bc acf0 33ba c718 033d
000000c0: 522b 013d 08bb c43c 7732 3cbc d07d ec3c
000000d0: 8a2f 8bbc 85c8 a7bc 47a7 3fbb 9180 f13b
000000e0: 9705 573c bff0 ddbc fbaf 37bc 758b d83b
000000f0: 4f03 c938 0082 a8bb b4ba 963c 184f a73c
00000100: 5e31 863b 7137 46bc 4835 3abc a5b2 dfbc
00000110: f323 803c e97b c53c 7002 0c3c 8119 0dbd
00000120: 2130 94bb 3cb9 1e3b c7c0 1f3d 0856 7abc
00000130: 3ef2 58bd 17de 703c ba97 13bd 84d9 d6bc
00000140: 9ab2 0b3d 5118 a4bc e9de 9e3c b06f 993c
00000150: 1cac 303c c273 d9bc a721 a03c 9e6e 6c3d
00000160: 2905 643c 053e 223b 1b24 03bb 73a7 48bb
00000170: 5831 133d 1ed8 d4ba 6909 e23c ff63 4bbb
00000180: a9b9 873c c399 5a3d 905b bebb 0200 16bc
00000190: cd19 9eba 6a9f 293c d477 2ebc 1743 593c
000001a0: 5e5a f7bc 956d 62bc 1ea7 323b 5dd0 c43c
000001b0: ec45 353a 6a9d 333d 91dc da3c 9d4d afbb
000001c0: 42d2 c73c f95c f1bc 51f7 bf3a 0026 333b
000001d0: c124 c93b 9c01 ba3c f0c6 403d 8c7f 253d
000001e0: 312e bd3a f6a4 adbc 79d6 8e3c b491 24bc
000001f0: 7e8b 02bd bf2d bcbc 20c4 9cbc 1c75 9c3c
00000200: a1a9 603c fe55 58bc 8957 fb3b 18cb 1d3c
00000210: 29e3 3f3c cd75 88bc 0300 27bc 6318 2abc
00000220: 96cf 0dbc 8785 093d dd4f c9bb daae 643b
00000230: a85c e13b 0d8b f0bb 0291 98ba d975 cab9
00000240: 09e1 233d a990 5dbc 59d3 e0b9 aa63 cabb
00000250: 5e9c d43c d569 333d 73c2 3539 584b aebc
00000260: e472 0f3d b411 7f3b 2fe0 313d 2aa7 f3bc
00000270: 041a 98bc e60f 223b bee9 0cbb 281f 31bd
00000280: 996b afbb 26ae f83a 5f38 ef3c 2e36 6a3c
00000290: c0af 25bc 8cc2 9dbb 24cf e03c 89bf 22bd
000002a0: bcce a63c bd5e 56bb 40fe ae3b 2254 5cbc
000002b0: 3e55 a73a 872d 593c f953 c03b 2b71 0b3d
000002c0: cdee 5bbc 214f 19bc 6822 f13c 0cdc d43c
000002d0: ebcf c7bc c0e3 4dbc 3953 c93c 8178 0abd
000002e0: 45c0 24bd 9f26 013d e42c 15bb 11ab 2d3d
000002f0: a219 62bc 6851 5b3c 2722 dfbc 5f0a 4e3c
00000300: 80db 683c ea7c b4bc 0e38 dfbb 6263 c73b
00000310: 5daa 383b 97e0 423c e767 a4bc 68f8 253c
00000320: 3dee 1ebd 0d54 cdbc 1d6b 00bd 26b8 413c
00000330: 5b2a f7bc a9be 363d 5e64 313a 1e4b 40bc
00000340: 3962 2a3d 5c82 093c 264d a1bc bf9a 9d3c
00000350: ff51 a2bc 07e9 6b39 f26a 5abb 21bc 31bd
00000360: 5f6d 373b 6f2f f83c 9b23 59bc a8e2 163d
00000370: 0808 84bc a87b 85bb 957f 4e3c 448a 5d3c
00000380: 9c4e 36bd 5c9c f43c cca6 1fbc 550a 553d
00000390: 53f9 59bc 44cb 60bb 8773 143c 7239 dcbc
000003a0: 63ae b3bb c126 4bbc 8165 1bbc bd72 703b
000003b0: 6e82 653c 7c7d 093d f90b a3bc 4f0d 39bc
000003c0: 9ec1 ff3c f02a e13b a2d7 da39 0292 adbc
000003d0: f907 423a e7d9 023d 1221 33bc abd7 8f3b
000003e0: d914 0c3b 0dc7 0f3d dca2 853b 3aba d53a
000003f0: ce72 03bd 3c59 fc3c 5601 0fbd aca0 6abb
