checkpoint/perturb/infty/modified_NGD/mlp_epoch497_seed4.pt (torch, 67297 bytes, 3 tensors)

fc1.weight f4 [4096, 2]
0	0xbf7100a8	-0.94141626
1	0x3fa1b20a	1.2632458
2	0xbe3c2dfd	-0.18376918
3	0x3e1a1c82	0.15049937
4	0x3ddc2e83	0.10751059
5	0xbe8e58dd	-0.27802172
6	0xc026895f	-2.6021345
7	0x3f1fdc7b	0.624458
8	0xbf5e4d16	-0.86836374
9	0xbe51fa08	-0.20505536
10	0x3ecb5335	0.3971192
11	0x3f2c7716	0.6736921
12	0xbd5bfcf2	-0.053708024
13	0x3d3f45df	0.046697494
14	0xbfe230c6	-1.7671134
15	0xc007b5a6	-2.120462
16	0x3fc6b7f0	1.5524883
17	0xbf2bc17b	-0.670921
18	0x3b499594	0.0030759322
19	0xbe1d3bac	-0.15354794
20	0x3f9247c9	1.1428157
21	0xbe7a504f	-0.24444698
22	0x3f969b29	1.1766101
23	0x3f4a42dc	0.7900827
24	0xbf42426c	-0.758826
25	0xbe3dcb28	-0.18534529
26	0xbf5b1594	-0.855798
27	0xbe7044c0	-0.23463726
28	0xbed7d2de	-0.42153066
29	0x3f594d56	0.8488363
30	0xbf2d74ae	-0.67756164
31	0xbf71ccb7	-0.94452995
32	0xbef68c3a	-0.4815386
33	0x3f9f2947	1.2434472
34	0x401d0427	2.4533784
35	0x3ea5b11c	0.32361686
36	0x3d916559	0.07099409
37	0x4001c039	2.0273573
38	0x3e8b145b	0.27163967
39	0xbe0bd270	-0.13654494
40	0xbf31dd89	-0.6947866
41	0xbfa8c766	-1.3185852
42	0xbf7829a0	-0.96938515
43	0x3f23e7cb	0.64025563
44	0x3f647732	0.8924438
45	0xbf63891d	-0.88881093
46	0xc00932ea	-2.1437325
47	0x3fb41e6c	1.4071784
48	0x3e7bb537	0.24580847
49	0x404f1182	3.2354436
50	0xbf18754d	-0.59553987
51	0x3f7cb5bd	0.9871481
52	0x3f87ff58	1.06248
53	0x3cccdebc	0.025008552
54	0xbec5d682	-0.3864022
55	0x3efe039d	0.49612132
56	0xbf6528af	-0.89515203
57	0xbf81d5fa	-1.0143425
58	0xbe78b15b	-0.24286406
59	0xbfc94f07	-1.5727242
60	0x3fe126fb	1.7590021
61	0xbf1975e1	-0.59945494
62	0x3b9de1f1	0.004818194
63	0xbfa88253	-1.3164772
64	0x3ca72153	0.020401632
65	0xbe2927f7	-0.16519152
66	0x3e54c684	0.20778853
67	0x3f04c19a	0.5185791
68	0x3e78d1be	0.2429876
69	0xbeb458f2	-0.3522411
70	0xbf442fc6	-0.76635396
71	0x3e983ac8	0.29732347
72	0x4017cc6f	2.3718526
73	0x3fc34751	1.5256139
74	0x400b7291	2.1788676
75	0xbec731e2	-0.38905245
76	0xbf949e8a	-1.1610882
77	0xbf9e774e	-1.2380159
78	0x403632de	2.8468547
79	0x3eae8eaa	0.3409322
80	0xbf163b2a	-0.5868403
81	0x4048890d	3.133365
82	0xbf742329	-0.9536615
83	0xbc88df7a	-0.016708124
84	0x3e815063	0.25256643
85	0x3f2d1c39	0.6762119
86	0x3fe4a095	1.7861506
87	0xbebfa6ef	-0.37432048
88	0xbf42b604	-0.76058984
89	0xbf2f2c90	-0.6842737
90	0xbfa4a5af	-1.2863063
91	0xbee6482f	-0.44976947
92	0xbf896bb4	-1.0735993
93	0xbf80c34a	-1.0059597
94	0xbfcfe8f7	-1.624297
95	0x3f3eeb97	0.7457823
96	0x3d15d2f9	0.036578152
97	0xbfb16f3c	-1.3862071
98	0x404a4af8	3.1608257
99	0xbc0121b3	-0.00788157
100	0xbf31a6ad	-0.6939495
101	0xbfd72668	-1.6808596
102	0xbf12e5de	-0.57382
103	0xbf8c1e0f	-1.0946673
104	0x3e25a9a4	0.16177994
105	0xbf667215	-0.90017825
106	0xbfe924a7	-1.821431
107	0x3d6c7d37	0.0577366
108	0x3ea790fb	0.327278
109	0x3fdab13a	1.7085335
110	0xc00181c7	-2.023546
111	0xbd9540c0	-0.07287741
112	0xbec89b0f	-0.391808
113	0x3e01f8fc	0.12692636
114	0xbf5480ee	-0.8300923
115	0xbfd2f37c	-1.6480556
116	0xbde98b66	-0.11403541
117	0xbf1c3cf9	-0.61030537
118	0xbfc117fe	-1.5085447
119	0x3de2f4f9	0.11081881
120	0xc0031904	-2.0484018
121	0x3f8b38b0	1.0876675
122	0xbf71d154	-0.94460034
123	0xbf4b583f	-0.7943153
124	0xbf99fa4b	-1.2029508
125	0x3f2bfb10	0.67179966
126	0x3e9fd28b	0.3121532
127	0xbfcec354	-1.615336
128	0x3f5d1345	0.8635753
129	0xbfc3d840	-1.5300369
130	0x3f099a58	0.53751135
131	0xbfd04d74	-1.6273637
132	0xbf9033db	-1.1265825
133	0xbf0677ee	-0.5252675
134	0x3fbbec3e	1.468147
135	0xbf6efa6b	-0.9335086
136	0xbf201681	-0.6253434
137	0x3f38c8b2	0.72181237
138	0xbfc09a48	-1.5047083
139	0x3f835edb	1.0263323
140	0xbea35b1d	-0.3190545
141	0xbf5a5d69	-0.8529878
142	0x3e92f97a	0.2870596
143	0xbf25227e	-0.64505756
144	0xbe9b136a	-0.3028825
145	0xc00aea77	-2.1705606
146	0xbf108b84	-0.56462884
147	0xbe8d9333	-0.27651367
148	0x3f9b4897	1.2131528
149	0x3f9168ee	1.1360147
150	0xbf3e07a5	-0.74230415
151	0xbfc0b629	-1.5055591
152	0x3f3feed7	0.74973816
153	0xbe430415	-0.19044526
154	0xbf85e33f	-1.0459975
155	0x3f870d67	1.0550965
156	0xbdef51af	-0.11685502
157	0xbf9420e1	-1.1572534
158	0xbe625404	-0.22102362
159	0xbea92fd9	-0.33044317
160	0xbf10862e	-0.5645474
161	0x3f54cb31	0.83122545
162	0x402b9143	2.680741
163	0xc0c3cb09	-6.1185346
164	0x3e9e82a8	0.30959058
165	0xbf309442	-0.68976223
166	0xbfaa5866	-1.3308227
167	0xc0088eb7	-2.1337106
168	0x3f63209e	0.88721645
169	0x3d1f64b2	0.03891439
170	0xbd0af3fb	-0.033924084
171	0xbfaab470	-1.3336315
172	0x3fc07158	1.503459
173	0x3f5e87ac	0.8692577
174	0xc1708bae	-15.0341015
175	0xc1728b3b	-15.158992
176	0xbf236b93	-0.6383602
177	0xbf84ee16	-1.0385158
178	0xbef50bb8	-0.47860503
179	0xc00611bb	-2.0948322
180	0xbf419f27	-0.7563347
181	0x3eff4cd7	0.49863312
182	0xc0caf415	-6.342295
183	0xc0a1d474	-5.057184
184	0x3f9eda51	1.2410375
185	0x3f19a237	0.60013145
186	0xc1e9c200	-29.219727
187	0xc18f2ce0	-17.896912
188	0xbfb848ab	-1.4397177
189	0x3f7b6fc5	0.9821742
190	0x3e7eebbf	0.24894617
191	0xbf41a3d4	-0.75640607
192	0xc1c93f91	-25.156038
193	0xc0f895e7	-7.7682986
194	0xbf875ae8	-1.0574617
195	0x3f0d4e52	0.5519763
196	0xbe1e4f0c	-0.15459841
197	0xbfb12479	-1.3839256
198	0xc0a67c47	-5.2026706
199	0x413381af	11.219161
200	0xc03c6410	-2.9436073
201	0x3e0691c8	0.13141549
202	0xbf32c3c9	-0.69829994
203	0xbfcdbe65	-1.6073729
204	0xc1b7a3d8	-22.955002
205	0xc143419f	-12.203521
206	0x40c70de3	6.220445
207	0x4074596b	3.8179576
208	0xbd92ba5c	-0.071644515
209	0xbf86541f	-1.0494422
210	0xbfb0344c	-1.376596
211	0x3f8ba79f	1.0910529
212	0x3f4a958c	0.7913444
213	0xbfe55657	-1.7916974
214	0xc151d700	-13.11499
215	0xc0f76d2d	-7.732077
216	0xbfdf259b	-1.7433351
217	0x3fa52957	1.2903241
218	0x3eac3c94	0.33639967
219	0xbe480f16	-0.19537005
220	0xbe8a9933	-0.27070007
221	0x3d520990	0.05127865
222	0x40233f57	2.550741
223	0x4072d51e	3.7942576
224	0xbf8b7fb0	-1.0898342
225	0x3f0c245e	0.5474299
226	0xbfa1d5e0	-1.2643394
227	0xbea5d741	-0.32390788
228	0x409c7b60	4.8900604
229	0xc11b11c9	-9.691842
230	0xc1383193	-11.512103
231	0xc095b7d4	-4.67869
232	0xbf6248fc	-0.88392615
233	0xbefd5c43	-0.49484453
234	0xbf89a03e	-1.0752027
235	0xbccef885	-0.025264988
236	0xbe7005a6	-0.23439655
237	0x3f49686d	0.78674966
238	0x3f6a077e	0.9141768
239	0xbc4605ae	-0.012086315
240	0x3ea64e71	0.3248172
241	0xbfa78328	-1.3086901
242	0xbfa42d07	-1.2826241
243	0xc00e8452	-2.2268262
244	0x3fd1a0a2	1.6377146
245	0xbfbe704b	-1.4878019
246	0x3f1057b5	0.5638383
247	0x3f78b506	0.9715122
248	0x3f0186ad	0.50596124
249	0xbf79919d	-0.97487813
250	0x3f62c372	0.88579476
251	0xbee8b8b4	-0.45453417
252	0x3f58872e	0.8458127
253	0x3f9f69af	1.2454127
254	0x3ea43b2e	0.320764
255	0x3efee75d	0.4978589

fc1.bias f4 [4096]
0	0xbf0541ba	-0.52053416
1	0xc0093b71	-2.144253
2	0xbf4decf3	-0.8043968
3	0xc0215759	-2.5209563
4	0xbfa3177f	-1.2741545
5	0xbd1765b0	-0.03696221
6	0xbfb5dfe2	-1.4208949
7	0x3def74cf	0.11692201
8	0xbf9bf933	-1.2185425
9	0xbfe9e645	-1.8273398
10	0xbeb21ed3	-0.34789142
11	0x3e47ae0c	0.19499987
12	0xbeec94ac	-0.46207178
13	0xbf618670	-0.8809576
14	0xbff77104	-1.9331365
15	0xbe76c8c9	-0.24100031
16	0xbf9f4c08	-1.2445078
17	0xbf23059e	-0.63680446
18	0xbf953d79	-1.1659385
19	0xbf7f4361	-0.9971219
20	0xbf2eeb06	-0.6832737
21	0xbec8134c	-0.39077222
22	0x3dc002fa	0.09375568
23	0xbfad2c58	-1.3529158
24	0xbfe1e1ea	-1.7647069
25	0xbf864926	-1.0491073
26	0xbf5a437a	-0.8525921
27	0xbe528ad9	-0.20560779
28	0xbfd18e5b	-1.6371568
29	0x3dbb1e27	0.091366105
30	0xbeb01c43	-0.34396562
31	0xbff7e382	-1.9366305
32	0xbf2cfb86	-0.67571294
33	0x3f31eb51	0.6949969
34	0xbef330aa	-0.47498065
35	0xbe102466	-0.14076385
36	0xbee0c4ff	-0.43900296
37	0x3fb319a5	1.3992201
38	0x3e590f80	0.21197319
39	0xbf287e4c	-0.65817714
40	0xbf5f2e46	-0.8717998
41	0xbe0019c1	-0.12509824
42	0xbfdeac3c	-1.7396312
43	0xbea9dc4e	-0.33175892
44	0xbf523f34	-0.8212769
45	0xbe91a522	-0.284463
46	0xbfd532d6	-1.6656139
47	0xbc92bbc9	-0.017911809
48	0xbf35f295	-0.71073276
49	0xbf54741e	-0.8298968
50	0xbf52e2c0	-0.82377243
51	0xbf328e7b	-0.6974866
52	0xbfae46df	-1.3615378
53	0x3e8deb38	0.2771852
54	0xbf8aada2	-1.0834239
55	0x3e7c13ab	0.24616878
56	0xbfd17877	-1.6364888
57	0xbe6c62e8	-0.23084605
58	0xbe04ea45	-0.12979992
59	0xbf169439	-0.5881992
60	0xbef05532	-0.4694
61	0xbe446233	-0.19178085
62	0xbd9481dc	-0.07251331
63	0xbf88c578	-1.0685263
64	0xbfca6112	-1.5810874
65	0xbf26c56e	-0.65145004
66	0xbe8b4791	-0.27203038
67	0xbfd77ad6	-1.6834362
68	0xbea3c19b	-0.31983647
69	0xbe967019	-0.293824
70	0xbf2d400a	-0.6767584
71	0xbf1563f8	-0.58355665
72	0xbf66eddc	-0.90206695
73	0xbe0f5266	-0.13996276
74	0xbffa900c	-1.957521
75	0xbf0f3d13	-0.55952567
76	0xbfb097d5	-1.3796335
77	0xbf6748cd	-0.9034546
78	0xbf1543ad	-0.5830639
79	0xbf8b7bd6	-1.0897167
80	0xbf80ee35	-1.0072695
81	0xbd320dda	-0.04347024
82	0xbf803c8e	-1.001848
83	0x3eebcb38	0.4605348
84	0xbfb856ce	-1.4401491
85	0xbf82fe5a	-1.0233872
86	0x3d7740cf	0.06036454
87	0xbf2c0f25	-0.6721061
88	0xbf179507	-0.5921177
89	0xbfceb28c	-1.6148238
90	0xbf4b595e	-0.7943324
91	0x3f17e337	0.5933108
92	0xbfb17d8f	-1.3866442
93	0xbe86ced8	-0.26329684
94	0xbf953c5e	-1.1659048
95	0xbf9ead5c	-1.2396655
96	0xbf265a81	-0.6498185
97	0xbe7ba25b	-0.24573652
98	0xbfb3ee7f	-1.4057158
99	0xbf9c40af	-1.220724
100	0xbf9c026a	-1.2188237
101	0x3ee452ce	0.44594425
102	0xbf784bc0	-0.96990585
103	0x3ef6f0af	0.48230502
104	0xbfe18830	-1.7619686
105	0xbf6124bb	-0.8794667
106	0xbff46e64	-1.9096189
107	0xbf0965a6	-0.5367073
108	0xbf43f12e	-0.76539886
109	0xbf04cab6	-0.5187181
110	0xbff14875	-1.8850237
111	0xbf02d5cc	-0.5110748
112	0xbe596b61	-0.21232368
113	0xbeb35b29	-0.35030487
114	0x3d21f936	0.039544307
115	0xbed928bb	-0.42413887
116	0xbe560a20	-0.209023
117	0x3dc506c4	0.09620431
118	0xbd55ca39	-0.052194808
119	0xbf9509e0	-1.1643639
120	0xbfa9dc27	-1.327031
121	0x3eb97a5e	0.3622617
122	0xbf687a90	-0.90812016
123	0xbf0bc00e	-0.5458993
124	0xbfc99a6b	-1.575025
125	0xbf6fc452	-0.93658936
126	0xbfc124d4	-1.5089364
127	0xbf9e5cd0	-1.2372074
128	0xbee0da67	-0.43916628
129	0xbf55bcac	-0.83491015
130	0xbf0001b5	-0.50002605
131	0xbf2cc8f0	-0.67494106
132	0xbf970bc0	-1.1800461
133	0xbf7b4fbb	-0.98168534
134	0xbfd9c4b8	-1.7013159
135	0xbfde7118	-1.7378263
136	0xc00fa322	-2.2443318
137	0xbe18a30a	-0.14905944
138	0xbfd2ddda	-1.6473954
139	0x3f4c311f	0.7976245
140	0x3e9dd3f4	0.3082577
141	0xbd47f74a	-0.048819818
142	0x3d1d55f3	0.038412046
143	0xbf83f50d	-1.0309159
144	0xbda41b17	-0.080129795
145	0xbe426f25	-0.18987711
146	0x3ef31eb8	0.47484374
147	0xbfa0be31	-1.2558042
148	0xbfcb7425	-1.589482
149	0xbf73c03c	-0.952152
150	0xbead7fd0	-0.33886576
151	0xbfaea367	-1.3643616
152	0xbf590689	-0.84775597
153	0xbf533027	-0.8249535
154	0x3fac7d12	1.3475668
155	0x3ec0d57d	0.3766288
156	0xbf35eb14	-0.71061826
157	0x3f62f867	0.8866028
158	0xbd113ca2	-0.035458215
159	0xbe998859	-0.29986838
160	0xbf08b4a7	-0.53400654
161	0xbf1857c7	-0.5950894
162	0xc001466d	-2.0199234
163	0xbf988c07	-1.1917733
164	0xbf630402	-0.8867799
165	0xbf28adaa	-0.6588999
166	0x3e8194c2	0.25308806
167	0xbf6b328f	-0.9187402
168	0xbedc2cb7	-0.43002865
169	0x3f51eece	0.8200501
170	0xbed8f2a2	-0.42372614
171	0x3e58f688	0.21187794
172	0xbe716960	-0.23575354
173	0xbe91d77a	-0.28484708
174	0xbf77b2b1	-0.96757036
175	0xbfdcaea7	-1.72408
176	0xbf5e0b1c	-0.867357
177	0xbf8e7d91	-1.113207
178	0xbe8fee5b	-0.28111538
179	0xbf50a701	-0.8150483
180	0xbfba562d	-1.4557549
181	0xbe530322	-0.20606664
182	0xbfa547c4	-1.2912526
183	0x3da01b94	0.0781776
184	0xc00bb793	-2.1830795
185	0xbf87cc2c	-1.0609183
186	0xbf595e85	-0.8490985
187	0xbf7d489f	-0.98938936
188	0x3f1a77ff	0.6033935
189	0xbf972829	-1.1809131
190	0xbfcfc0d7	-1.6230725
191	0xbf59d005	-0.8508304
192	0xbf9bd267	-1.2173585
193	0xbfff5b11	-1.9949666
194	0xbfb4b72e	-1.4118402
195	0xbedce59a	-0.43143922
196	0xbf751468	-0.9573426
197	0x3e15eab3	0.14640312
198	0x3e35391b	0.17697565
199	0xbf2c360b	-0.67269963
200	0xbec21364	-0.3790542
201	0xbe564ed0	-0.20928502
202	0xbf5a4bb7	-0.8527178
203	0xbf835179	-1.0259238
204	0xbfb26b79	-1.3939048
205	0xbfe43f43	-1.7831806
206	0xbf84837f	-1.035263
207	0xbf94107a	-1.1567528
208	0xbf25802a	-0.6464869
209	0xbfe783c6	-1.8087089
210	0xc03385a7	-2.8050325
211	0xbef380de	-0.47559255
212	0xbfc6b1ec	-1.5523047
213	0xbf79911a	-0.9748703
214	0xbf2ab913	-0.6668865
215	0xbfb68935	-1.4260622
216	0xbfcaeff9	-1.5854484
217	0xbfd66770	-1.6750317
218	0xbf9be5b2	-1.2179472
219	0xbf47c3b0	-0.7803297
220	0xbfd4d2ab	-1.6626791
221	0xbe708197	-0.23486935
222	0x3ef91576	0.48649186
223	0xbf0c60f8	-0.5483546
224	0x3b8eaea9	0.004354317
225	0xbf4271e3	-0.7595503
226	0xbfab0071	-1.335951
227	0xbf036bbb	-0.5133626
228	0xbecbc78e	-0.39800686
229	0xbfc09ad5	-1.5047251
230	0xbfa09a0b	-1.254701
231	0xbe84f291	-0.25966313
232	0xbccd645d	-0.025072271
233	0xbf9b589b	-1.2136415
234	0xc00b63a3	-2.1779563
235	0xc00ca9a4	-2.197854
236	0xbed7c153	-0.42139682
237	0xbf833b98	-1.0252562
238	0xbe58bb41	-0.21165182
239	0xbf64c353	-0.8936054
240	0xbf5ba92e	-0.8580502
241	0xbfa7baf8	-1.3103933
242	0xbfc1ed7a	-1.5150597
243	0x3f14f85a	0.58191454
244	0x3ef953e6	0.48696822
245	0x3f92fe57	1.1483868
246	0xbf8dd8c9	-1.1081783
247	0x3d5285d5	0.051397163
248	0x3dd42d61	0.10360218
249	0xbfe0c499	-1.7559997
250	0x3e07a736	0.1324738
251	0xbefb94a2	-0.49136835
252	0xbf66d349	-0.90166146
253	0xbf40ef6b	-0.7536532
254	0x3f1245ea	0.5713793
255	0xbeba9f28	-0.36449552

fc2.weight f4 [1, 4096]
0	0xbb2a530a	-0.0025989437
1	0x3ba9a2be	0.005176871
2	0x3d08024e	0.033205323
3	0x3cd9a317	0.026567025
4	0x3d07f401	0.033191685
5	0x3ce75961	0.028240861
6	0xba24cf3e	-0.0006286985
7	0x3bb8ddaf	0.005641661
8	0x3d167ca7	0.03673997
9	0xbb0af9ca	-0.0021206015
10	0xbccb15d4	-0.024790682
11	0x3d03b336	0.03215333
12	0xbc6d245f	-0.014474004
13	0xbbb09818	-0.0053892247
14	0x3cad357f	0.021143673
15	0xbcfa9ad6	-0.03059141
16	0xbbedf996	-0.007262419
17	0x3cb5e670	0.022204608
18	0x3ce6b9a3	0.02816469
19	0x3c9b6137	0.018967254
20	0x39ca44df	0.00038579755
21	0xbd1e976d	-0.03871863
22	0xbb0c48c7	-0.0021405683
23	0xbd3fbecb	-0.046812814
24	0x3d1047ef	0.03522485
25	0xbbd57f93	-0.006515452
26	0x3a61dab0	0.0008615656
27	0xbcbea321	-0.023271145
28	0xbc422e08	-0.011851795
29	0xbc31b27b	-0.010845776
30	0xbcc181f3	-0.023621535
31	0xbc9ac9ac	-0.018894993
32	0xbcd2e328	-0.025743082
33	0xb9a39e4b	-0.0003120772
34	0xbd0632d6	-0.032763325
35	0x3c1ee798	0.009698771
36	0xbcf7a5d1	-0.030230435
37	0xbc8282ec	-0.015931569
38	0x3d1aa0a3	0.03775085
39	0xbceeb7b5	-0.029140333
40	0x3d5a8d5e	0.053357475
41	0x3ac3b86e	0.0014932284
42	0xbc680533	-0.014161396
43	0xbbae402f	-0.00531771
44	0x3cc40d72	0.023932192
45	0xbc99cfff	-0.018775938
46	0x3b0dde15	0.0021647264
47	0x3c8c089e	0.017093953
48	0xbc19c79a	-0.009385968
49	0x3c0ce87d	0.008600351
50	0xbc56ac30	-0.013102576
51	0x3bc18818	0.005906116
52	0x3af8ed0f	0.0018991547
53	0xbc9dd144	-0.019264825
54	0x3ad96a23	0.0016587417
55	0xbc644234	-0.0139318
56	0xbbf85e61	-0.00757961
57	0x3bf3db27	0.0074418965
58	0xbd039d90	-0.032132685
59	0x3d0ba8a5	0.03409638
60	0x3c8a78ee	0.016903367
61	0xbc87ed6e	-0.016592707
62	0x3b9d03c9	0.004791711
63	0x3c6db8e7	0.014509416
64	0xbb2e1183	-0.002656073
65	0x3ba89140	0.0051442683
66	0xbcf64c0f	-0.030065564
67	0x3c72cc31	0.014819191
68	0x3cb41380	0.021981955
69	0xbc6e6bbc	-0.014552053
70	0xbc9d6b59	-0.019216226
71	0x3bc44eab	0.0059908233
72	0x3c5c73c6	0.013455337
73	0x3cf342ac	0.029694878
74	0xbd00f51e	-0.031483762
75	0x3d09d55a	0.033650734
76	0xbd148f35	-0.036269385
77	0xbbba290e	-0.0056811636
78	0x3bd77ca4	0.0065761376
79	0x3b5bb3cc	0.0033523915
80	0x3b929c78	0.004474219
81	0x3c949b8f	0.018140582
82	0xbc1c7869	-0.009550192
83	0x3cc6e941	0.024281146
84	0xbb9a4110	-0.004707463
85	0x3cbeee3f	0.023306964
86	0x3c8946ea	0.016757447
87	0xbd25a2f8	-0.040438622
88	0xbc616cef	-0.013758882
89	0x3d2e17e2	0.042503245
90	0xbcfaa060	-0.03059405
91	0x3c2250ff	0.009907006
92	0xbad36743	-0.0016128797
93	0x3d1ce6a4	0.038305894
94	0xbc081f7d	-0.008308289
95	0xbca9ca7d	-0.020726437
96	0x3ceb5cd7	0.028730793
97	0x3a97de29	0.0011586595
98	0x3d2d4a21	0.042307023
99	0x3d321221	0.04347432
100	0x3ab2d57d	0.0013643947
101	0x3c985a0c	0.018597625
102	0x3cdf940b	0.027292272
103	0x3ccc614d	0.02494874
104	0x3cca3891	0.024685176
105	0xbcfc3702	-0.030787949
106	0xbcb893f6	-0.02253149
107	0x3c87dfb8	0.01658617
108	0xbc6e543e	-0.014546452
109	0x3c271403	0.010197642
110	0x3c044604	0.008073334
111	0x3c32c537	0.0109112775
112	0xbca8e5bc	-0.020617358
113	0x3cf957a8	0.030437306
114	0x3c892bd7	0.016744537
115	0xbc7e54d0	-0.015523151
116	0x3bc20308	0.0059207715
117	0x3c17b914	0.009260435
118	0xbab28e57	-0.0013622743
119	0x3c3756d3	0.011190134
120	0x3d19b7fa	0.03752897
121	0x3d30e86e	0.043190412
122	0x3c57ae27	0.01316408
123	0x3a22288b	0.0006185851
124	0xbcb55707	-0.022136224
125	0xbca12f1d	-0.019675786
126	0xbcd3a576	-0.025835734
127	0xbbb6df7f	-0.005580842
128	0x3b824179	0.00397509
129	0x3cc90412	0.024538074
130	0xbc91d691	-0.017802509
131	0xbc8ec0f9	-0.017426
132	0x3c114071	0.008865462
133	0x3c3cccbb	0.011523421
134	0xbc84e95f	-0.016224561
135	0x3b754fd6	0.003743162
136	0x3cf47d6b	0.02984496
137	0x3b81d54b	0.003962194
138	0xbce8773e	-0.028377172
139	0x3cd4f825	0.02599723
140	0x3ad597a2	0.00162958
141	0xbb0da280	-0.002161175
142	0x3c4abea6	0.012374556
143	0x3c3b942e	0.011448903
144	0xbd293bb5	-0.041316707
145	0xbbed1735	-0.0072354325
146	0xbc64bcbc	-0.013961013
147	0x3c33fef1	0.010986076
148	0x3ab38b04	0.0013698046
149	0xbc731173	-0.014835703
150	0x3c6b1ea0	0.014350563
151	0xbcf2d690	-0.029643327
152	0x3d000922	0.03125871
153	0x3d031243	0.031999838
154	0x3c930a6f	0.017949311
155	0x3ca25d7f	0.019819973
156	0xbc2419f1	-0.010015951
157	0x3d0e4ff3	0.034744214
158	0xbb848e8e	-0.004045314
159	0x3d20d2a0	0.039263368
160	0xbbf7ed0e	-0.007566101
161	0xbb847ec7	-0.0040434333
162	0xbbb834fa	-0.0056215497
163	0xbcd43235	-0.025902847
164	0x3d19c2f1	0.037539426
165	0xbb806a26	-0.003918904
166	0x3d0b14f4	0.03395553
167	0xbc9bb962	-0.019009296
168	0x3d12ba14	0.03582199
169	0xbd05b69a	-0.032644846
170	0x3b3460ed	0.0027523593
171	0x3c95515d	0.018227274
172	0xbc981e7d	-0.018569225
173	0x3cab5448	0.020914212
174	0xbc5b849f	-0.013398319
175	0x3ba43a4c	0.0050118323
176	0x3a7baffd	0.00096011144
177	0x3d02d2f2	0.031939454
178	0x3c6c7327	0.014431751
179	0x3d93c292	0.07214846
180	0x3bb4821a	0.0055086734
181	0x3b9d87ae	0.004807434
182	0xbd138e9e	-0.036024682
183	0x3c03f66a	0.008054355
184	0x3ce0d94f	0.02744737
185	0x3c63c0a7	0.013900912
186	0xbc912931	-0.017719837
187	0xbb87c307	-0.004143122
188	0x3c26f737	0.010190777
189	0xbcef344c	-0.029199742
190	0x3c0b63da	0.008507693
191	0xbc2f715d	-0.01070818
192	0xbd251dcc	-0.04031162
193	0xbbf64be2	-0.00751637
194	0x3ceaabd7	0.028646393
195	0xbcc314cc	-0.023813628
196	0xbc1f092d	-0.0097067775
197	0xbceeb25d	-0.029137785
198	0x3bff7ac6	0.007796618
199	0x3d103199	0.03520355
200	0xbd183671	-0.037161294
201	0xbceb9ee4	-0.028762288
202	0x3cc167d8	0.023609087
203	0x3cf739cd	0.030178929
204	0xbc522d50	-0.012828186
205	0xbb753033	-0.0037412762
206	0x3c1473f2	0.009060847
207	0xba37ec08	-0.00070160674
208	0xbbe0fdeb	-0.006866207
209	0xbc63b248	-0.013897486
210	0x3aef3ead	0.0018252932
211	0x3c1d2947	0.009592361
212	0x3c9edf1c	0.019393496
213	0xbcede13c	-0.029038064
214	0x3c689b80	0.01419723
215	0x3b950554	0.0045477543
216	0x3b998919	0.004685533
217	0xbc07a979	-0.0082801515
218	0xbb5816cb	-0.003297257
219	0xbb9736ac	-0.0046146717
220	0x3b7a4f0a	0.0038194084
221	0xbcc55434	-0.024088003
222	0x3bc84aa9	0.006112416
223	0x3cb6db3c	0.022321336
224	0xbc511e6f	-0.012763604
225	0xbd4c518f	-0.049882468
226	0x3d36cd59	0.04462943
227	0x3cd08298	0.025452897
228	0xbcae47a7	-0.0212744
229	0x3bf90739	0.007599738
230	0x3ccc9ff9	0.024978625
231	0xbd11fb49	-0.035640035
232	0x3b5a6df9	0.003332971
233	0xbd6439c0	-0.055719137
234	0xbd367fdc	-0.04455553
235	0x3cb83455	0.022485891
236	0xbbeea660	-0.007283017
237	0x3cd2ce96	0.025733273
238	0xbc7050e5	-0.014667724
239	0x3c91a2bb	0.017777791
240	0xbc63b60c	-0.013898384
241	0xbb1d1cb1	-0.00239734
242	0xba7e8779	-0.0009709518
243	0x3c6bf357	0.014401278
244	0x3cd8d0b8	0.026466712
245	0xbd344b28	-0.044016987
246	0x3d438baa	0.047740616
247	0xbc085329	-0.008320608
248	0xbcb67754	-0.022273697
249	0x3d03678b	0.03208117
250	0x3c8622c9	0.016374009
251	0xbd6bd38a	-0.057574786
252	0x3c2357d1	0.0099696675
253	0x3b667f3f	0.003517106
254	0xbcac3a6d	-0.021023953
255	0xbbfc519c	-0.0077001583
