checkpoint/perturb/infty/modified_NGD/mlp_epoch492_seed1.pt (torch, 67297 bytes, 3 tensors)

fc1.weight f4 [4096, 2]
-1.5255939 -0.7502298 -0.6539807 -1.6094829 -0.10016632 -0.6091894 -0.97977096 -1.6091
-0.71216273 0.30371767 -0.7773142 -0.25144124 -0.15219174 1.8436568 0.27414745 0.4641176
-0.6969722 -1.1607581 0.6971172 0.20167117 0.8656916 0.24441211 -0.66290194 0.8073066
1.1016811 -0.17593554 -2.2455523 -1.4464598 0.06115533 -0.6177399 -0.79806536 -0.13162348
2.09176 -0.096238896 0.15776864 -0.77347106 0.19905305 0.045702588 0.15295748 -0.47568047
-0.11101887 0.29273504 -0.15784487 -0.02878607 2.4392874 -2.3096936 1.7449751 -0.4488839
-0.9273915 0.54514205 0.0662798 -0.43703845 0.7909589 0.21948412 -2.6187541 2.0154092
-2.0345557 -0.33854297 -0.18600173 -0.64463764 2.8402612 -2.2717836 -3.3311536 -0.7478717
-0.0254999 -1.0233314 -0.5961851 -1.0055301 -0.21060613 -0.007550799 1.243793 -0.17402615
-0.7039567 -0.18526638 -0.9962363 -0.83125925 -0.46102557 -0.56008166 -0.17466512 -0.9822633
-0.5064866 0.09977267 -0.6539743 0.73169434 -1.4343867 -0.500817 0.124366045 -0.15999754
-0.17359407 -6.6559653 -1.0412002 0.7322699 -1.0483392 -0.47087964 0.5856942 3.7058265
0.66144645 1.1899196 0.81653464 -0.9135237 0.12610725 -1.181521 -0.9275744 1.111977
-5.0289845 0.60427153 3.3706403 -6.0922604 -2.102081 -0.62002206 -1.478229 -1.1334177
0.8737962 -0.5602586 1.644917 3.8810112 0.20530176 0.3051076 0.5356871 -0.43118498
-11.579092 -10.17026 -10.893387 -3.3788657 -1.9804083 0.94777644 0.10181136 0.34000584
-0.41757798 -1.9027987 0.35385087 1.1996142 -0.30299813 -1.7618399 -0.1577088 -0.80435133
-1.611112 -1.8716122 0.5430836 0.6606715 -4.461482 -4.1009765 -2.5279584 -1.3554361
-1.3632685 -0.9832187 -15.711809 -13.045074 0.4729622 -0.42859054 0.112094045 -1.559407
-24.735682 -19.86298 -10.582103 -6.744846 -23.098495 -16.321756 -0.70636326 1.3238256
0.4175336 -0.21271826 -0.8399578 -0.4200112 -0.6240365 -0.97729665 0.87484306 -0.41872197
-28.480646 1.520696 -2.1602805 -2.305746 -0.40345973 -0.9591448 -0.005201328 -0.07886751
0.8436539 1.1657014 -0.0762002 -4.4326825 -0.9639762 0.14152208 -0.1636611 -0.35821682
-36.26471 3.4125147 -8.937812 -3.092577 0.10322302 0.6122728 -1.739912 3.1256888
-0.5685183 0.8375968 -2.125491 -0.19546728 0.51491666 -1.8474766 -2.9167428 -0.5673299
-6.9950395 -5.1800985 -0.88250875 0.53180957 -1.5457768 -0.17329834 0.7282454 0.05701239
0.90551925 1.0462934 -3.7677329 1.3547769 -3.5353494 0.091350764 -7.228062 2.6037517
-0.96900886 1.2516365 1.210325 -0.52792007 0.21856593 -0.5743076 0.9432777 2.4323149
-2.8654807 -0.03866705 -0.27102774 -1.4391638 0.56575894 -2.959249 -9.654041 0.3872109
-0.9788063 -139.85643 -76.324135 -1.3835732 1.9412493 -0.8583885 -0.9294934 0.2936257
0.21512963 0.93846774 -8.947518 -0.5564788 -0.7448407 -0.20214581 -0.22966829 0.0013309263
0.37527606 -0.5810686 -0.5723038 1.0097184 -0.10564977 -1.1796957 -0.09077937 0.563116
00000000: a946 c3bf 0f0f 40bf 476b 27bf 8903 cebf
00000010: 0024 cdbd d6f3 1bbf 45d2 7abf fdf6 cdbf
00000020: 4c50 36bf e280 9b3e 10fe 46bf e8bc 80be
00000030: 27d8 1bbe f2fc eb3f 0e5d 8c3e d2a0 ed3e
00000040: c56c 32bf b993 94bf 4676 323f e382 4e3e
00000050: f79d 5d3f 2b47 7a3e f1b3 29bf a5ab 4e3f
00000060: e303 8d3f 7228 34be 21b7 0fc0 9825 b9bf
00000070: 037e 7a3d 3424 1ebf 034e 4cbf 4ec8 06be
00000080: 65df 0540 e618 c5bd 1a8e 213e 3302 46bf
00000090: 90d4 4b3e a332 3b3d e3a0 1c3e 648c f3be
000000a0: dc5d e3bd 5ee1 953e 16a2 21be c4d0 ebbc
000000b0: 491d 1c40 05d2 13c0 585b df3f 1cd4 e5be
000000c0: 8869 6dbf 6e8e 0b3f b4bd 873d 81c3 dfbe
000000d0: 487c 4a3f 72c0 603e ab99 27c0 77fc 0040
000000e0: 2936 02c0 8155 adbe 3d77 3ebe f906 25bf
000000f0: d7c6 3540 e764 11c0 9f31 55c0 8574 3fbf
00000100: 2be5 d0bc 86fc 82bf 969f 18bf 36b5 80bf
00000110: 22a9 57be b16c f7bb 9c34 9f3f e933 32be
00000120: 8236 34bf 78b6 3dbe 5809 7fbf 68cd 54bf
00000130: 8b0b ecbe 8361 0fbf 6adb 32be 9c75 7bbf
00000140: 1ba9 01bf 9d55 cc3d dc6a 27bf 5250 3b3f
00000150: fc99 b7bf 8b35 00bf a0b3 fe3d 65d6 23be
00000160: a5c2 31be abfd d4c0 0c46 85bf 0a76 3b3f
00000170: fb2f 86bf 2317 f1be 0ef0 153f 432c 6d40
00000180: 8e54 293f 494f 983f 6a08 513f b0dc 69bf
00000190: 4222 013e 153c 97bf 8475 6dbf 4355 8e3f
000001a0: 71ed a0c0 8ab1 1a3f 92b8 5740 ccf3 c2c0
000001b0: 7f88 06c0 c4b9 1ebf 9c36 bdbf d513 91bf
000001c0: 1cb1 5f3f 1c6d 0fbf a48c d23f 7d62 7840
000001d0: a03a 523e 1037 9c3e ca22 093f 47c4 dcbe
000001e0: f643 39c1 63b9 22c1 504b 2ec1 563f 58c0
000001f0: 057e fdbf 7aa1 723f 7982 d03d 3f15 ae3e
00000200: c8cc d5be e88e f3bf f12b b53e f58c 993f
00000210: 9222 9bbe f883 e1bf 6a7e 21be f8e9 4dbf
00000220: eb38 cebf fd90 efbf 8707 0b3f c421 293f
00000230: 76c4 8ec0 333b 83c0 12ca 21c0 ee7e adbf
00000240: 957f aebf 39b4 7bbf 9263 7bc1 a0b8 50c1
00000250: 1a28 f23e 3870 dbbe 9091 e53d a69a c7bf
00000260: ade2 c5c1 62e7 9ec1 4b50 29c1 c7d5 d7c0
00000270: b8c9 b8c1 f592 82c1 39d4 34bf 1e73 a93f
00000280: f7c6 d53e d1d2 59be 7907 57bf b50b d7be
00000290: dbc0 1fbf 1d30 7abf b7f5 5f3f ba62 d6be
000002a0: 5dd8 e3c1 2ba6 c23f 0942 0ac0 5891 13c0
000002b0: 4692 cebe 838a 75bf e76f aabb 4a85 a1bd
000002c0: b4f9 573f b435 953f da0e 9cbd 89d8 8dc0
000002d0: 25c7 76bf 2aeb 103e c796 27be 3268 b7be
000002e0: 100f 11c2 a466 5a40 4701 0fc1 c8ec 45c0
000002f0: 9766 d33d e9bd 1c3f 70b5 debf 490b 4840
00000300: 6a8a 11bf be6c 563f 0b08 08c0 9328 48be
00000310: 94d1 033f 1d7a ecbf eaab 3ac0 883c 11bf
00000320: 5dd7 dfc0 5ec3 a5c0 18ec 61bf ac24 083f
00000330: 04dc c5bf 1f75 31be 4a6e 3a3f d385 693d
00000340: 1cd0 673f f1ec 853f 8922 71c0 5469 ad3f
00000350: 2a43 62c0 1c16 bb3d 494c e7c0 dea3 2640
00000360: f710 78bf a035 a03f eeeb 9a3f c525 07bf
00000370: bfcf 5f3e d305 13bf a67a 713f 0cab 1b40
00000380: 0964 37c0 5761 1ebd 26c4 8abe 8536 b8bf
00000390: 94d5 103f 5664 3dc0 f476 1ac1 8240 c63e
000003a0: 0d93 7abf 3fdb 0bc3 f5a5 98c2 ed18 b1bf
000003b0: db7a f83f 59bf 5bbf 48f3 6dbf 1c56 963e
000003c0: f14a 5c3e 6c3f 703f 0929 0fc1 6575 0ebf
000003d0: e1ad 3ebf 50ff 4ebe 2a2e 6bbe 7a72 ae3a
000003e0: 2f24 c03e e9c0 14bf 8082 12bf 743e 813f
000003f0: e85e d8bd 4500 97bf 89ea b9bd 5f28 103f

fc1.bias f4 [4096]
-0.53767073 -1.9980335 -0.5248408 -0.98284495 -0.39019915 -0.9760077 -1.1480651 -0.030779071
-1.3657839 0.28130984 -0.9959276 -2.4889047 -1.6655085 -0.6262307 -0.33560136 -0.08201882
-0.6423219 -0.48523265 -0.22505848 -0.521688 -1.80076 -0.4838927 -0.9382007 -0.5739132
-0.72787017 -1.092144 -0.49489233 -1.6231675 0.099062435 0.017864617 -1.3719969 -1.3657714
-2.516548 -0.98721015 -0.4767739 -1.3888124 0.44985017 -0.9111939 -0.7990191 -0.011309794
-1.621178 -1.4982095 -1.7816254 -0.15053366 0.1789509 -0.3529951 -0.6911938 0.042935412
-1.6056448 -1.1348435 -0.14910251 -1.7711773 0.29798377 0.14233539 -0.91940165 -1.3836191
-0.99104166 0.5229886 -1.1845028 -0.93800586 -0.1305807 1.1076071 0.0878968 -1.011903
-0.34641245 -1.9138473 -0.2762716 -0.024974812 -0.2710681 -1.9147086 -0.12732857 0.5534733
-0.033737794 -0.8580873 -2.1088443 -0.44694883 -0.03420698 0.5859375 -0.25702313 -0.90222067
-0.76271474 0.3710999 -0.6459767 -1.1202003 -1.3505 -0.35540462 -0.5453316 -1.4993317
-1.5596958 -0.5945319 -0.6383458 -0.8202873 -0.77914536 -0.027539534 -0.9609364 -0.16086335
-1.1849871 -0.42293897 -0.6338271 -0.6274245 -0.42825246 -0.4893678 -1.6638607 -0.8749521
-1.8543584 -0.48222682 0.0022297294 -1.1327815 -1.4066662 -2.0244613 -1.1807343 -0.74362034
-0.655926 -0.9699438 -1.0909413 -0.30653125 0.98230416 0.2888821 -0.298771 -0.7737896
-1.1919045 -0.6335497 -1.207506 -0.55284137 -1.2929223 -1.0336103 -1.5845901 -1.7948308
0.453314 -0.9237129 -1.7383898 0.025027893 0.15895134 -0.42639086 -1.3122308 0.05055051
-0.4555158 0.30625445 -0.44359478 -0.9861525 -0.76991796 -0.7965679 -1.1109277 -0.13018228
-0.31353658 -0.70454997 -0.22453581 -1.6243407 -0.6529241 -0.3907029 -1.1030186 0.59008604
-0.68961614 0.26059768 -1.5048202 -0.14943436 -0.6546541 -0.35551935 -0.93915135 -1.5935093
-1.2591178 0.31038085 -0.5442231 -1.5950528 -1.0430014 -0.7534025 -1.2140381 -1.3128161
0.3672575 -0.23595896 -1.2150291 -0.38451976 -0.90578026 -1.1650376 -0.5351928 -1.7475854
-0.2049784 -1.3296318 -0.5992752 0.09203261 -1.5286348 -0.9984022 0.7134691 -1.4482659
-1.9743912 -0.9530148 -2.1868072 -1.3057215 -0.9521264 -0.8108067 -0.29729894 -0.08723056
-0.83263946 0.26012963 -0.38953164 -0.7908396 -0.755332 -1.2804756 -1.6514044 -1.4212328
-1.0983858 -1.9632666 0.20541506 -1.0498661 -0.03389185 -0.41296023 0.5149438 -1.7093652
-1.8924421 -2.040542 -0.18178037 -0.85451525 -1.2880328 -1.2353148 -0.2360594 -0.99744475
1.3054379 0.25010172 -0.57423717 -2.2354524 -0.4588087 -1.2436572 -0.41544762 -0.8466983
-1.2821842 -1.0165749 0.19309226 -0.4360167 -0.85240203 -1.3689777 1.0786449 -0.95413727
-0.3593276 -0.92816657 -0.76828 -0.7383495 -0.4691849 -0.705926 -0.1433278 -0.05711762
-1.6504759 -0.7743602 -0.73411494 -0.848185 -0.88937443 -0.9324958 -0.395278 -0.8947538
0.20433012 -0.7824064 -0.368946 0.38665205 -0.54292786 -0.15996704 -0.8035789 -0.8231645
00000000: caa4 09bf 90bf ffbf f75b 06bf ba9b 7bbf
00000010: 2fc8 c7be a4db 79bf ccf3 92bf 6424 fcbc
00000020: 02d2 aebf d807 903e 1cf5 7ebf 374a 1fc0
00000030: 622f d5bf a850 20bf f1d3 abbe 7cf9 a7bd
00000040: 356f 24bf 6a70 f8be bb75 66be 588d 05bf
00000050: 4e7f e6bf c9c0 f7be ec2d 70bf faeb 12bf
00000060: b355 3abf 60cb 8bbf 8762 fdbe f4c3 cfbf
00000070: 3fe1 ca3d d158 923c 989d afbf 99d1 aebf
00000080: 1f0f 21c0 ceb9 7cbf b51b f4be 9bc4 b1bf
00000090: c352 e63e 0144 69bf 848c 4cbf b74c 39bc
000000a0: c382 cfbf 54c5 bfbf 4d0c e4bf 7f25 1abe
000000b0: e83e 373e c6bb b4be 14f2 30bf 0bdd 2f3d
000000c0: c585 cdbf 8d42 91bf 54ae 18be f0b5 e2bf
000000d0: 5491 983e 5ec0 113e e85d 6bbf 6e1a b1bf
000000e0: e8b4 7dbf 95e2 053f ca9d 97bf 2721 70bf
000000f0: f2b6 05be 12c6 8d3f 3d03 b43d 0a86 81bf
00000100: f95c b1be f3f8 f4bf 7973 8dbe fa97 ccbc
00000110: 70c9 8abe 2c15 f5bf 6c62 02be 6db0 0d3f
00000120: a430 0abd 9cab 5bbf 4ef7 06c0 7ad6 e4be
00000130: 9e1c 0cbd 0000 163f 8998 83be eff7 66bf
00000140: 4641 43bf ce00 be3e bb5e 25bf b962 8fbf
00000150: 2fdd acbf 98f7 b5be da9a 0bbf 1aea bfbf
00000160: 1da4 c7bf 3e33 18bf a16a 23bf 59fe 51bf
00000170: 1276 47bf 979a e1bc eeff 75bf 5db9 24be
00000180: a8ad 97bf 758b d8be 7e42 22bf e49e 20bf
00000190: e843 dbbe 6b8e fabe 63f9 d4bf dcfc 5fbf
000001a0: 9e5b edbf 6fe6 f6be a720 123b fcfe 90bf
000001b0: a30d b4bf c690 01c0 4d22 97bf e75d 3ebf
000001c0: c4ea 27bf 3d4e 78bf f7a3 8bbf aaf1 9cbe
000001d0: 4978 7b3f 5be8 933e 83f8 98be 1317 46bf
000001e0: 5490 98bf 5030 22bf 8e8f 9abf 0387 0dbf
000001f0: 7a7e a5bf 584d 84bf d9d3 cabf 04bd e5bf
00000200: c618 e83e 7378 6cbf 8f83 debf 4c07 cd3c
00000210: 24c4 223e e74f dabe 2ef7 a7bf 0d0e 4f3d
00000220: 5e39 e9be 62cd 9c3e db1e e3be 7e74 7cbf
00000230: 5819 45bf e0eb 4bbf e132 8ebf 814e 05be
00000240: de87 a0be 635d 34bf b7ec 65be 65ea cfbf
00000250: 0926 27bf 360a c8be b72f 8dbf e10f 173f
00000260: af8a 30bf 0f6d 853e f39d c0bf 5205 19be
00000270: 6997 27bf a206 b6be 396c 70bf 1df8 cbbf
00000280: c62a a1bf 3dea 9e3e 3552 0bbf b12a ccbf
00000290: 1281 85bf fcde 40bf 9a65 9bbf 5c0a a8bf
000002a0: 2d09 bc3e 3a9f 71be 1386 9bbf c6df c4be
000002b0: 37e1 67bf f41f 95bf 6502 09bf e1b0 dfbf
000002c0: dce5 51be 6031 aabf 196a 19bf 987b bc3d
000002d0: 4eaa c3bf 4997 7fbf e9a5 363f c760 b9bf
000002e0: dab8 fcbf c7f8 73bf a6f4 0bc0 e221 a7bf
000002f0: 8ebe 73bf 0791 4fbf 9137 98be f0a5 b2bd
00000300: dc27 55bf b62f 853e b170 c7be 7774 4abf
00000310: 705d 41bf a0e6 a3bf 3861 d3bf f5ea b5bf
00000320: e897 8cbf 524c fbbf 5358 523e 0362 86bf
00000330: 2ed2 0abd 866f d3be 5bd3 033f 7bcc dabf
00000340: 8b3b f2bf 3d98 02c0 a224 3abe 83c1 5abf
00000350: 42de a4bf cc1e 9ebf 8eb9 71be 8a58 7fbf
00000360: 9718 a73f 550d 803e 3501 13bf a711 0fc0
00000370: f9e8 eabe 2930 9fbf 8db5 d4be 38c1 58bf
00000380: 9d1e a4bf 201f 82bf fab9 453e 953d dfbe
00000390: 0537 5abf a93a afbf 0911 8a3f 5742 74bf
000003a0: caf9 b7be 539c 6dbf 00ae 44bf 7904 3dbf
000003b0: 0139 f0be 91b7 34bf 86c4 12be 2af4 69bd
000003c0: cb42 d3bf 783c 46bf f5ee 3bbf a722 59bf
000003d0: 0bae 63bf 0bb8 6ebf e161 cabe 960e 65bf
000003e0: ea3b 513e c94b 48bf 7de6 bcbe 42f7 c53e
000003f0: 52fd 0abf 66ce 23be 59b7 4dbf e9ba 52bf

fc2.weight f4 [1, 4096]
-0.007357554 0.019749243 0.018865442 -0.006653187 0.0152779175 -0.030022716 0.026188975 0.027161775
0.025016643 -0.010231545 -0.029154178 -0.042064194 0.02712024 0.009295181 -0.04354865 -0.009850141
0.012460977 0.016844647 0.035006214 0.004249674 -0.016940825 0.037588485 0.016576493 -0.015797962
0.049947105 0.024820274 0.032776892 -0.031463675 0.054797076 0.012282585 0.018207224 0.00056991645
0.008366111 -0.0096361535 -0.029150717 -0.00352543 0.016557733 0.01485921 0.031418927 0.023737116
0.022719579 0.013852207 0.014339191 -0.0060364855 -0.027981982 0.020376505 0.02745437 0.0148837175
0.03735029 0.025766537 -0.03252494 0.024641257 -0.015688544 0.017033728 0.03194057 -0.023071617
-0.014965552 0.020477448 -0.011320662 -0.029021194 -0.022053583 0.044983935 -0.0035813625 0.0004995728
0.02384002 0.015294122 -0.0088170795 -0.015667906 0.019929353 -0.020352894 -0.0067829997 0.011410014
0.000617697 -0.013892597 -0.005185241 -0.021649646 -0.01457319 0.023439893 -0.014269953 -0.023694659
-0.007506059 -0.019613637 0.016296413 -0.014240631 -0.008549226 -0.021182008 0.0038260922 -0.004171783
-0.013849517 -0.002891525 0.010615535 0.010912151 0.04555151 -0.038757384 -0.02484669 0.0010029032
-0.0023544931 -0.016510857 -0.014597153 -0.03818073 0.01731137 -0.027142651 -0.0022933155 0.00028071142
-0.0010033625 0.038030922 -0.01592509 0.01117024 0.01885066 0.0116629135 0.0064198677 -0.008919754
0.0053745774 0.019097622 0.03955817 0.009585311 -0.068020836 -0.024728278 -0.029810501 -0.03366411
-0.033591714 0.011146363 -0.0072111655 -0.022490952 -0.02583007 -0.026316134 0.015078784 -0.0068479436
-0.0024368356 -0.016393881 0.003493658 0.04484864 -0.0046471073 0.014863029 -0.003387118 -0.03164192
0.024342425 -0.010548491 -0.025138922 -0.003932036 -0.010985444 0.04580579 0.006548219 -0.044538435
0.03172181 0.008992251 -0.032141436 -0.03192788 0.021229524 0.0071215485 0.0032309338 -0.020813929
-0.011146029 -0.00095531455 0.022387784 0.015810318 0.015721565 -0.008780828 0.0029416264 -0.0025053022
0.051038116 -0.00078320934 0.015872357 -0.022742344 0.008140865 0.035452187 -0.02597665 0.0043036565
-0.039306175 -0.04771316 -0.0012267537 -0.007832464 -0.015632752 0.04567233 0.044280265 0.016495911
0.0017444751 -0.04288644 0.040351864 0.0030516104 -0.051164776 0.011640377 0.030465461 0.037117705
-0.0043012514 -0.034230974 -0.022609659 -0.012797543 0.010559554 -0.009954195 -0.023772841 0.02614912
0.014346526 0.022338362 -0.003956156 0.024777096 -0.036796637 0.0136461165 -0.013795299 0.004528864
0.014564847 -0.012312504 0.019179367 -0.0010424196 0.0028108084 -0.0003088138 0.009605186 0.026733112
-0.02055425 -0.03755126 -0.0074621034 0.022157405 -0.022194661 0.011068295 0.034126185 0.025326986
0.031790797 0.021943297 -0.0032995357 0.0054684617 -0.01900485 -0.009309471 -0.058682013 -0.023246266
0.01736659 -0.015858812 -0.021745713 -0.0047085984 0.004509995 0.0081583485 0.0059629236 -0.02158204
-0.0029110292 -0.025346184 -0.018746037 -0.013406409 -0.035130534 -0.02048848 -0.02070924 0.046537496
0.015371934 -0.028142022 0.0026789433 -0.018845702 -0.00500074 0.03356473 -0.018443046 0.014589848
-0.047983542 0.012132822 -0.030635737 0.031862173 0.0457981 -0.013584338 0.041214056 0.012082611
00000000: a317 f1bb 2ac9 a13c b38b 9a3c fa02 dabb
00000010: 3b50 7a3c 33f2 f5bc 438a d63c 5f82 de3c
00000020: b4ef cc3c 36a2 27bc bed4 eebc 814b 2cbd
00000030: 442b de3c d14a 183c 1260 32bd 7c62 21bc
00000040: 2029 4c3c c9fd 893c ad62 0f3d d940 8b3b
00000050: 7cc7 8abc 62f6 193d 6dcb 873c ba6a 81bc
00000060: 5695 4c3d e353 cb3c 1041 063d 0ee0 00bd
00000070: e672 603d e53c 493c 5127 953c 7266 153a
00000080: 0312 093c f5e0 1dbc 7ccd eebc e70a 67bb
00000090: 15a4 873c 0b74 733c 22b1 003d 5774 c23c
000000a0: 691e ba3c 5ef4 623c edee 6a3c b6cd c5bb
000000b0: 783a e5bc a1ec a63c fde7 e03c d6da 733c
000000c0: 9efc 183d 5814 d33c df38 05bd 76dc c93c
000000d0: 4385 80bc 518a 8b3c 1dd4 023d b000 bdbc
000000e0: 1332 75bc 52c0 a73c 4c7a 39bc dbbd edbc
000000f0: b7a9 b4bc 1341 383d 4bb5 6abb c3f5 023a
00000100: 254c c33c 3294 7a3c 8375 10bc fb59 80bc
00000110: e242 a33c 1dbb a6bc ed43 debb 11f1 3a3c
00000120: f2ec 213a c69d 63bc f4e8 a9bb 995a b1bc
00000130: 64c4 6ebc 0505 c03c 85cc 69bc 4d1b c2bc
00000140: 63f5 f5bb c7ac a0bc 0e80 853c 8951 69bc
00000150: 0e12 0cbc e485 adbc 2dbf 7a3b 74b3 88bb
00000160: 16e9 62bc bd7f 3dbb c8ec 2d3c e1c8 323c
00000170: 3894 3a3d 10c0 1ebd 498b cbbc d973 833a
00000180: d74d 1abb c741 87bc e628 6fbc 6663 1cbd
00000190: 93d0 8d3c 445a debc 734b 16bb 732c 9339
000001a0: 4283 83ba 50c6 1b3d 5675 82bc 6203 373c
000001b0: b36c 9a3c ce15 3f3c c15d d23b 2924 12bc
000001c0: 391d b03b 9e72 9c3c bf07 223d b50b 1d3c
000001d0: 824e 8bbd f592 cabc 2735 f4bc 61e3 09bd
000001e0: 7797 09bd 3c9f 363c a44b ecbb f23e b8bc
000001f0: 9599 d3bc ef94 d7bc 010d 773c b764 e0bb
00000200: 51b3 1fbb 764c 86bc dbf5 643b 35b3 373d
00000210: c346 98bb 1084 733c 69fa 5dbb f59a 01bd
00000220: c469 c73c 94d3 2cbc 24f0 cdbc 4fd8 80bb
00000230: 4bfc 33bc da9e 3b3d 7192 d63b ef6d 36bd
00000240: bbee 013d 3c54 133c bda6 03bd cfc6 02bd
00000250: 8ae9 ad3c e15b e93b 13be 533b f981 aabc
00000260: d69d 36bc 136e 7aba 9666 b73c a484 813c
00000270: 83ca 803c 76dd 0fbc 4dc8 403b ff2f 24bb
00000280: 580d 513d 4a50 4dba bf06 823c 274e babc
00000290: 4361 053c 5036 113d fccc d4bc b005 8d3b
000002a0: 83ff 20bd e06e 43bd 06cb a0ba bc53 00bc
000002b0: 4210 80bc e912 3b3d 395f 353d 6f22 873c
000002c0: dfa6 e43a b1a9 2fbd ff47 253d 87fd 473b
000002d0: 2892 51bd 48b7 3e3c b492 f93c bc08 183d
000002e0: 83f1 8cbb c735 0cbd e437 b9bc c9ac 51bc
000002f0: fb01 2d3c eb16 23bc 43bf c2bc ae36 d63c
00000300: b10d 6b3c f1fe b63c a4a2 81bb 56f9 ca3c
00000310: 12b8 16bd f693 5f3c ae05 62bc dd66 943b
00000320: 65a1 6e3c 63ba 49bc 0c1e 9d3c cca1 88ba
00000330: 8a35 383b 49e8 a1b9 125f 1d3c 66ff da3c
00000340: 6361 a8bc 5acf 19bd a984 f4bb 7283 b53c
00000350: 94d1 b5bc cb57 353c e6c7 0b3d 8a7a cf3c
00000360: 1137 023d 6ec2 b33c 063d 58bb c830 b33b
00000370: 0fb0 9bbc c086 18bc 8d5c 70bd f46e bebc
00000380: 6144 8e3c 57ea 81bc 1124 b2bc 964a 9abb
00000390: 95c8 933b 98aa 053c a164 c33b d1cc b0bc
000003a0: f7c6 3ebb cda2 cfbc 4a91 99bc 8ea6 5bbc
000003b0: 09e5 0fbd 75d7 a7bc 6da6 a9bc 1a9e 3e3d
000003c0: 90da 7b3c 198a e6bc 3691 2f3b 4d62 9abc
000003d0: 3fdd a3bb 2c7b 093d df15 97bc 420a 6f3c
000003e0: 648a 44bd bec8 463c ccf7 fabc e981 023d
000003f0: ca96 3b3d d890 5ebc 12d0 283d 25f6 453c
