checkpoint/perturb/infty/modified_NGD/mlp_epoch500_seed18.pt (torch, 67303 bytes, 3 tensors)

fc1.weight f4 [4096, 2]
00000000: 4993 0d3f a509 6a3e 6af1 7a3f eb79 c93f
00000010: 222c 0fc0 60c7 94be 80cc 833f ccc3 c5be
00000020: 92cc 833f 5d02 8b3f 99a5 5f3e 8802 0fbf
00000030: d49f 9dbe 42b6 aa3f 6068 3cbf e59e 98bf
00000040: 1f44 d9bf 4ab5 373f 72ed c0be faf4 883f
00000050: dafd bebf 1d46 08bf 91ef 023f a720 063e
00000060: b733 db3e 16ea 713f bda3 2a3f 961f 6ebf
00000070: 3eec 34bf 61cf d2bf d31c 0840 11a1 593d
00000080: bb8e c03f 90f9 5f3e 42c0 9c3e 4176 0dbf
00000090: 3e69 7b3e 81c1 ecbe 19ed 16bf 7ec4 d8bd
000000a0: 22c4 b33f c0ea 8ebe b6e5 ff3e 8220 133f
000000b0: 2664 c93f cace 433f 984e e63e 0b82 dcbe
000000c0: 9e4f 7d3f df1a dc3f 6fdb 52bd c7cb b1bd
000000d0: 34ac 983d 012a fe3d 444a b23c 8c70 f9be
000000e0: 93bd 343f c91f b3be 680b b3be ab9f c2bf
000000f0: be07 b4bd 809e 9d3f 6154 a73f 6644 b5bf
00000100: 8a04 f93e e66c 973f 11bb 483f 4914 00c0
00000110: faab 8bbf 28fd 573f a02e b1be d08c 9dbf
00000120: 90fe 2bbf 900a 2ebf ff1c 0ec0 3d64 2bbf
00000130: 16d0 03c0 f4ab 26bf 6d0e 1fbe c020 6bbe
00000140: 1175 15bf 83ee 483f c76b 4040 7154 753d
00000150: 1f3d 7cbf 4ea3 4c3f 58d9 953c 87ac 60be
00000160: 5053 043d d83e d6be 1d1d d0c0 dee2 c6c0
00000170: 44be c13f 3e43 033f 68ee 45bf c233 c0bf
00000180: 6424 b1bf a0d4 c23e 04d9 a3bd 2d30 c23b
00000190: 3bed aec0 c4c0 833f 037b 50bf 040b 9f3f
000001a0: 0ef6 c5bf cb35 b43e 1c3b 193f 16e9 173f
000001b0: 8528 c53e 8993 373f 08a5 f7bf 0699 b8bf
000001c0: cc0a 713f 9ec3 e1bf 7b66 0d3f 7787 6dbf
000001d0: 74ee 4e3c 31af 48bd 4dea b83f 239f c9bd
000001e0: 83f7 0040 d6b7 1440 35a5 ecbf 8b5b 2cbf
000001f0: a980 c8bd b2ba ba3e 5a67 c1bf 25e6 8fbf
00000200: 824c 26bf f754 1340 4571 4c40 483d d03f
00000210: cca3 453e e191 97bd 27cd 51be dcdf 4cc0
00000220: c375 8cbe 5ce2 f2bf 8ddd 9cbf a16e 74bf
00000230: 52c3 cfbe a8a2 133f 948e 1c3f 77f1 233f
00000240: 0ca9 95be ebbe ffbf 599b 49bf a54f d33f
00000250: ee4f 63c0 8a1b 973e fd51 06bd 462a 3dbf
00000260: fc7d 3bc0 fcf8 033f c6ee 0f3c 5e35 17bf
00000270: a889 99bf d66e 933f 7fd5 ccbf 3300 7c3f
00000280: 0f70 6d3f 18aa 81bf 9a5b 07c0 cf9c 2840
00000290: c7a2 68c0 f80a ea3f 18bb e5bf de9b 1f3f
000002a0: c450 44c0 4181 1941 bb19 0fbf bf92 483f
000002b0: 3a9d fa3c c7c6 60bf 67bd 823d 1858 8bbf
000002c0: 3e7c e6c1 70f1 55bf 7087 27c1 c234 283f
000002d0: 8998 a2be f0cc 99bf e095 f540 d346 16c1
000002e0: d3b6 243f 9bac 32bc c905 4dbf c0f0 153f
000002f0: 06f8 14c0 3405 873f b055 b5bf b9a3 b8be
00000300: 5d39 3abf 5cd5 2ebf 2ed9 00bf b9ed 29bf
00000310: 5def 77c2 dedd 1141 bb3f b8bc d135 1dbe
00000320: ee40 51bf 9ef8 07be bc3b 5741 4c4b ca40
00000330: 46cf 97bf 6ed7 c5bd 9667 4abe 8652 98bf
00000340: b0f2 0cc0 23b9 8ec0 9bd1 8bbe e206 c63e
00000350: d257 15bf 0137 6cbf eb88 51bf 893a 75bf
00000360: 42fa 8740 23ab 2dc1 e229 9fc2 8603 23c2
00000370: 0d0f 18bf 04be 9fbf 85d9 d540 a910 9c3e
00000380: 9b6f 1041 cb47 a640 8f83 54c1 b7a8 0ac1
00000390: 7350 da3e 03d2 9cbf 3355 35c0 a290 ce3e
000003a0: 948f b1c2 65ea 4441 7295 903f d5d2 603f
000003b0: ee7f 8cc0 09a0 a3c0 742e 28be 1749 30be
000003c0: c560 643f 244f 0dbe c50e 31c0 4b92 4bbe
000003d0: f9fd a73e 8b04 cb3f 2309 f7bf 0f88 7fbf
000003e0: 5ccb 9fbf b767 ad3e 66f5 d3bf 4cc0 fbbf
000003f0: fc6f dc3d f659 bb3e 9579 96be 2563 1c3f
0.55302864 0.22855242 0.9802462 1.5740331 -2.2370687 -0.2905836 1.0296783 -0.38625944
1.0296805 1.0860096 0.21840514 -0.5586324 -0.30786002 1.3336871 -0.73596764 -1.1923491
-1.6973914 0.71761 -0.37681156 1.0699761 -1.4921219 -0.53231984 0.511468 0.13098393
0.42812893 0.9449781 0.66656095 -0.93016946 -0.70672977 -1.6469537 2.1267593 0.05313212
1.5043558 0.21872544 0.3061543 -0.55258566 0.24551865 -0.46241382 -0.5895553 -0.10584353
1.404423 -0.27913475 0.49979943 0.5747148 1.5733688 0.7648741 0.44981837 -0.43067965
0.9894961 1.71957 -0.0514788 -0.086814456 0.0745472 0.12410355 0.021763928 -0.4871868
0.7060177 -0.34985188 -0.3496964 -1.5204977 -0.08790539 1.2313995 1.3072625 -1.4161499
0.48636276 1.1830108 0.7841044 -2.001238 -1.0911858 0.8437066 -0.34605885 -1.2308598
-0.67185307 -0.6798487 -2.2205198 -0.66949826 -2.0595756 -0.6510613 -0.15532847 -0.22961712
-0.58381754 0.7848894 3.0065782 0.059894983 -0.98530763 0.79936683 0.018292114 -0.21940814
0.032306015 -0.4184482 -6.503554 -6.2151937 1.513619 0.5127448 -0.77316904 -1.5015795
-1.383923 0.38052845 -0.08000377 0.005926153 -5.466459 1.0293202 -0.814377 1.2425237
-1.5465715 0.3519729 0.5985582 0.59340036 0.38507476 0.71709496 -1.9347239 -1.4421699
0.941571 -1.7637823 0.552345 -0.9278483 0.012630094 -0.0489952 1.4446503 -0.09844806
2.015107 2.3237205 -1.8487917 -0.67327183 -0.09790165 0.36470562 -1.5109665 -1.124211
-0.6496049 2.3020608 3.1944134 1.6268702 0.19300765 -0.07400871 -0.20488416 -3.2011633
-0.27433595 -1.8975329 -1.2255112 -0.95481306 -0.40578705 0.5767007 0.61155057 0.6404032
-0.29230535 -1.9980139 -0.78752667 1.650868 -3.5517535 0.29513198 -0.032793034 -0.7389263
-2.9295645 0.51551795 0.008784955 -0.59065807 -1.1995134 1.15182 -1.6002654 0.98437804
0.9274911 -1.0130033 -2.114966 2.6345708 -3.6349351 1.8284597 -1.7947721 0.6234721
-3.0674295 9.594056 -0.55898637 0.78348917 0.03059255 -0.8780331 0.06383782 -1.0886259
-28.810665 -0.8357153 -10.470566 0.657055 -0.31757 -1.2015667 7.6745453 -9.392291
0.6434147 -0.01090541 -0.8008695 0.5857048 -2.3276381 1.0548463 -1.4166775 -0.3606241
-0.7274378 -0.6829431 -0.5033139 -0.6637836 -61.983753 9.116667 -0.022491327 -0.1535256
-0.817397 -0.13278434 13.452084 6.3216915 -1.186013 -0.096602306 -0.19766077 -1.1900184
-2.2023125 -4.4600997 -0.27308354 0.38677126 -0.5833713 -0.9227143 -0.81849545 -0.9579244
4.249299 -10.854281 -79.5818 -40.75344 -0.59397966 -1.2479863 6.6828027 0.3048146
9.027247 5.196264 -13.282119 -8.66619 0.42639503 -1.225159 -2.8333251 0.4034472
-88.780426 12.307225 1.1295607 0.87821704 -4.3906164 -5.1132855 -0.1642397 -0.17215382
0.8921016 -0.13799721 -2.7665265 -0.19880025 0.32810953 1.5860761 -1.9299663 -0.99816984
-1.2483935 0.3386819 -1.6559265 -1.9668059 0.10763547 0.36592072 -0.29389635 0.6108878

fc1.bias f4 [4096]
00000000: ed0b 0fc0 f75f b6bd f9e0 97bf b082 92bf
00000010: a28c 83bd 643d 9ebf c505 47bf 34c4 cabf
00000020: 6d0c d6bf 712a a03f afab 0abf 0bb1 1d3f
00000030: 317d 4bbf 6aca ffbf 5dc2 edbf c224 61bf
00000040: fa4d e8be d49c 46bf 78c1 6ebf e839 8bbf
00000050: 7155 a0bf 9d3e fbbe 143a 453e e1e9 11bf
00000060: 4f64 23bf 181c 9fbe 847c abbe 3e9f 62bf
00000070: 04c4 ddbf fca0 d6bf f2db 01bf 711a a8be
00000080: 1f43 2bc0 d7cd 48bf bad4 24bf ca70 87bf
00000090: 54cb e0bf 5048 20be fd4b 8a3e 4dc0 babf
000000a0: 53d2 abbf 7337 60bf 4e90 b7be 6ec3 10c0
000000b0: dabb b0bf 9301 2fbf 0708 6ebf b489 b4be
000000c0: a3f7 c2bf b478 bc3e f350 5bbf 476d 62bf
000000d0: 64bd 87bf e1cb 773d 3ca3 2d3f a2f8 57be
000000e0: d42b 88bf 3fd5 f6be d09d a8bf cab3 84bf
000000f0: 467c 313d 7e1c bf3e 0663 b5be 939d 75bf
00000100: bee1 303f 04b7 5ebf 4fc9 8fbe 5435 543e
00000110: 5937 98bf aea5 a8be 41b9 e3bf 3b1f cfbf
00000120: 968f 53bf ccdb 74bf 8de5 f2be a34a 8abf
00000130: 39fb 173f 06a1 92bf 9327 b3be c3f4 30bf
00000140: 6b9c 983f 0186 16c0 f53d c73d c6de e83e
00000150: 4b44 21bf c77d 6fbf 82f0 2abe 96e1 21bf
00000160: fbfe 543c 4ca5 aabe f0ad 62bf a0ca a6bf
00000170: af18 e1bf 67fe e1be c821 bbbf 8a69 853f
00000180: 50c3 93bf 7f68 aabf 8037 42be 8f5b 1cbe
00000190: 7212 5dbf 7d1c 21bf be74 a13e 91bb 79bf
000001a0: b785 d8bf 3006 8f3d dede adbf bf6b 2abf
000001b0: 45f3 8cbf e146 7fbb 9cbd 6d3e 8978 1ebf
000001c0: ce7d 8f3e 7eaf 20bf 43fe 28bf d38b f9be
000001d0: f4e3 7d3f 7386 b8bf 8e75 043f ae9e 39be
000001e0: bedb a1bf 07ca b2be 33a4 e9bf b542 86bf
000001f0: 219f e53e 9332 5cbf c451 913d 546c cfbf
00000200: e68b 86bd be5f 923e 6808 bfbf 3828 68be
00000210: 5fac d6be 97b3 96be c295 32bf 816b 47bf
00000220: 4120 94be 52a5 fe3e 27ba 0ebe 571d 65bf
00000230: bed9 c3bf c0cd 34be d534 35be d781 bdbf
00000240: 8281 c6bf af8e 53bf aafb 73be 1e16 523e
00000250: c4af 493f f932 b5bf feda 83bf 8272 34bf
00000260: ccd6 b7bf f39f 38bf f73b a5be 7ce9 89be
00000270: fac1 afbf be17 19c0 d46b 83bf 1e74 273e
00000280: 5463 e4bf 4698 2ebf 975c febe 898e 3fbf
00000290: 51a3 60bf 049d cebf 2459 a0bd 898f 16be
000002a0: 1b8e 88bf 43d4 5dbf 8f41 b4be 2a10 c7bf
000002b0: 97da 47bf db39 02bf 4b53 f1bd d1a6 10bf
000002c0: 2058 d6bf a96d 6dbf 67c8 febe bcaa f0be
000002d0: b4d9 4fbf 7573 8bbf 2c47 adbe 79bb 88bf
000002e0: fb67 c5bf 4823 2bbf d3d0 b6bf d823 92bf
000002f0: 90da 00bf 7515 fcbf a1ed 413e 7e70 f6be
00000300: 2f63 debe 7c21 d53e e30c e93e 1cbd 4abf
00000310: fab7 79bf 548f 10c0 f8c2 a5bf 0b5e f0be
00000320: 9b0d dabe 402b a3bf 45fa 48be 14a9 38bf
00000330: 67ea a3bf 2e7d a4bf e7f3 95bf b5ac dcbf
00000340: 59aa 22bf 65bd fabe eca8 1fbf 0e89 d0bf
00000350: 8088 b33f 3e47 84bf bc0a 973e 2c39 a3bf
00000360: 7983 85bf 005e e4be 65b7 d1bf e1c8 d0bf
00000370: a3c5 f13e 945b 55bd c85e 52be 22d1 b1be
00000380: 3f92 3f3e 54eb 23bf fc0b fcbf 8f0a 643e
00000390: d92e 9dbf d1aa dbbe e5ec 99bf 8fb6 93bf
000003a0: b9ff 22bf 1572 00c0 fd4f 89be 6ddb 9bbf
000003b0: 8200 d0be 1437 ca3e 72b8 86bf a92d 39bf
000003c0: 62eb 87bf f885 16bf aa1c 8abf f974 aabf
000003d0: 055d 40bf 9997 1bc0 0b7f a83f bc6a 5dbf
000003e0: 5ab3 17bf 64c0 633e da30 debf 92a9 183f
000003f0: 91c3 83bf 3c01 c33d b399 d3be 3223 14be
-2.235103 -0.089050226 -1.1865531 -1.1446133 -0.06423308 -1.2362485 -0.7774318 -1.5841126
-1.6722542 1.2512952 -0.5416822 0.6159827 -0.794879 -1.9983647 -1.857494 -0.8794671
-0.4537199 -0.7758305 -0.9326396 -1.0877047 -1.2526075 -0.49071208 0.19260436 -0.56997496
-0.63824934 -0.3107612 -0.33493435 -0.88524234 -1.7325444 -1.6767879 -0.50726235 -0.32832673
-2.6759717 -0.78439087 -0.64387095 -1.0581295 -1.7562051 -0.15652585 0.270111 -1.4589936
-1.3423561 -0.8758461 -0.35852283 -2.261928 -1.3807328 -0.6836178 -0.92981 -0.3526131
-1.5231823 0.3681084 -0.85670394 -0.88447994 -1.0604672 0.06049717 0.678272 -0.2109094
-1.0638375 -0.4820957 -1.317316 -1.0367367 0.043331407 0.37326425 -0.3542711 -0.95943564
0.69094455 -0.8699801 -0.28083274 0.20723468 -1.1891891 -0.32938904 -1.779091 -1.6181406
-0.8264097 -0.95647883 -0.47440758 -1.0804027 0.5936771 -1.145539 -0.3499113 -0.69123477
1.1922735 -2.351929 0.09728614 0.45482463 -0.6299483 -0.93551296 -0.16693309 -0.6323484
0.013000245 -0.33329237 -0.8854666 -1.3030586 -1.7585658 -0.44139406 -1.4619684 1.0422833
-1.154398 -1.331314 -0.18966484 -0.15269302 -0.8635627 -0.62934095 0.3153438 -0.9755183
-1.6915807 0.06983602 -1.3583639 -0.6657066 -1.101174 -0.003895216 0.23216861 -0.6190267
0.2802567 -0.6276778 -0.6601297 -0.4873949 0.99175954 -1.4416031 0.51741874 -0.18126938
-1.2645185 -0.3491976 -1.8253235 -1.0489107 0.44847968 -0.8601467 0.07095674 -1.6204934
-0.06569652 0.2858867 -1.492444 -0.22671592 -0.41928384 -0.2943389 -0.6975976 -0.7789841
-0.28930858 0.49735504 -0.13938199 -0.89497894 -1.5300825 -0.17656612 -0.17695935 -1.4805249
-1.5508273 -0.8263959 -0.23826471 0.2051625 0.7878382 -1.4156181 -1.0301206 -0.70487225
-1.4362426 -0.72119063 -0.32272312 -0.26935947 -1.3731072 -2.392074 -1.0267282 0.16352889
-1.7842813 -0.682011 -0.49680015 -0.74826866 -0.877492 -1.6141667 -0.07829502 -0.14703192
-1.0668367 -0.8665201 -0.35206267 -1.5551808 -0.78067917 -0.5086953 -0.11783465 -0.5650454
-1.6745644 -0.92745453 -0.4976227 -0.4700526 -0.81191564 -1.089461 -0.33843362 -1.0682212
-1.5422357 -0.6685071 -1.4282478 -1.1417189 -0.503335 -1.9694048 0.18938304 -0.481327
-0.43435046 0.4162711 0.45517644 -0.7919481 -0.9754635 -2.258748 -1.2950125 -0.4694675
-0.42588505 -1.2747574 -0.1962672 -0.7213299 -1.2805909 -1.2850702 -1.1715058 -1.7240206
-0.6354118 -0.48972622 -0.6236713 -1.6291826 1.4026031 -1.0334241 0.29500377 -1.2751822
-1.0430747 -0.44602966 -1.6384093 -1.6311303 0.47221097 -0.05208929 -0.20543969 -0.34729868
0.18708132 -0.6403096 -1.9691157 0.22269653 -1.2279922 -0.4290376 -1.202542 -1.1540087
-0.6367145 -2.006963 -0.2681884 -1.2176338 -0.40625387 0.39495146 -1.0525038 -0.72335297
-1.0618708 -0.5879817 -1.0789998 -1.3316947 -0.75141937 -2.4311278 1.316377 -0.8649099
-0.59258044 0.2224136 -1.7358658 0.59633744 -1.0294057 0.0952172 -0.413282 -0.14466551

fc2.weight f4 [1, 4096]
00000000: 146d 253c 983c 23bb 549b a43c e059 20bd
00000010: ebfd fb3c ccae b43c 1ae5 8b3c 9fee 4d3c
00000020: 6b66 203b 157b 813c eba4 e53b 1e0f c3bc
00000030: 8230 9239 43c4 a13c 50bb f43c fbd2 0f3c
00000040: a0cc b73b 1c30 75bb 79af 863d 6660 523c
00000050: 20a3 913d 417e 053d a9e6 c73c 9bef e2bb
00000060: bbc9 d03b a84b f2bc 3bfa 5a3c 9d0b 8a3c
00000070: 6f41 0ebd 7bfc 8fbc 9be2 1bbc 628f 8ebc
00000080: cb4f 9e3c 860f 593d fb79 243d 2852 1f3c
00000090: b56b 79b9 f80a b33c a359 453d 1592 ad3c
000000a0: 82aa cbbc f3fc 133d 26fc 06bc 5cfd 91bc
000000b0: 49c8 e3bc f3d9 7d3d c5bd a0bc 5068 0cbc
000000c0: dccf b3bb 35e8 6dba b414 e93c d754 ebbc
000000d0: 8736 9f3c edcf 513b 6ca4 08b9 c5bf a93b
000000e0: a45f 213d b865 f4bb 8f13 3dbc b122 123d
000000f0: e48a c4bb 6e23 8ebc 7690 b13b c152 16bb
00000100: b689 d5bc d94f 06bc 9dca b5bb 2c00 d4bc
00000110: bebe 123d ed88 9f3c 7e1d 46bc 8a11 0bbd
00000120: db5f 123d a3fd 06bc 57df d8bc 4773 11bb
00000130: ae83 7d3c 9405 9bbc d0dc 9cba 407e 85bc
00000140: 6518 14b9 03ed 20bc 78f8 743b 5090 2dbb
00000150: 1173 0c3d c1b9 c73c 3713 b03c c959 77bc
00000160: f10f 213d fca7 c43b bf77 febb f35e 2b3c
00000170: 4330 01bd d96f 84bc 0a3d 29bc 0c51 c8bc
00000180: 4ec7 aabc 3a37 733c 07b6 013d 24eb 32bd
00000190: 6aeb 9439 e34f e13c e462 8cbc 7de0 edbc
000001a0: 46ab 713b 2d67 d1bb dcc6 53bc 7064 3c3d
000001b0: a710 373c 490c 243d 9b8a 33bc 054a 463c
000001c0: 682d 11bc 2b88 e73b 1eef 71bc 743b 5fbc
000001d0: 7da6 373d cdfd 10bc a35f 74bc 6c7d 59bc
000001e0: c25f 2abb fd86 213c e5ae aabb 6059 b43c
000001f0: c41d e7bb 9b63 c5bc b265 03bb 12de fbbc
00000200: aa1a aabc 1bea bf3c 74aa 9c3c 3938 90bc
00000210: 8df5 253c cf52 ab3c a7e1 dd3c 5f2d 8abc
00000220: 0dae 6f3a 3dce 7dba bac8 56bc 082d d33b
00000230: a662 d6bc cd1b d8bb 99e0 523c 1e01 53bc
00000240: 92b8 003d e791 8dbc 7598 683c a8ef 9dbc
00000250: 6a9a 26bb 9f28 37bb 8925 ee3b 894e 673d
00000260: 6543 bfbb e584 71bc be9d 123c e27d 2dbc
00000270: 7074 6f3c ebac f8bc 9de8 a33c 1822 433c
00000280: 0083 0b3c a8fe c13b 707d 45ba 16ec 033c
00000290: 0745 50bc c37a b33c b296 00bd 4ddb 07ba
000002a0: 1baa a63c 3d78 b33b 9936 89bc ec4c fabb
000002b0: c8fb a8bc 36f2 1fbd cf14 003d 56d9 04bd
000002c0: 22af 763b 24b0 7d3c 10ee 843c 7919 b6bc
000002d0: 95f0 273d 00be af3a 48ff 0ebd f508 ba3b
000002e0: 2943 9c3c 2a64 3dbc 2927 b4bc 1eed af3c
000002f0: 1bc7 9cbb ab83 0d39 ffe4 7dbc 8914 b2bc
00000300: 4330 283d 8451 a93b 9d28 06bd 6bb0 79bc
00000310: 3a1c d6bb eb78 563c 9503 b3bb 201a 21bd
00000320: 3c15 0b3d 1652 973c de7c 683a ec6a 173c
00000330: f619 083b 1842 a43c 37c0 ee3c 20d2 723c
00000340: 42fa afbc 0a30 4d3d d599 a7bb 4a73 453c
00000350: fd46 083c b6e6 a5bc 7a3e 063d f51d 9e38
00000360: 6b5a c33c 2c9e eabc 1962 47bc 4f39 b93a
00000370: 77f3 053b b472 56bb 26c9 e1bb ebfd 99bc
00000380: 3ae7 b3bb d9d9 5abc 05ad a5bb e67c 94bb
00000390: 99d5 003d 8f61 963c e2c7 dcbc 982c a3bc
000003a0: 92d9 943c 1846 bf3c 85d6 893c 016c f33c
000003b0: 35c9 87bb 293d 413d 81a1 67bc 89ab 703c
000003c0: 710e 93bc cf69 4dbd 1c95 123b 1364 533d
000003d0: 8693 a4ba 7651 2c3c 4f1d 90bc ab6d 103d
000003e0: 8915 2cbd 69d5 7abb d941 2d3d caf2 b1bb
000003f0: d30f 833c f617 52bd e47d ff3c 2d93 2a3c
0.010096807 -0.0024907943 0.020093597 -0.03914821 0.030760726 0.022056006 0.017077018 0.012569099
0.0024475108 0.01580576 0.007008185 -0.02381092 0.0002788343 0.019746905 0.029874474 0.008778329
0.00560911 -0.0037412709 0.065764375 0.012840366 0.07111192 0.03259111 0.02440198 -0.006925536
0.0063717044 -0.029577091 0.013365324 0.01685124 -0.03473037 -0.017576447 -0.009514476 -0.017402355
0.019325158 0.05299332 0.040155392 0.009724177 -0.00023786614 0.021855816 0.048181187 0.021187821
-0.024861578 0.036129903 -0.008238828 -0.017821006 -0.027805464 0.06197543 -0.01962174 -0.008569792
-0.0054874253 -0.0009075434 0.028452255 -0.028726978 0.01943518 0.0032014803 -0.00013031223 0.0051803314
0.03939785 -0.007458415 -0.011540308 0.035677616 -0.0059980024 -0.017350879 0.0054188324 -0.0022937509
-0.026066642 -0.008197748 -0.005547835 -0.025878988 0.035826437 0.019474471 -0.012091992 -0.033952273
0.035735946 -0.008239183 -0.026473684 -0.0022193955 0.015473289 -0.018923558 -0.0011967663 -0.016295552
-0.00014123468 -0.009822133 0.0037379544 -0.0026483722 0.034289423 0.024380567 0.021493537 -0.01509709
0.039321844 0.0060014706 -0.0077657397 0.010459649 -0.031540167 -0.016166614 -0.010329494 -0.024452709
-0.020846989 0.01484471 0.031667735 -0.04368128 0.00028404157 0.027503913 -0.017136998 -0.029037708
0.0036875769 -0.0063904733 -0.01292583 0.045994222 0.011173404 0.04005078 -0.010958339 0.012102609
-0.008860923 0.007065793 -0.014766483 -0.013625015 0.04483651 -0.008849573 -0.01491538 -0.013274532
-0.0025997018 0.009858844 -0.0052088373 0.022015274 -0.007053109 -0.024095347 -0.0020049629 -0.03074554
-0.020764668 0.02342706 0.019124247 -0.017604934 0.010129345 0.02091351 0.027085138 -0.016867338
0.0009143062 -0.0009681916 -0.01310938 0.006444577 -0.026170086 -0.006595111 0.012870931 -0.012878684
0.03142602 -0.017281486 0.014196505 -0.019279316 -0.0025421628 -0.0027947796 0.007267658 0.05647138
-0.0058368915 -0.014741157 0.0089487415 -0.010589095 0.014615163 -0.030355891 0.02000838 0.011909984
0.00851512 0.00592025 -0.0007533645 0.008051893 -0.01271177 0.021909123 -0.031393714 -0.00051825197
0.020344784 0.00547698 -0.016749667 -0.0076385643 -0.020627871 -0.03904935 0.031269845 -0.03243383
0.0037641008 0.01548389 0.016226798 -0.022228943 0.04100092 0.0013408065 -0.034911424 0.0056773373
0.019074993 -0.0115595255 -0.02199133 0.021475371 -0.0047844774 0.00013495858 -0.015496491 -0.021738308
0.04106165 0.005167188 -0.032753576 -0.015239815 -0.0065341266 0.0130903525 -0.0054630735 -0.039331555
0.033955798 0.018471759 0.00088687043 0.009241801 0.0020767427 0.020051047 0.02914439 0.0148206055
-0.021481637 0.05009464 -0.0051147738 0.012051413 0.008317706 -0.020251613 0.032774426 7.539607e-05
0.023846826 -0.028639875 -0.012169384 0.0014131459 0.0020439306 -0.0032722177 -0.006890434 -0.018797835
-0.005490211 -0.013357603 -0.005056026 -0.0045314906 0.031453703 0.018357066 -0.02695078 -0.019918725
0.018170152 0.023348853 0.016825924 0.029714586 -0.004143859 0.047177467 -0.014137627 0.014689335
-0.017951222 -0.050149735 0.0022366708 0.05160911 -0.0012556172 0.010517469 -0.0175921 0.035260838
-0.042012725 -0.0038274175 0.042299125 -0.005430554 0.015998757 -0.051292382 0.031187959 0.010411066
