checkpoint/perturb/10/NGD/mlp_epoch491_seed12.pt (torch, 67303 bytes, 3 tensors)

fc1.weight f4 [4096, 2]
00000000: 9732 07be b16d 00be 5a5c af3e c360 eabe
00000010: 9688 63bf 868d b4be a528 abbf 6fac 053f
00000020: 664a 8ebf a194 37bf d573 853f 1721 a0bf
00000030: feba 02bf a7f6 c4be 88cc fabe f3c8 073f
00000040: d75d fcbe d26a 86be 690a 25be e64f 56bf
00000050: e0b1 a5bf 4034 86be 0ade 8abf ca7d 403f
00000060: 541c 2fc0 5c8e f43f dd24 fc3e 072c 31bf
00000070: d4d0 31bf ef82 59be e926 abc0 dbc1 29c0
00000080: 261a febd 6151 cc3e 3613 b8be e4a4 ea3e
00000090: 5c97 8abf bcb7 19bf afe6 03be 1a45 e43e
000000a0: 5d49 5fbf 6e90 2a3f a6ce 21c1 87c9 b9c0
000000b0: 65b3 70bf 7e07 393e b9c5 0dbf b391 c03f
000000c0: a3e6 53c0 11c6 ca3f 200e 65bf 40a0 2fc0
000000d0: 57ed 303e eff6 7c3f 1204 333f 24d8 30bd
000000e0: 3953 2c3f 8cf1 66bf 5f7c f4bf 7cdb 7fbf
000000f0: d678 b4c0 a25c 4340 33fa ebbf babd ffbe
00000100: 7c9f c5bf 96f8 473f ba4c 943e a5d5 82bf
00000110: dab5 00c1 6f62 85c0 979e 4abf 180d 2dbe
00000120: 6b03 9bc1 8701 1dc1 ed5f 9d3d c862 a2bf
00000130: 9cf5 9e3f ad41 9dbe 2ae3 34be e337 3cbf
00000140: 0de5 1abf 67e3 363e bbf5 c8bf 79b1 7b3e
00000150: 4b4f 81bf 7b06 32be 9217 fabe 2c81 95bf
00000160: 4bc6 8dc2 6e9f 2ac2 5caa 17bf efd4 35bf
00000170: b564 56c2 d29f dbc1 0173 6ebf 9a62 dbbf
00000180: c6f8 d13e 1a43 563e 9bf8 453d 7635 44bf
00000190: a7e5 a6bf f4b4 e9bf a5c4 97bf 5b85 34bf
000001a0: 1f9f e7be 42ab e1be 98fe 70c1 929d 86c0
000001b0: 741f 8bbf 178d a63e 2dc3 94be 105a f1be
000001c0: 3d7d d2be 6b1c 14bd 144b 41bf c3ff 38be
000001d0: 6679 69c3 dd64 08c3 a91e 8bc0 9406 31bf
000001e0: c512 bfbd b23c 203f 7690 15c0 0b12 12be
000001f0: 3677 283f 5e6d 48bd 9990 a7be bc7f 06bf
00000200: 8d72 ccc0 ce4a 14c0 4b15 31c1 c5d5 92c0
00000210: 4771 babf b242 dbbe da81 b6be f494 05bf
00000220: d59d 873e 306b e1bf c1be 54c3 2e02 eac2
00000230: 484f c43e 7a55 b8bf b84c c5be 9a30 39bf
00000240: cd8e e7c1 43cd 86c1 1dad a0c0 e8ea 1ebf
00000250: dc9b 753f cde1 83be a642 21bf c150 e03f
00000260: 831a fcbf d216 99bf 014f 563f 5b50 e83e
00000270: d3a0 1dbe f534 b63e df07 dc3f d03c e13f
00000280: e045 5cc0 9e02 e8bf 8270 9cbf c9c2 703e
00000290: 7ec0 a0be 8daa 2e3f 6e97 b6be 1497 bf3f
000002a0: e4fe 0fbd 51eb 833f 40cf a3bf c17a 87be
000002b0: c841 1dbe 6749 513f cca4 d1c2 1f4b 0fc3
000002c0: aefc 3abf 3916 6a3f 4649 a4bf f1cf 873f
000002d0: e515 9bbe f09a 5abf dd68 85c1 3405 a9c0
000002e0: d805 acc4 dde2 39c4 cc39 003f 41ba d2bd
000002f0: a7c4 ae3e 394c 923f 0d75 42c4 a8d8 cfc3
00000300: b5e1 49bf 525e 553f 8d47 93bf 8698 17bf
00000310: 3d56 4dbf 58dc 9fbf 68b3 aabf 0a91 813d
00000320: 2277 95c0 fc93 3440 0624 93bd 4984 59be
00000330: 25a3 51c5 3c79 e2c4 b2b6 acbc b003 2bbf
00000340: 4e22 35c2 722b 60c1 8f9f 02c5 2744 8dc4
00000350: 41af 06c0 2a89 8cbf d7e1 55c4 2b0e e7c3
00000360: bdb5 03c0 a0e6 9abe d4e4 cfc1 fdfa d3c0
00000370: be6a 06c0 cdf0 0940 bf04 253f 66f2 3abf
00000380: 9eff 4cc0 2cf4 20bf 1a42 cfbf 9ef8 103f
00000390: 761f 54c5 cc04 e5c4 a3b5 78bf 1c92 bbbe
000003a0: 81e2 29be bfa7 ffbf 07af ce3e 1146 993d
000003b0: ab0b 443f e2e2 99bf a8f8 e6bf c013 48be
000003c0: e7b8 3ac5 d8b2 c9c4 5ec1 e2bb 9d78 93bf
000003d0: 5721 27bf 9bd4 2fbf 7301 5ec2 2939 8ec1
000003e0: 1d2f 923d f5b3 b83d 9364 b83e 995c 82be
000003f0: 0a0d 573f ad1a 28be 1daa ebbf 6b38 c93d
-0.13202892 -0.12541844 0.34250146 -0.45776948 -0.8888029 -0.35264224 -1.3371779 0.5221624
-1.1116455 -0.71711165 1.0425974 -1.2510098 -0.5106658 -0.3846943 -0.4898417 0.53041
-0.49290344 -0.26253372 -0.16117252 -0.83715665 -1.2944908 -0.2621174 -1.0849011 0.7519194
-2.736104 1.9105945 0.49246874 -0.69207805 -0.6945927 -0.21241353 -5.3485 -2.652457
-0.12407331 0.39905837 -0.35952157 0.45828927 -1.0827441 -0.6004598 -0.12880968 0.4458397
-0.8722132 0.6662663 -10.112951 -5.8058505 -0.94023734 0.18069264 -0.55379826 1.5044464
-3.310952 1.5841695 -0.8947468 -2.744156 0.17278038 0.9881429 0.69928086 -0.043174878
0.6731449 -0.9021232 -1.9100455 -0.9994428 -5.6397505 3.0525289 -1.843573 -0.49949437
-1.5439296 0.7811369 0.28964788 -1.0221449 -8.044397 -4.168266 -0.7914824 -0.16899526
-19.376669 -9.812873 0.07684312 -1.2686396 1.2418704 -0.3071417 -0.17664781 -0.73522776
-0.60505754 0.17860185 -1.5699991 0.24579419 -1.0102323 -0.17385285 -0.48846108 -1.1680045
-70.88729 -42.655693 -0.5924432 -0.71028036 -53.598347 -27.453037 -0.9314423 -1.7139466
0.41010112 0.20924035 0.04833279 -0.76644075 -1.3038834 -1.8258348 -1.1856886 -0.70515984
-0.45238587 -0.44075972 -15.062157 -4.2067347 -1.0868974 0.32529518 -0.29055157 -0.47139025
-0.41111174 -0.036159914 -0.75505185 -0.18066315 -233.47421 -136.394 -4.3474927 -0.6915066
-0.09329752 0.62592614 -2.3369422 -0.14264695 0.658069 -0.048932426 -0.32727507 -0.5253866
-6.3889832 -2.3170657 -11.0676985 -4.588595 -1.456582 -0.42824322 -0.35645944 -0.5218041
0.26487604 -1.7610836 -212.74513 -117.00426 0.38341737 -1.4401085 -0.38535094 -0.72339785
-28.944727 -16.850225 -5.021132 -0.6207719 0.9594095 -0.2575821 -0.6299232 1.7524644
-1.9695591 -1.1960089 0.837143 0.45373806 -0.15393381 0.35587278 1.7189902 1.7596684
-3.4417648 -1.8125799 -1.2221835 0.23511805 -0.3139686 0.6822899 -0.35662407 1.496798
-0.035155192 1.0306188 -1.2797623 -0.2646084 -0.15357125 0.8175263 -104.82187 -143.29344
-0.7304181 0.9144016 -1.2834861 1.0610334 -0.30290142 -0.85392666 -16.676203 -5.281885
-1376.1826 -743.54474 0.5008819 -0.10289431 0.3413441 1.1429511 -777.8289 -415.69263
-0.78860027 0.83347046 -1.150621 -0.5921711 -0.80209714 -1.2489119 -1.3336 0.06326492
-4.6707926 2.8215322 -0.07184605 -0.21241869 -3354.1965 -1811.7886 -0.02108321 -0.668025
-45.2835 -14.010607 -2089.9724 -1130.1298 -2.1044466 -1.0979359 -855.52875 -462.1107
-2.0579674 -0.30254078 -25.986732 -6.624388 -2.100265 2.1553223 0.64460367 -0.7302612
-3.2031016 -0.62872577 -1.6192048 0.5662936 -3393.9663 -1832.1499 -0.97152156 -0.3663491
-0.1659031 -1.9973067 0.4036791 0.07484067 0.76580304 -1.2022364 -1.8044634 -0.19538784
-2987.5564 -1613.5889 -0.006920024 -1.1521183 -0.6528525 -0.68683785 -55.501415 -17.77791
0.071378924 0.09018699 0.36014232 -0.2546127 0.8400427 -0.16416426 -1.841129 0.09825214

fc1.bias f4 [4096]
00000000: 89bf cabe 81be 843f 1d4e e5bf 8833 d6be
00000010: bf45 3abe 3eaf 96bf 8857 c2bf 0343 67bf
00000020: 70a0 dfbf 0ae5 abbf fc4b 34be 18a5 92be
00000030: b605 5ebf bbf7 bbbf ad18 71bf 2306 443e
00000040: b9f2 58bf 4c6d 54bf 5f06 74bf 0238 13bf
00000050: f30d 3cbf b170 c0be 6122 793d d616 c2bf
00000060: 8589 f53e f1a1 8dbf 93e4 e8bf 82d6 34bf
00000070: 1972 65bf f987 93bf 7a1b 053f 26cf ebbe
00000080: 61af a53d 4612 1fbf 6330 cc3e 82ba 3cbf
00000090: 48ae 62be 1837 53bf 1810 aebf 1988 08bf
000000a0: c3d4 a0be 5137 43bf 0c77 e4bf d9de 95bf
000000b0: 6abb d23e 80ed a7be 3332 a43d 09d3 45bf
000000c0: 8f50 55bf dea8 afbf 6b0d bb3e d822 27c0
000000d0: 347e 8dbf 20c9 ac3d eb4d b5bf 9e9e 2dbf
000000e0: 3367 b2bf 6d42 a83e 6417 3fbf e233 29bf
000000f0: 9f71 b5bf d6e4 fd3e eb7a 3fbf 42cc 3fbd
00000100: b8b6 293f 29e7 f43e 891c 1a3f 5cdf 1bbf
00000110: 07a8 9ebf 3abf 0ebe f131 83bf df75 01bf
00000120: 2a07 1b3f 9114 4e3f 937a 9fbf bcd8 a7bf
00000130: f37d abbf 2b32 cebf 84fa bebf acdf 3ac0
00000140: 0a86 f3ba 266a d0bf b245 6abf 62fc e0bf
00000150: ba31 b6bf c87f 2ebe 4d1f 43bf ffa3 74bf
00000160: 4606 4ebf 8533 84bf 1291 a5bf 1cd2 29bf
00000170: 011c 8e3f c9da 6abf b70e abbf 7cb5 ed3f
00000180: 4201 82bf 773e 44bf f68f 88bf ff85 a43e
00000190: 820c 253e 864b 1cbf 88fb 10bf f7fb b0bf
000001a0: 4939 65bf a9ce 173f 38db 18bf d360 5d3f
000001b0: aa77 a9bf c4ec 853f d5e8 bcbf 7dc8 45bf
000001c0: 17b3 40bf 3826 39bf 99a6 0c3f 0a73 cdbf
000001d0: 3f72 67bf 13e2 c4bf 275a 9cbf e1bb c03d
000001e0: f55f 433c 7313 82bf b64d 20bf 18dc f9be
000001f0: b494 90bf 1741 89bf 7566 c2bf 3758 d23d
00000200: 4e7d dbbf f094 0a3e 52d9 0d3f 1313 20bf
00000210: 9d63 a4be 0e39 bd3b 6aed afbd 9a89 22be
00000220: b1c7 bdbe df16 66bf 7f2f 8d3e 3dad c13e
00000230: aba9 ab3d 20e1 93bf 2af0 fabf 68a9 0bbf
00000240: 0735 1fbd 02d8 84bf 6752 afbe 52be 68bf
00000250: d86f a4bf ea6f 2fbf 8ad1 69bf 7f43 8cbf
00000260: 4e7f adbf ed01 1ebf 7148 04be 3329 5a3e
00000270: efb6 bcbf 6558 8cbf 8a47 8dbf 96c1 c5be
00000280: eafd adbf 816c 2abd 95a3 5ebf 2609 1cbf
00000290: d123 c0be 0549 6cbf 9026 ffbe 1f5a 54bf
000002a0: 4936 64be d556 0d3d e051 60bf a752 463e
000002b0: 45c8 77bf c95a 40bf 1c0b 083e 7b56 a1bf
000002c0: 8b2f 8fbf 7e42 a2bf bcca adbf e442 88bd
000002d0: d610 aabf fcaa b4bf 9612 e9be f7f8 00c0
000002e0: 5582 c7bf 84f9 7fbf 28a0 80bf 4ce6 54bf
000002f0: 981d bcbd 3850 d03e cff2 863e e02c b6bf
00000300: 03e4 1cbf 27f6 cc3f bc04 b53d 6ee6 ecbf
00000310: 96f9 9ebf 7fad 7fbf 4df4 203f 7f5e 05bf
00000320: d50c 7dbf df6f 87bf 592f fd3e adba 23bf
00000330: d102 41bf 457f 51bf a0e0 c5bf 40ea 09be
00000340: 2947 8bbf ae12 b0be 0cd7 1abf fbe2 ddbc
00000350: 71c6 1ec0 fe4b 62bf 89e4 cabf 8043 04bf
00000360: 3f31 25c0 81dd 95bf 10d7 e3bf ff1f 0dc0
00000370: 7370 48bf eb63 a3bf 1c95 c03e ebb6 fdbd
00000380: 6704 82bf efbe a8bf d1e6 19bf 65a2 f0be
00000390: 8598 bfbf 1840 8cbf fd27 dcbf 0b0f 0f3f
000003a0: f8ff 77be 535f 79bf d382 eabe d0a4 58bf
000003b0: bf90 8fbf 471e fa3e a7b0 03bf 5ad5 1c3e
000003c0: 89e4 b1be bd88 d6bf 4ea9 7bbf cb96 9abf
000003d0: cae2 96bf 6452 30bf 1287 88bf a414 aabc
000003e0: fee9 7fbf f869 7a3e 81c1 0bbf 2367 eebf
000003f0: f57f 6ebf 7da1 f8bd 3399 81bd c64f 9fbe
-0.39599255 1.0370637 -1.7914463 -0.4183619 -0.18190669 -1.177223 -1.5182962 -0.90336627
-1.7470837 -1.3429272 -0.1760711 -0.28641582 -0.86727464 -1.4684976 -0.9417828 0.19142966
-0.84745365 -0.82979274 -0.9532222 -0.57507336 -0.73458785 -0.37585977 0.060823802 -1.5163219
0.47956482 -1.1065046 -1.8194755 -0.7063981 -0.89627224 -1.152587 0.5199505 -0.4605648
0.080900915 -0.6213726 0.39880666 -0.7372209 -0.22136796 -0.8250594 -1.3598661 -0.5333267
-0.31412324 -0.7625628 -1.784883 -1.1708633 0.4115861 -0.32798386 0.08017387 -0.7727514
-0.8332605 -1.3723409 0.36533675 -2.6115017 -1.1054139 0.08436799 -1.4164404 -0.67820156
-1.3937744 0.3286318 -0.74645066 -0.6609479 -1.41753 0.4958865 -0.7479693 -0.046825655
0.6629443 0.4783261 0.6019979 -0.60887694 -1.2395028 -0.13940135 -1.0249616 -0.5057048
0.60557806 0.8050013 -1.2459282 -1.3113017 -1.3397812 -1.610906 -1.4920201 -2.9199018
-0.0018579375 -1.6282394 -0.91512597 -1.7577021 -1.4233925 -0.17040932 -0.76219636 -0.9556274
-0.8047832 -1.0328223 -1.2934897 -0.66336226 1.1102296 -0.9174009 -1.3363866 1.857101
-1.0156634 -0.76657814 -1.0668933 0.3213348 0.16118053 -0.6105274 -0.56633806 -1.3826894
-0.89540535 0.59299713 -0.597095 0.8647587 -1.3239644 1.046288 -1.4758555 -0.77259046
-0.7527327 -0.7232394 0.5494171 -1.6050732 -0.904087 -1.5381492 -1.2215012 0.09410835
0.011924733 -1.0162185 -0.6261858 -0.4880073 -1.129538 -1.0722989 -1.5187517 0.10270732
-1.7147615 0.13533378 0.5540973 -0.62529105 -0.3210725 0.0057746237 -0.08590205 -0.15872803
-0.37066415 -0.8987865 0.275753 0.37827483 0.08381971 -1.1553078 -1.9604542 -0.5455537
-0.03886893 -1.037842 -0.34242555 -0.90915406 -1.2846632 -0.6853014 -0.91335356 -1.0958098
-1.3554475 -0.6172169 -0.12918259 0.21304779 -1.4743327 -1.0964476 -1.1037457 -0.38624257
-1.3593113 -0.041607384 -0.86968356 -0.6095146 -0.37527326 -0.9229892 -0.49834108 -0.82950014
-0.22286333 0.034506638 -0.8762493 0.19367467 -0.9678996 -0.7513853 0.13285488 -1.2604517
-1.1186384 -1.2676542 -1.3577495 -0.066533834 -1.3286388 -1.411468 -0.45521992 -2.0151956
-1.5586649 -0.99990106 -1.0048876 -0.83163905 -0.09185332 0.40686202 0.26357123 -1.4232445
-0.6128542 1.601262 0.08838794 -1.8507822 -1.2419918 -0.9987411 0.62872773 -0.52097315
-0.98847705 -1.0581015 0.49450186 -0.6395672 -0.7539492 -0.8183482 -1.5459175 -0.13468266
-1.0881091 -0.3438925 -0.60484385 -0.027085772 -2.480862 -0.88397205 -1.5850993 -0.51665497
-2.5811307 -1.1708223 -1.7800007 -2.205078 -0.78296584 -1.2764868 0.3761376 -0.123884045
-1.0157593 -1.3183268 -0.6011782 -0.46998897 -1.496842 -1.095706 -1.7199703 0.5588233
-0.24218738 -0.9741108 -0.45802936 -0.84626484 -1.1216048 0.48851225 -0.51441425 0.15315762
-0.3474467 -1.6760479 -0.98305213 -1.2077268 -1.178796 -0.6887572 -1.066622 -0.020761795
-0.9996642 0.24454486 -0.5459214 -1.8625225 -0.93163997 -0.121401764 -0.063280486 -0.3111555

fc2.weight f4 [1, 4096]
00000000: 7fd3 ffbb e50f 5dbc f594 9c3c 20e7 32bb
00000010: ed24 cfbc 4ad7 d53c bcd5 0f3d c539 ce3c
00000020: 8e52 b5bb 1765 9cbb eb5c 383c 43d3 553c
00000030: 8db4 043b 9e40 92bc b8fe fa3c 6773 1a3d
00000040: 305d 48bc 4878 783c e1e1 dbbc 98fe 923b
00000050: 8cde 42bc b52b a33c fafc ecbb 0640 803b
00000060: 89e7 b6bc dd2b 683c 0bd5 2c3b 174f caba
00000070: c369 f2bb 5f07 f7bb 317e 3abd 4517 a0bc
00000080: a4eb 793b 2984 57bb f74e d03b 5fb3 033d
00000090: 9af6 393c a550 213b 52dc e13c 119e fbbb
000000a0: 4505 c73b 7796 a03c e62a 673c 63da cb3b
000000b0: f1a7 d53c e96d 27bc 5a39 843c 58e0 f03c
000000c0: 7929 003d 2b10 dfbb 2c1d 81bc ed27 84ba
000000d0: 06f8 87bc aa02 643c 22cb 243d cebd 783b
000000e0: 01b4 18bb d976 5abc ddc1 1f3d 2a50 c4bc
000000f0: 0a47 113c 37ad abbc 013f 873b fc6b 17bc
00000100: bf8f d2bc 7726 26bd 7990 bb3c ceab 313d
00000110: 61a4 da3c d7ea a63c ef0c f5bc c69b 853c
00000120: 20eb 133b a33d 1fbc 40ca 543d 17e3 8ebc
00000130: ae72 ae3c 5813 9ebc 256f 543d 7b94 ff3c
00000140: b5ea 22bd 7e02 80bd 3f90 c0bb d5ee 2d3c
00000150: 1de2 6d3b 19b2 153c 8f84 043d a731 193c
00000160: 733f a23c 6184 543c 0f80 80bc 7a96 03bc
00000170: d8ba 9a3c 9844 9abc b097 ffbc 8527 2d3c
00000180: 0d8f 38bc 3250 d93b 3e24 ef3a 3d13 51bd
00000190: ffdd 83ba 2e33 9f3b fe6e 3c3d 7a31 723c
000001a0: 6b0a 9dbc 5737 ea3c 2fa2 88bc f14c 403c
000001b0: f616 c2bc eb33 2dbc 0120 21bd e55f 21bc
000001c0: 70df f3ba 3a0c caba 8f8d 3e3d 15a6 f73b
000001d0: 9ba7 4d3c b5a9 1fbd 2d8a a73c 7811 99bc
000001e0: a3a8 273d fd56 093d f5a7 e5bb cef8 bfbc
000001f0: 9da6 00bd 0536 02bc f564 363c f116 9cbb
00000200: 0e47 03bc 74ac 4dbc c94b d0bc 7120 8c3a
00000210: 73ae c73c 6266 073d b279 62bb 1789 1f3c
00000220: 00ad 223a fb00 9b3a 7780 853c d3cb 783d
00000230: 5861 66bd 28b4 40bd 66b9 34bc a9ec f03b
00000240: 2160 05bc a12a c0bc e1e4 42bc db11 e83b
00000250: 5e74 06bd a84b 85ba b164 16bd 2bc6 393c
00000260: 7ffc 463c 7588 423c 77a5 adbc 7e9f 563c
00000270: 3f61 9e3b f0d4 d7bb 26e9 413c 50f2 eb3c
00000280: c765 a0bc fed4 07bd 587b f2bb ab2d 233c
00000290: 65ab 10bc b058 063d 0ea7 13bc cc4e 273c
000002a0: e641 903b b40b 46bc 82d8 02bc 316e 8c3b
000002b0: 4e63 14bc 40f8 63b9 586e 87bc fbeb d3bb
000002c0: 1e5d 923b 424d cf3b 265c 0b3c 2f90 843b
000002d0: 2198 ad3b d421 c53b 7fb3 983c b1a2 7f3c
000002e0: 906c c63c 21df 213d 2f78 7d3c c9df a33c
000002f0: 6012 053b 4ca7 48bc 5917 bebc 5dfb ec3a
00000300: d03a 31bc c0bf 0e3c 6bc2 0f3a 7249 27bb
00000310: b8a7 553c 1623 a13c 1ee4 0ebc 583d 79bb
00000320: ed25 55bb 7a44 513b b49b 98bc 6ffe b03c
00000330: d72f 38bc 9769 41bc 9477 503c aa02 023d
00000340: faea fa3a c204 033c 530c e1bc f0ed 463d
00000350: 0177 ca3c fa74 81bc a9e6 bcbc 764a 20bc
00000360: 0c13 6c3c a337 023c 5d9f 71bc 717e 53bc
00000370: 7122 25bc 7103 b13c 6989 923a 6632 bc3b
00000380: 21a1 8cbc 5ff1 05bd 8d73 4abc 909f 103d
00000390: 179b c13c 6734 9dbc ca42 043c 75e5 4e3c
000003a0: 9d40 a63c 1759 64bc c4b0 9c3c 519d eb3b
000003b0: 1910 85bc 449b 8f3c ced5 8f3b 857b 393c
000003c0: 0cef dd3c bd7c b3bc 0073 3e3b da0d a2ba
000003d0: ec27 b33c 7297 1d3d 8507 f3bc 29aa 8fbc
000003e0: dcf6 67bb bae5 5fbb 18bf 113d 7d77 0b3c
000003f0: 23f8 0e3c cc1b dfbc c2ff 753b c7b9 a93b
-0.0078071947 -0.013492559 0.019113997 -0.0027298406 -0.025286162 0.026103634 0.035115942 0.025174031
-0.005533523 -0.004772793 0.011252622 0.013050857 0.0020249218 -0.017853078 0.030639037 0.037707713
-0.012229249 0.015165396 -0.026841106 0.0044859163 -0.01189388 0.019918302 -0.0072323056 0.003913882
-0.022327201 0.014170614 0.00263721 -0.0015434948 -0.0073978617 -0.0075387205 -0.0455305 -0.019542346
0.0038134838 -0.003288517 0.0063570696 0.032153483 0.011350298 0.0024614718 0.027570877 -0.007678755
0.006073626 0.019602997 0.014109349 0.006221102 0.026081057 -0.010219076 0.016140629 0.02940385
0.03128955 -0.0068073473 -0.01576098 -0.00100827 -0.016597759 0.013916651 0.040232785 0.003795493
-0.002330065 -0.013334 0.03900324 -0.023964006 0.008867035 -0.020956619 0.0041273837 -0.009242054
-0.02570331 -0.040564027 0.022896038 0.043376736 0.02668971 0.020375652 -0.029913394 0.01630963
0.0022570565 -0.009719285 0.051950693 -0.01744227 0.021294918 -0.019296333 0.05186381 0.03119873
-0.039774615 -0.06250475 -0.0058765705 0.010616024 0.0036298104 0.0091367 0.03235298 0.009350217
0.019805646 0.012971015 -0.015686063 -0.008031482 0.018887922 -0.018831536 -0.03120026 0.010568504
-0.011264575 0.0066318745 0.0018245054 -0.051043738 -0.0010060667 0.004858396 0.046004288 0.014782304
-0.019170007 0.028590841 -0.016678898 0.011737094 -0.02369259 -0.01057146 -0.039337162 -0.009849523
-0.0018606018 -0.0015415021 0.04652172 0.0075576403 0.012552167 -0.038980205 0.02045163 -0.018685088
0.04093231 0.033530224 -0.0070085474 -0.023434069 -0.031408895 -0.00794745 0.0111324685 -0.004763477
-0.008012546 -0.012553323 -0.025426762 0.0010690821 0.024375176 0.033056624 -0.00345574 0.009737275
0.00062055886 0.0011825854 0.016296608 0.060741257 -0.056245178 -0.04704681 -0.011030531 0.007352431
-0.008140595 -0.023457827 -0.011895389 0.0070822067 -0.03282582 -0.0010169642 -0.03671712 0.011338751
0.012145161 0.011873354 -0.021197064 0.013099549 0.00483337 -0.0065866634 0.011835372 0.028802067
-0.019579781 -0.03316211 -0.0073999576 0.009959619 -0.008829926 0.032799423 -0.009011997 0.010211658
0.004402387 -0.012087751 -0.00798619 0.004285597 -0.009056879 -0.00021740887 -0.016532108 -0.00646734
0.004466667 0.0063263485 0.008505857 0.0040455083 0.005297676 0.0060159955 0.018640278 0.0156027535
0.024221689 0.039519433 0.0154705485 0.02000417 0.0020305142 -0.012246918 -0.023204492 0.0018080283
-0.010817245 0.008712709 0.00054839876 -0.0025525955 0.013040476 0.01967005 -0.00872138 -0.0038030948
-0.0032523826 0.0031931684 -0.018628933 0.021605698 -0.011241875 -0.01180496 0.012723822 0.031740822
0.0019143515 0.00799674 -0.027471697 0.04856676 0.024714949 -0.01580285 -0.023059206 -0.009783378
0.014408838 0.007947835 -0.014747468 -0.012908564 -0.010079012 0.021608086 0.0011179867 0.0057433126
-0.017166676 -0.032700893 -0.012356651 0.03530842 0.023633523 -0.019190026 0.008072564 0.012627949
0.020294482 -0.013937256 0.019127257 0.0071903844 -0.016243028 0.017530091 0.004389501 0.011320953
0.027091525 -0.021910066 0.0029060245 -0.0012363747 0.021869622 0.038474508 -0.029666672 -0.017537193
-0.0035394942 -0.0034164027 0.03558263 0.008512375 0.008726153 -0.027234934 0.0037536477 0.005179617
