checkpoint/perturb/10/NGD/mlp_epoch492_seed5.pt (torch, 67297 bytes, 3 tensors)

fc1.weight f4 [4096, 2]
00000000: f6d0 eb3f b1d5 043f 4d20 dbbf bec6 d9bf
00000010: 2240 0140 1d88 89be 38d8 05be 7efd b7bf
00000020: 1e11 b83e ad6a 89bc 6225 adbf 7517 3bbf
00000030: cbe2 673f 4048 d4be 4dbc 15bf 2e47 48bf
00000040: b11a 2b40 462e 9d3f 2d43 acbe 3b0e 77bf
00000050: 09c6 04be 100d 1abf f67a 143e 2172 19be
00000060: c4f2 dfbe fb7b 473f 17f1 6ebd 13f4 01c0
00000070: c927 f43f 582d f23e 4d4a 64be e4a1 e23f
00000080: 98f7 85be 3f7e 3bbf 788f b03f 91be 133e
00000090: 9c23 823f 3703 ab3e 4f58 2e40 93ce 4ac0
000000a0: 04c4 76bf b482 d33e 0f52 0c3f bbce d1bf
000000b0: ff5b e8bf d096 53be 8ea5 06bf 0f4f d9bf
000000c0: c8e9 aa3f 6a87 bc3e ee48 d23e 0f5b 9b3f
000000d0: 6e49 b6bd 3a4f c23f 3991 91bf fe20 52bf
000000e0: 1478 e5bf 9a8f 603f b908 ea3f 4a8a 2cbe
000000f0: dd8a a7bf 42ba 10bf b00f 0a3f 3974 5d3f
00000100: 281e b73e 559c 0940 e676 9840 c797 a93f
00000110: af16 5cbf 9bb6 973f b0bf 60bf 6619 3ebf
00000120: b9fa 903e a3c2 bfbf 6c46 9ebe 14a3 1abf
00000130: d5ce fbbf ea09 0cbe cce8 993e e14a 40bf
00000140: eecd 50bf 118a c4be 7e70 2540 853a 5cc0
00000150: f0a7 94bd 4e0b 0cbf b0e0 e5bd 10a0 99bf
00000160: 31ed 80bf fb44 693f 512e 50bf 4982 1fbe
00000170: 01c5 e33f aa5a 86bd c5cf e8bf b300 32bf
00000180: 9413 55bf 4203 3ebe 2efb 65be 15fd c1bf
00000190: 950e 64bf 0bfd 84be 588b 6dbe 79cc e33e
000001a0: 13ee 823e 29d3 853f a55c 573c 0571 e8bf
000001b0: cff8 3abe 966e 073e a2d7 003f 82fa 63be
000001c0: cf21 e5bd a83a 57be 0f17 0cbf 3f02 bfbf
000001d0: 62b1 07c0 ea32 6abe 4942 c0bf 6318 a9bf
000001e0: 5af1 cfbf eead 993f 5e56 aabf 0795 e73f
000001f0: f55b ba3e 813d 9abe fa29 d3bf 55ba ea3c
00000200: 99e0 c53e 283d 783f 249e 423e 4245 3d3e
00000210: 1a2b 453f 5909 aa3f 40dd 06be cd8f bcbf
00000220: 33cd d8be 13dd 5b3e 088a aac0 9027 a2be
00000230: 17bc 143f 91fa 87be 0e26 5abf 8387 983f
00000240: c09b 9bbf b0fc 8bbc 4d1e fabe 4b14 743f
00000250: 79ab 63bf 581b 3d3f b75e 06bf 3ba6 50bd
00000260: 2dec d5be f59b dfbf 5dec bec1 d392 68c1
00000270: 8403 613f 8678 9a3d 98b7 073e 446d b4bf
00000280: 54c0 99bf 5b8d 1f3f 4b8f a33d 14ad 603f
00000290: 07e2 b6bf 017c 97bf 1285 33be bc0c 653d
000002a0: d4f1 94bf 6641 5abf cfe0 01c2 1f31 acc1
000002b0: fd7c febf 4e0c 0e3f 564a b23e 68a1 df3a
000002c0: 7e17 eabe 62e1 b5be 50c1 ffbe 90d7 ba3e
000002d0: 21b5 773d 4315 a13d 7d24 08bf 60a0 cfbe
000002e0: 2eac 083e d0b3 57be 158c adbe 7885 5cbf
000002f0: 1787 d5be 64f0 cf3e f4d6 713f 3570 efbc
00000300: 41bc 87c0 a086 0fc0 5acc c33e 2532 31bf
00000310: f871 063f 8e71 bfbf 816f 893d 8167 563e
00000320: c7dc eac1 2bf2 8ec1 95b4 173f a1ec 53bf
00000330: 553f 9dbf fa40 523d acb0 5dbf af0f 93be
00000340: ab02 abbe af2d 55bf 43f7 c4c2 d9fc 6bc2
00000350: 155f 80bd 034c a0be 730a eec2 051d 7fc2
00000360: 9960 8fbf 0725 453e d3e6 4ec3 e528 ebc2
00000370: 2501 8d3d aa98 aebf 162e fe3d 6a6c eebf
00000380: edf2 96c0 00bb d9bf 7ca2 0d3f f472 f4be
00000390: 4111 5ec0 2221 843e 7c74 98be dae5 843e
000003a0: 2b3b 43bf 5dee 95bf 1ce5 0cc2 3c3b 9dc1
000003b0: 365b e5c1 8895 41c1 fa78 82bf bd8f 82bf
000003c0: 7304 52bf 3f5c 993f 1b0c cfbd 769a c03f
000003d0: 9d61 1ebf 5b04 d5bf cf77 0abf ede8 8a40
000003e0: 6da4 c1bf 949a c23e d878 583f 7ad6 583f
000003f0: c2f1 35c3 18aa ccc2 4caa 81bf dfee 323f
1.8423145 0.5188857 -1.7119232 -1.7013776 2.0195394 -0.2686166 -0.13070762 -1.4374235
0.3595056 -0.0167745 -1.3527033 -0.7308267 0.90580434 -0.41461372 -0.5849045 -0.7823361
2.673504 1.2279747 -0.33645 -0.9650609 -0.1296617 -0.6017618 0.14500031 -0.14984943
-0.43739903 0.77923554 -0.05833539 -2.030522 1.9074641 0.4730022 -0.22293968 1.7705655
-0.26165462 -0.7323951 1.3793783 0.14428164 1.0167117 0.3340089 2.72414 -3.1688583
-0.96392846 0.41310656 0.5481271 -1.6391214 -1.8153075 -0.20662999 -0.52596366 -1.6977252
1.3352594 0.36822063 0.41071266 1.2137164 -0.08900724 1.5180428 -1.1372443 -0.8208159
-1.792727 0.8771912 1.8283912 -0.16849628 -1.3089253 -0.56534207 0.5393019 0.86505467
0.35765195 2.1501667 4.764514 1.3249444 -0.8597211 1.1852602 -0.8779249 -0.74257505
0.28316286 -1.4981273 -0.30913103 -0.6040509 -1.9672495 -0.13675657 0.30060422 -0.75114256
-0.81564224 -0.38386586 2.584991 -3.4410717 -0.07258594 -0.5470475 -0.11224496 -1.2001972
-1.0072385 0.9112088 -0.81320673 -0.15577044 1.7794496 -0.065602615 -1.8188406 -0.69532317
-0.83233 -0.1855593 -0.22459099 -1.515536 -0.8908475 -0.25974306 -0.23197687 0.44491938
0.2557226 1.0455066 0.013144647 -1.8159491 -0.18258975 0.13225779 0.5032903 -0.2226353
-0.11188089 -0.2101847 -0.54722685 -1.492256 -2.1202016 -0.22870985 -1.5020229 -1.3210567
-1.624553 1.2006204 -1.3307607 1.8092355 0.36398283 -0.3012505 -1.6497185 0.028653303
0.38647917 0.9696832 0.19005638 0.18483451 0.7701889 1.3284103 -0.13170338 -1.4731385
-0.42344055 0.21471052 -5.3293495 -0.3167081 0.580995 -0.26558354 -0.85214317 1.1916355
-1.2156906 -0.017088264 -0.48851243 0.95343465 -0.8893352 0.7386985 -0.52488273 -0.05093978
-0.4178175 -1.7469469 -23.865412 -14.535846 0.8789599 0.07542519 0.13253629 -1.4095845
-1.2011819 0.62325066 0.07986315 0.87764096 -1.4287728 -1.1834718 -0.17531231 0.055920348
-1.16363 -0.8525604 -32.46954 -21.523985 -1.9881893 0.55487525 0.3482234 0.0017061653
-0.45721048 -0.35523516 -0.49952173 0.36492586 0.060475472 0.078653835 -0.53180677 -0.40552044
0.13346931 -0.21064687 -0.33895937 -0.8614116 -0.41704628 0.4061309 0.9446862 -0.02922831
-4.24173 -2.2425919 0.38241845 -0.6921714 0.5251765 -1.4956529 0.06710721 0.20937921
-29.357801 -17.868246 0.5925992 -0.8278294 -1.2284952 0.051331498 -0.86597705 -0.28722903
-0.33400473 -0.8327283 -98.48293 -58.99692 -0.062681355 -0.31307992 -119.02041 -63.77834
-1.1201354 0.19252406 -206.90166 -117.57987 0.06884984 -1.3640339 0.12411134 -1.8626835
-4.717154 -1.7010193 0.55326056 -0.47743952 -3.469803 0.25806528 -0.2977637 0.25956613
-0.7626216 -1.1713368 -35.22374 -19.653923 -28.669537 -12.099007 -1.0193169 -1.0200115
-0.8203804 1.1981276 -0.10109731 1.5047138 -0.61867696 -1.6641954 -0.54089063 4.3409333
-1.5128304 0.3800856 0.8455939 0.84702265 -181.94437 -102.332214 -1.0130095 0.6989574

fc1.bias f4 [4096]
00000000: 2163 88bf 8d36 8dbf 5772 56bf 7b01 00bf
00000010: 2e19 2dbe 0e8b e2bf b714 cd3e 523e 39c0
00000020: 10e2 0ac0 a9af b5bf 392f abbf fcd9 10bf
00000030: a0aa 1dc0 12a2 8ebf 35bc 9a3e b578 753f
00000040: 3d7b eabe 1956 62bf 75f4 733d 5218 c8be
00000050: 2bfe 0c3e daef a3bf 9c7d b0be 3738 9dbf
00000060: 3f03 3abf 614a 04bf b880 13bd 399f 3cbf
00000070: 569b 9fbf 169e f3be 6cec 8fbe f07c b1bf
00000080: 6dde 0abf e9f3 86be 51ae 413f 43e3 23be
00000090: 549e 70bf 36d8 0bc0 2c83 9bbe e609 9ebf
000000a0: eb95 b5bf aa01 1fbe b92a 5bbe 7a44 59be
000000b0: 52b1 5bbe 357c 55bf 3dc4 e3bf 867d 853e
000000c0: 091d 35bf 01a6 6f3e cbda f4be a697 93bf
000000d0: 0ae3 a3bf 5ea4 37bf 84e8 f7be 5908 65bf
000000e0: f0c4 4dbf c85c b5bd 44b6 8dbc d352 24bf
000000f0: 6f59 f9bd bd42 4bbf 5572 77bf 7aef 96bf
00000100: 6a15 95bf 387f a5bf 9451 3abd dc44 59bf
00000110: f6bd eebe 6bb2 013f 9f5e afbf 1cbe efbf
00000120: 25f5 67bf c364 febf 49ec 97bf 8225 09bf
00000130: b35c 15bf 13fa 7cbf 5744 70bf 6b54 a3bf
00000140: 99e0 bdbe 9c85 b6bf 6deb 49bf b8c7 1ebf
00000150: e2f6 efbf a2bc 49bf 97b5 163f dbef 0ac0
00000160: 364d f4bf c29b abbf ad7a fdbe 19f1 ccbe
00000170: 48e3 3dbf f34c 14be 99d3 e3bf 287a fbbf
00000180: c04a a6be 123b a2bf 4b0c 7ebf ea67 59bf
00000190: de65 08bf d038 8bbf bcd0 d1bf 2ecc 15be
000001a0: e129 1bbe 6ce8 a5be 9292 34c0 78e4 95bf
000001b0: edde 76bf ca8a 1cbf 9622 03bf a388 4abf
000001c0: 8d30 a23f 2040 7cbf e543 0ebf 67d7 d2bf
000001d0: 418c 8dbf 2da3 83bf 4c65 82bf 269e 08be
000001e0: c2fc b1bf b056 f2bf b7c1 34bf 9f14 373e
000001f0: e097 a43e 2cb6 a5bf 45ad 6dbf fb5a f3be
00000200: 9281 b13e cfda 23bf 04f7 12bf a811 f2bf
00000210: b166 29bf 2c14 8bbe 0eca abbf ceab 11be
00000220: d66a ffbe b022 79bf f050 2bbf 04a6 96be
00000230: e0b5 c0bf 5167 32bf 9070 0bbf a7e7 353b
00000240: 2179 c7bf 4173 073f b818 863e 2912 103e
00000250: d2fc 76bf cf13 67bf 5c4f d7be 4873 59bf
00000260: 204f 9cbf cbea 35bf 3d8b 84be e882 fcbd
00000270: 1ee1 53be 9e48 a1be c0a8 c8be 333c 7abf
00000280: 4c76 b3bf a90a adbe 1964 5fbf 8f76 61bf
00000290: c926 ddbf 0757 d3be 532d 2d3e 115f fdbf
000002a0: a07c 3dbe b009 ba3e be68 5abf 8fdc 1abe
000002b0: d9a2 85bf f90d bfbe 7186 0bbf 3f21 04bf
000002c0: d70e febd fa52 163f 0514 08bf edd0 12bf
000002d0: 86ec 893e 6e45 69bf b0ec 1fbf f010 01bf
000002e0: 64b2 a83e e99f f7be f226 25bf a265 06bf
000002f0: 733d eebf 8202 0abf f2b7 b7bf aa4e 56bf
00000300: 8273 17be cc8a f2bf 9f48 23bf 446c b5bf
00000310: e2b9 86bd ec24 85bf ec60 82bf 292c 88bf
00000320: 5962 2a3e 8b48 c63e 8f71 31bf 6a02 80bf
00000330: 354b 74bf dba4 f7be d3ac 83bf 2734 36bf
00000340: 4e55 43be 4869 c7bf 48e7 60bf 238b 8fbd
00000350: b4d1 3d3e 09db 3fbf 6dd5 9ebf 5303 68bf
00000360: d58e d1bf 541b 0abf cc59 81bf 926a eebf
00000370: 1753 bcbf b00f 6bbf 30da d2be d53a f9bf
00000380: 3fc0 d23d bce8 a23e 8a4a 4bbe 19bd 0fbe
00000390: 9137 babf 0587 33bf 4c3e 93bf 6964 2bbf
000003a0: d3ba ffbf 0623 4dbf f759 c03d 0ba5 823e
000003b0: 48b5 f03e e5dc 61bf a991 80bf d9e3 53bf
000003c0: 613c 0a3f 3d94 3abe b8cd 2abf 831c 3cc0
000003d0: a690 b7bf 5bed dcbf fd9b c8bf 5d47 87bf
000003e0: e15c 8abe 1401 9fbe f75c e2bd 11cc 743e
000003f0: ec6c 08c0 615e 04bf 194e 7a3e 87b4 0cc0
-1.0655252 -1.1032273 -0.8376822 -0.5000226 -0.16904137 -1.7698686 0.40054867 -2.8944287
-2.1700478 -1.4194232 -1.3373786 -0.5658262 -2.4635391 -1.114321 0.30221716 0.9588731
-0.45797148 -0.88412625 0.059559304 -0.39081055 0.13768832 -1.2807572 -0.34470832 -1.228278
-0.72661203 -0.51675993 -0.036011428 -0.73680454 -1.246928 -0.47581547 -0.28110063 -1.3866253
-0.54245645 -0.26357964 0.7565661 -0.16004662 -0.9399159 -2.1850715 -0.30373514 -1.2346771
-1.4186376 -0.15527979 -0.21403016 -0.21217528 -0.21454361 -0.8339265 -1.7794262 0.2607233
-0.7074743 0.23403169 -0.47823176 -1.1530654 -1.2803662 -0.7173518 -0.48419583 -0.8946586
-0.8037863 -0.08855587 -0.017298825 -0.6418888 -0.12175261 -0.7939871 -0.9665883 -1.1791832
-1.164716 -1.2929449 -0.045487955 -0.84870696 -0.46629304 0.5066287 -1.3700751 -1.8729892
-0.90608436 -1.98745 -1.1868984 -0.5357286 -0.5834457 -0.9881908 -0.9385428 -1.2760137
-0.37085417 -1.4259524 -0.78874856 -0.62023497 -1.8747218 -0.78803456 0.58870834 -2.1708896
-1.9086063 -1.3406909 -0.49507657 -0.40027693 -0.7417493 -0.14482479 -1.779895 -1.9646654
-0.32478905 -1.2674277 -0.9923751 -0.84924185 -0.53280437 -1.0876713 -1.6391826 -0.1462867
-0.15152694 -0.32403886 -2.821446 -1.1710348 -0.9643391 -0.61149275 -0.5122465 -0.7911474
1.2671067 -0.98535347 -0.5557235 -1.6471986 -1.1058427 -1.0284172 -1.0187163 -0.13341579
-1.390526 -1.8932705 -0.70608085 0.1787896 0.3214712 -1.294622 -0.92842513 -0.4753035
0.34669167 -0.6400575 -0.57408166 -1.8911638 -0.6617232 -0.27163827 -1.3421037 -0.14225695
-0.49886197 -0.97318554 -0.66920376 -0.29423535 -1.5055504 -0.696889 -0.5446863 0.0027756484
-1.5583841 0.5291024 0.26190734 0.14069428 -0.96479523 -0.902646 -0.42052734 -0.8494153
-1.2211647 -0.7106139 -0.2588748 -0.12329656 -0.20691344 -0.31500715 -0.39191246 -0.97748107
-1.4020476 -0.33797196 -0.8726211 -0.8807153 -1.7277461 -0.41277334 0.16911821 -1.9794637
-0.18504572 0.36335516 -0.85316074 -0.15123199 -1.0440322 -0.37315348 -0.54502016 -0.5161323
-0.12405174 0.5872036 -0.5315555 -0.57350045 0.26938266 -0.91121566 -0.6247053 -0.5041647
0.329486 -0.4836419 -0.6451255 -0.5249883 -1.8612503 -0.53910077 -1.4353011 -0.8371378
-0.14790156 -1.8948607 -0.63782686 -1.4173665 -0.06578423 -1.0401893 -1.0185828 -1.0638477
0.16639079 0.3872722 -0.693139 -1.0000737 -0.95427257 -0.48367962 -1.0287117 -0.7117333
-0.1907551 -1.5579004 -0.8785291 -0.0700896 0.18537027 -0.74943596 -1.2408882 -0.9063007
-1.6371714 -0.5394795 -1.0105529 -1.8626273 -1.4712857 -0.9182081 -0.4118209 -1.9471079
0.10290574 0.31818187 -0.19852653 -0.14036979 -1.4548208 -0.701279 -1.1503386 -0.6695009
-1.9978889 -0.80131567 0.093921594 0.25516543 0.47013307 -0.88227683 -1.0044452 -0.8276954
0.5399838 -0.18220611 -0.6672015 -2.9392402 -1.4341018 -1.7259935 -1.5672604 -1.0568653
-0.27023986 -0.3105551 -0.11052888 0.2390597 -2.131648 -0.5170651 0.24443854 -2.1985185

fc2.weight f4 [1, 4096]
00000000: 3623 67bc bc2f 0dbd 809d 1fbb ecf5 833d
00000010: bead fb3c 2b38 fb3c 2dde 8c3c df32 ff3c
00000020: d2f4 103c 84a8 f2bc 6ec5 daba 4bb6 92bc
00000030: a203 9d3c bd3c 443c 4e2b 09bc db54 063c
00000040: d867 f1ba 1cf3 cd3b e7a5 2d3c 755c 8dbc
00000050: e6e2 05bd 4cb0 54bc f72e 523c 2354 e0bb
00000060: 776b 4ebb d7d2 823b 43db 653d ddd1 053d
00000070: 36e4 ed3c 1fd3 b53a 8976 28bd 3386 5ebc
00000080: e800 8c3c a065 3ebc 62e1 8d3c 3ef4 95bc
00000090: 8129 303d 0f13 623c d18c 643d e828 83bc
000000a0: 08ca 503c 6210 bfbb 801c 08bc 2e20 a13c
000000b0: 276d 9d3c 40c5 69bc ea61 b43a 7ef1 83bc
000000c0: 76d8 6ebc 97ba 353b 05ac 903c 8e26 973b
000000d0: b844 d63c b3d5 4bbc 4c25 7dbc 637f 70bc
000000e0: c325 97bc ab20 e8bb 0b27 03bc 472a 8b3c
000000f0: 3a2d ba3c 58d2 d73c 45b6 053b 7d14 b83c
00000100: b35d 4c3d 730b e8bc bacf 9338 2d14 fe3c
00000110: 1686 163c 9bd1 dc3c b738 acbc 2af5 e8bb
00000120: 01f2 9cbb 0e6c b03b bff6 28bd 1d39 afbc
00000130: 9c37 e83b c07e 00bd b361 4f3c ece8 c53b
00000140: 42ae 1c3d 7979 afba 7e67 38bc 6e98 ca3c
00000150: 26ec 40bc 0d2e b0bc 790a 95bc 26fe 03bc
00000160: 2903 d33b 0574 5f3d 2ca6 1abc 14be 893b
00000170: f3b9 81bb 402d a3bc b110 ba3c e432 dfbc
00000180: 291b 383d 4894 82bc 6de8 bc3c 9a0c 95bc
00000190: 80d6 09bc 6a4c 50bc e7fa 34bd cd86 0abc
000001a0: 935b 2d3c 200c d7bc b58c 0b3c 8897 fcbc
000001b0: 82d4 70bc 394c 64bd 0d39 8f3c c7af debc
000001c0: 2d9a b23c a2ea 1d3c f3e8 ef3c 97be 443c
000001d0: 8501 63bc 594b 22bc 585f 29bc f3c4 443c
000001e0: e202 a83b e6e0 043c 8a19 143d 10a0 c53a
000001f0: 86a0 3a3b 75ea 3f3b fd0d 40bd 9f76 2fbd
00000200: 5b9b 5dbc 64b6 ceba b08c c6bb 73c2 293c
00000210: 488f 2bbd b98a 913a 0882 ccbc b953 8eba
00000220: 0890 443c 945a 57bc e0e4 513c 91f1 323c
00000230: 778a fe3a 96db 0abd 75a4 a6bb 99eb 08bc
00000240: f8a1 13bc 0d99 323d 384b 8e3a 4dee 283d
00000250: d475 8cbc a798 38bc 8620 b9bc 1040 533c
00000260: e8b3 5cbd 4e96 8e3c 40a1 a8ba 1f70 09bc
00000270: c483 9439 d9fd 4d3c f0d0 e4bc 2329 83bb
00000280: 86f3 8eba 92ca 043c 5d22 d4bb 283d 123d
00000290: e279 173d ec36 b73c cee0 1fbb 8140 683c
000002a0: 0d55 a7bb 44c6 9f3c d9ae 4bbd 8e13 94bd
000002b0: 119c b6bc 2088 733b 7c50 9e3c ec4d 88bb
000002c0: 620b f33b deb7 c6bc 4f0d c23b 2230 283b
000002d0: c85f 0b3d a55c ab3c 861f c6bc 8190 13bd
000002e0: fac2 71b9 2cff 003d 8029 64bd 3acb 05bc
000002f0: 492d dabc db4b 52bb 67ec c33c 9f0a a8bc
00000300: 306c a0bc 8216 ae3c 1c66 2dbd f533 52bb
00000310: 6bd9 10bd 1cad 95bb 8baa 48bb 8229 fc3c
00000320: 716c c2bb a292 753c e5c6 45bc 60be dbba
00000330: 9f35 58bd f25d 83bb cda6 c9bc bab2 ed3c
00000340: 484a 38bc 145b 4fbb 7597 f4bc 8eb6 53bb
00000350: fd06 a13c 0385 833c 22df e23c 4437 8cbc
00000360: 2001 d73c 16eb 013c f815 67bd 3692 013c
00000370: 97ba 3abc 80d7 82bc d4f2 33bc d59a febc
00000380: d128 b53c 2549 ff3c 9291 fabb b9e6 f93c
00000390: 380c 6ebc d05e 303b a31c 85bc 280a 293a
000003a0: 2522 573b 70f3 253c 8024 233d 0ec6 f63c
000003b0: fc24 1ebd 9bbf 043b 0f86 23bd 525a 35bd
000003c0: c7ac 713b b560 3a3d 7bf9 5939 41b6 9f3c
000003d0: ab7e 85bc 9f8c 663c eb2f 1bbd fd88 86bc
000003e0: 00b9 0bbd ac5d 65bc db16 02bd 3cd3 02bc
000003f0: e180 79bc 5ca8 3fbb 3b3f 68bc f8f9 c93c
-0.014107516 -0.03446935 -0.0024355352 0.0644339 0.030722495 0.030666431 0.017195785 0.031152187
0.008847432 -0.02962137 -0.0016690919 -0.01790919 0.019166771 0.011977372 -0.008372141 0.008198942
-0.0018417789 0.0062850844 0.010598636 -0.017256001 -0.03268709 -0.012981486 0.01282858 -0.0068459674
-0.003149716 0.003992419 0.056117307 0.032670844 0.029039484 0.0013872123 -0.04112867 -0.0135818
0.017090276 -0.011620909 0.017319385 -0.01830494 0.04300833 0.013798489 0.055798355 -0.016010717
0.0127434805 -0.0058308104 -0.008307576 0.019668665 0.019217087 -0.0142682195 0.0013762091 -0.016106363
-0.0145779755 0.0027729624 0.01766015 0.0046127504 0.026155815 -0.012441087 -0.015450787 -0.014678809
-0.018450623 -0.0070839725 -0.008004914 0.016987933 0.022726644 0.026345417 0.002040283 0.022470707
0.049894046 -0.028325772 7.048198e-05 0.03101548 0.009187242 0.026955416 -0.021023137 -0.007109304
-0.0047895913 0.005383975 -0.04125094 -0.021389538 0.0070867073 -0.03137088 0.012657571 0.0060397293
0.038252123 -0.0013387642 -0.011255143 0.024730887 -0.011775052 -0.021506334 -0.01819347 -0.008056199
0.0064395857 0.054554004 -0.0094390325 0.0042035673 -0.0039589345 -0.019919038 0.022713037 -0.027245946
0.044947777 -0.015939847 0.023060048 -0.018194485 -0.008412957 -0.012713531 -0.04418459 -0.008454991
0.010580915 -0.026250899 0.008517434 -0.030833974 -0.014699103 -0.055736754 0.017483259 -0.027183427
0.021802032 0.00963846 0.029285884 0.012008331 -0.013855343 -0.00990566 -0.010337673 0.012009847
0.005127297 0.008110261 0.03615717 0.001507761 0.0028477027 0.0029284034 -0.04688834 -0.042837735
-0.013525809 -0.0015770909 -0.0060592517 0.010361302 -0.04188469 0.0011103965 -0.024964347 -0.0010858692
0.01199723 -0.013144154 0.012810916 0.010921852 0.0019419928 -0.03390082 -0.005085523 -0.008356952
-0.009010784 0.04360299 0.0010856157 0.041242886 -0.017146029 -0.011266864 -0.022598516 0.012893692
-0.05388251 0.017405655 -0.0012865439 -0.008388548 0.00028326933 0.012572729 -0.02793166 -0.0040027066
-0.0010906316 0.008104937 -0.006473823 0.035702854 0.03698147 0.022365056 -0.0024395469 0.014175535
-0.0051065744 0.01950372 -0.049727295 -0.07230292 -0.022291215 0.0037159994 0.019325487 -0.0041596796
0.0074171284 -0.024257597 0.0059219967 0.0025663455 0.03402689 0.0209182 -0.024184953 -0.03602648
-0.00023056185 0.03149335 -0.05570364 -0.008166129 -0.026632922 -0.003208867 0.023916436 -0.020512877
-0.019582838 0.021250967 -0.042333707 -0.0032074426 -0.035363596 -0.0045677554 -0.003061923 0.030781511
-0.0059333374 0.014988573 -0.012071346 -0.001676511 -0.052785512 -0.004009002 -0.02461567 0.029015888
-0.011248179 -0.003163998 -0.029857377 -0.0032304856 0.019656653 0.016054636 0.027694289 -0.017116196
0.026245654 0.007929584 -0.056417435 0.007908395 -0.011397026 -0.015971899 -0.010983188 -0.031079689
0.02211419 0.031162808 -0.007646748 0.030505525 -0.01452928 0.0026911981 -0.016249007 0.0006448352
0.0032826748 0.010128841 0.03982973 0.030123737 -0.03860949 0.0020255807 -0.03992277 -0.04427559
0.0036876665 0.045502383 0.00020787671 0.019496085 -0.016295752 0.014071613 -0.037887495 -0.016422743
-0.034111977 -0.013999384 -0.031760078 -0.0079849325 -0.015228481 -0.0029244637 -0.014175232 0.024655327
