checkpoint/perturb/5/NGD/mlp_epoch491_seed14.pt (torch, 67303 bytes, 3 tensors)

fc1.weight f4 [4096, 2]
00000000: d4fe aebe f9e4 c3bd 92c3 b23f a295 473f
00000010: 9ffa 96bf e986 7b3e d8d5 b2be 5cb9 fc3d
00000020: 825e dc3f 8203 263f d145 c83f 9adf d6bf
00000030: 63c5 b23f 711a dfbf ee4e 2d3d c9ef 0b3f
00000040: 85b9 833e 2693 09c0 f43b b7bf a49d c43d
00000050: 2b68 7dbf 01bb c13f 074f 103e c14f 3dbf
00000060: 6ee0 4fbf a709 8f3f 51f8 07bd c04c 8abf
00000070: 1ac0 843e 10d8 083c 2276 b0bf 4761 153f
00000080: c8a0 0541 82f5 e040 5000 2f3f 5ffa d8be
00000090: 5ff2 883f 0422 e2bf 7e3c 58bf 08b8 efbf
000000a0: 1d56 aabf 98f3 36bf 4af2 94bf df58 673e
000000b0: b738 9fbf d7af bcbd ff5d dfbe 11dc 19be
000000c0: 8415 5bbf 8116 a93f 4d6c 11c0 761e 94bf
000000d0: 0148 963e a77a c9be 2c7d aebe 0634 a43f
000000e0: 3c0f e3be 576f 46bf 919a 443f ad61 90bf
000000f0: 31c5 903f 42de 91be 6698 0e3f 57a1 c1bf
00000100: 3728 e8be ad43 ddbf ad8c fb3f 11e6 28c0
00000110: 7d4a 63bc ebf5 213c 720f a5be 0ff0 debf
00000120: 8484 48c0 42b3 063e 8933 1dc0 729a 23bf
00000130: 3442 46bf cbad 1bbf cea5 86be 2d0d 5abf
00000140: 12b5 53bf 18fc 373f d1c1 88bf 4da4 9a3f
00000150: 3bfb adbe c33d ea3c bb69 063e cc13 abbd
00000160: 7e65 03be fd7e da3d 412d 3ac0 b8e3 993f
00000170: 1dfb e641 4d16 0142 6057 4b3e af7a 353e
00000180: 2757 1e3f a0dd abbf d5b8 77c0 08b6 1440
00000190: e152 cbc0 fa84 90c0 9de6 1d3f e4d6 1a3e
000001a0: 2240 bdbe acb8 74bf 6dcd bbc0 87a2 85c0
000001b0: 67f6 a7bf ffa8 8dbe 620a 803e f4ad 8a3f
000001c0: eea5 8cc1 57f4 0dc1 f247 97c1 b33b 1fc1
000001d0: 083e cdbf 7dbd 1e3e 7db8 953d 2c92 ab3e
000001e0: cb4d 17be f6cc 4d3f fd73 25be 422c a93f
000001f0: 24b9 7dc1 6381 12c1 52f9 1bc0 202f 95bf
00000200: a779 91c1 0e61 15c1 5e3e a03e 456d 42bf
00000210: 9bdf 02bf 83e4 d9bd fa11 44bf adf9 21c0
00000220: 7e3e d4bf 0cbe 2d3f 42d2 08bf a173 953e
00000230: 29d4 0c3f 62ef 023e 50cc 65c1 92fb 00c1
00000240: 49e4 57c1 ffae d6c0 1d0d 53bf 7f7b 733e
00000250: e32b e8bd 326a ad3f 93a9 93be 65e8 b2bf
00000260: fb80 66be dd94 403f 2d03 bcbc 8979 8bbe
00000270: 5557 cac0 4a9e d0c0 ac73 e6bd 6e0f 22bb
00000280: 0cb6 ffc0 8882 5ec0 1cc0 9bc2 329f 1bc2
00000290: b498 14bf a63b 0dbf 9e03 c6c2 1ee0 63c2
000002a0: 6b82 82bf 6416 fcbf 8ebf 5bc2 5a37 28c2
000002b0: 7779 19c0 d32e e53f 88d7 b73e 1157 1cbf
000002c0: b1a2 0ebf 0b38 02bf b808 eabe 0dc4 8dbe
000002d0: bf9c 57bf 8c4c 8fbe bec5 cbbf 0f62 863f
000002e0: a70f 47be 2782 4e3b d9c6 31bf 982b cebf
000002f0: b477 de3e d313 8cbe 6278 a6be b857 5abf
00000300: f791 a5bf 428c 803f 28c8 d2be 8c91 adbd
00000310: 45c3 723f 7356 c6bc 637b 7dc0 770a 99c0
00000320: 6ae9 01c0 ffb7 ea3e 81fa 9ec1 f604 8ec1
00000330: 200e b6bf c622 6cbf 9c27 12c0 7b5c 83bd
00000340: 2f3f 3bc3 e69f bac2 b429 99bf 091c 853f
00000350: ba65 c0bf 848d 8dbe 2764 2fc1 a96f 36c1
00000360: 901d e8be d277 27be 6d9f 26c0 e136 ff3e
00000370: 4200 49bf d704 5fc0 2f3b 98bd c6a2 963d
00000380: 0cc1 6cbf 2139 e53e f313 0ebf dd59 c23f
00000390: 77d7 e1c0 3858 c5c0 e241 32c3 dff4 b4c2
000003a0: c83c 37c0 f3fd 8bbf 44bc 4cbf 6861 96be
000003b0: 8974 11c3 5be0 90c2 23ec e6be 8b06 e3be
000003c0: 80cf 89c1 7a92 8fc1 47f4 363f 406e 49bf
000003d0: 4606 82bf 4528 a4bd 2d1c 60bf 910f 473f
000003e0: 1e1a c2c0 e2e9 93c0 467d d5bf 8590 86be
000003f0: be16 edc2 c9e4 6ec2 862f 47c1 03d5 36c1
-0.34178793 -0.095651574 1.3965933 0.77962697 -1.1795233 0.24563183 -0.34928775 0.12340042
1.7216341 0.648491 1.5646306 -1.6786988 1.3966488 -1.7429944 0.0423116 0.5466276
0.25727478 -2.1496062 -1.4315171 0.0960038 -0.9898707 1.5135194 0.14092647 -0.7394982
-0.8120183 1.1174821 -0.033195797 -1.0804672 0.25927812 0.008352295 -1.3786051 0.5835156
8.351753 7.029969 0.6835985 -0.42378518 1.0698966 -1.7666631 -0.84467304 -1.8728037
-1.330753 -0.71465445 -1.1636441 0.22592495 -1.2439183 -0.09213226 -0.436264 -0.15025355
-0.85579705 1.3209993 -2.2722352 -1.1571796 0.2935181 -0.3935139 -0.34079874 1.2828376
-0.4434756 -0.7751364 0.7679835 -1.1279808 1.1310178 -0.28489882 0.5570129 -1.5127362
-0.45343181 -1.7286278 1.9652306 -2.6390421 -0.01387274 0.009885292 -0.32238346 -1.741701
-3.133088 0.13154319 -2.4562705 -0.6390754 -0.7744477 -0.6081206 -0.26298374 -0.85176355
-0.82698166 0.7186904 -1.0684148 1.2081391 -0.33980736 0.028593903 0.1312627 -0.08353385
-0.12831685 0.10668752 -2.909012 1.2022619 28.872614 32.27178 0.1985755 0.17722581
0.61851734 -1.342701 -3.8706563 2.3236103 -6.353867 -4.5162325 0.6168001 0.15121037
-0.36962992 -0.95594287 -5.8688264 -4.17609 -1.3122071 -0.27667996 0.2500792 1.0834336
-17.58102 -8.872153 -18.91013 -9.952075 -1.6034555 0.15501972 0.07310579 0.33509958
-0.1477577 0.8039087 -0.16157527 1.3216631 -15.8577 -9.156589 -2.4370923 -1.1655006
-18.1844 -9.336195 0.31297582 -0.7594798 -0.51122445 -0.10639288 -0.7658993 -2.530864
-1.6581571 0.67868114 -0.5344583 0.2918978 0.5501123 0.1278663 -14.362381 -8.061419
-13.493234 -6.708862 -0.82441884 0.23777579 -0.11336496 1.3548033 -0.28840312 -1.3977171
-0.2251014 0.7522715 -0.022950733 -0.2724116 -6.3231606 -6.5193224 -0.112525314 -0.0024728435
-7.9909725 -3.476717 -77.87521 -38.905464 -0.58045506 -0.5516914 -99.007065 -56.968864
-1.019605 -1.9694333 -54.937065 -42.054054 -2.3980386 1.7904915 0.35906625 -0.6107035
-0.55717 -0.50866765 -0.45709777 -0.27688637 -0.8422355 -0.27988088 -1.5919721 1.0498675
-0.19439565 0.0031510682 -0.6944404 -1.6107054 0.434507 -0.27358875 -0.3251372 -0.852901
-1.293517 1.0042803 -0.41168332 -0.084750265 0.9482921 -0.024211144 -3.960656 -4.7825274
-2.0298715 0.45843503 -19.872316 -17.752422 -1.4223061 -0.9224056 -2.2836676 -0.064141236
-187.24681 -93.3123 -1.1965852 1.0399181 -1.5031044 -0.2764703 -10.961951 -11.402261
-0.45335054 -0.16354302 -2.6034806 0.49846557 -0.7851602 -3.4846704 -0.074331634 0.07355265
-0.92482066 0.44770148 -0.5549919 1.5183674 -7.057552 -6.167019 -178.25735 -90.478264
-2.8630848 -1.0936874 -0.7997477 -0.2937119 -145.45522 -72.438194 -0.45102033 -0.4434093
-17.226318 -17.946522 0.7146649 -0.78683853 -1.0158165 -0.08015493 -0.8754299 0.7775813
-6.065688 -4.6223 -1.6678855 -0.26282135 -118.54442 -59.723423 -12.449102 -11.427005

fc1.bias f4 [4096]
00000000: a566 c5bd f26e 53be 78b6 03bf 2b5b dbbf
00000010: 750a babd 8b76 9abe 1655 2ebf 77d4 2cbf
00000020: 9a7c acbf 9ab5 0bbf 8a0e 3cbf 2cf6 4ebe
00000030: 1f3e ffbe 2914 91bf b4f4 84be 2418 eebe
00000040: ef55 93be 1664 1cc0 2997 b1bd 4242 75bf
00000050: f4f9 8fbe 5a6b 4bbf 1239 d83e d2c4 e3bc
00000060: 3f8f 4abf 6a73 c1be d968 03c0 aa14 90bf
00000070: a416 fabd 9142 eabf c0c4 a8bf e643 13bf
00000080: 599a a3bf e531 e6be cd75 22c0 97f2 5fbf
00000090: 6e66 0c3f 434e ddbf 1338 433f 1ce2 5dbd
000000a0: f7c8 2cbe 8a2c 74bf 11f2 96bf 02b9 59bf
000000b0: 083d d2bf 1a4d 27be 44ea f0be 0200 6cbf
000000c0: de5c 91bf 04cd 093e f751 98bf 9112 b1bf
000000d0: 3409 bcbf 5179 833e 626e 28bf fa5f edbf
000000e0: 6a14 87bd f490 68bf c8b8 02bf 155d 8cbf
000000f0: 945e f7bf 3e3d 97bf 971c 05bf 09b7 2ebe
00000100: 389d 283f eba5 1ac0 099b 1ebf 3a76 5abf
00000110: d896 97bf 6231 02bf 8124 72bf 9bf5 7abf
00000120: 35a9 a7be fde7 ccbd da5d a0bf 8f4e b5be
00000130: 8a9f 81bf be1d 22bf bbb3 35bf ce04 75bf
00000140: b380 6bbf 2f11 823d 6d7d a9be c58e 3dbe
00000150: 471c 503f dfe3 4abf df6d d8be 8f9d 47bf
00000160: e3ff e2bf af02 54bf 9289 71bf 1517 81bf
00000170: 03a9 9fbf 8233 a8bf ef65 99bf 4d8e a3bf
00000180: 8099 86bf b6a8 8fbf 25a1 19c0 d6e3 543e
00000190: 6c94 3bbf 4c26 d73e 0324 e4bf 0d8e c8bf
000001a0: d289 fcbe a6da b5be 04b3 7cbf 7624 743f
000001b0: ebe8 3f3e 9d42 bfbe 271a 9cbf 7f16 90bf
000001c0: 28c6 1fbf 6420 87bf 1b07 2b3f 87c6 98be
000001d0: 17dd d7bf 1fc4 8abe af24 bfbe 188f dc3d
000001e0: 675a 52bf 4513 d7bf 1449 a5bf 32b3 debf
000001f0: 68a7 1cbf aca2 50bf 3203 d03e 8b55 8f3d
00000200: 6651 40bd e697 c6be 74b6 b2bf fefa 293e
00000210: d80a 2ebf 1257 90bf 8eba d3bf c8b5 9bbf
00000220: 0a7c a7bf c0b0 53be 5de8 6ebf 7f94 dfbf
00000230: dba3 09bf 848c 7cbf 55b8 f5be b34a b7bf
00000240: 9a68 553f 3020 b5bf fbd5 5bbf b190 3ebf
00000250: 165d 52be 7800 873e 0e5f 10bf 8203 81bf
00000260: e4a4 0dbf f9c4 6abe 5312 d63e af4c 3fbf
00000270: b87d 22bf f765 3cbf 0a96 693f 91fe c7bf
00000280: 6287 bbbf 7d76 b6be e5a6 91bf aa7c 8b3d
00000290: 6b8f 88bf e6cd 88bf 9309 c3be c094 aebf
000002a0: d61d 0dbf 9fe3 88bf deb1 49bf 700a a5bf
000002b0: 06ba abbf a64b 74bf f913 00bf 6227 f03c
000002c0: 83be f6be 8604 bbbf bf4f 8cbf 2084 dfbe
000002d0: d113 a33e 10fa e8bf 80fb ecbe eb48 56bf
000002e0: b6dd dbbf 9306 19bf 616c 013d 1af5 babf
000002f0: 7563 5abf 599f 64be 7c29 aabf bd21 9ebf
00000300: 820f 4f3e ab5b 1a3f 377c 80bf 8b15 cbbe
00000310: f35e 84bf c741 56bf d74e 04bf d59e 4cbf
00000320: 5ac6 58bf 1767 943e 7961 d43e dd37 b93d
00000330: df6c a5be 0633 5ebf 9038 4bbf 956b c6be
00000340: 7fff 52bf 26e0 09bf c679 15bf f5f9 a8bf
00000350: 49df 703e 203b a53d 6b36 19be 5bbd 173e
00000360: 2a62 7ebf 2b8c 493c b3a2 bebe eead 393e
00000370: 6167 00bf eedc a1bf 86d7 a9bf 10c3 f1bf
00000380: 11ff febf c918 e9be 5a44 9fbf 6ad0 b0bf
00000390: 24a0 ab3d 26f9 2bbf 3d25 923e 1740 b0bf
000003a0: 4be3 76bf e6a2 4e3f b38a adbf d481 f9bf
000003b0: 80cb d2bf 8a46 63bf fc69 3e3f f67f dabf
000003c0: 5dd2 ecbe 2404 7bbf d7d4 a43e 7163 7cbf
000003d0: 44e3 07bd 7500 22bf 1057 9dbf b3b0 2fbf
000003e0: 1859 92bf d35b 9ebf 97b9 4cbf 34fa 82bf
000003f0: 8877 06c0 c6ba 72be e105 efbc 5f25 b4bf
-0.096387185 -0.20647791 -0.514503 -1.7137197 -0.09084026 -0.30168566 -0.6809858 -0.67511696
-1.3475525 -0.54573977 -0.73459685 -0.20211095 -0.49852082 -1.1334277 -0.25967944 -0.46502793
-0.287765 -2.4436088 -0.0867141 -0.95804226 -0.28120387 -0.7946068 0.4223104 -0.027803812
-0.79124826 -0.37783366 -2.0532744 -1.1256306 -0.122113496 -1.8301564 -1.3185043 -0.5752548
-1.2781478 -0.44959942 -2.53844 -0.8747954 0.54843795 -1.7289509 0.7625744 -0.054170713
-0.16873537 -0.9538046 -1.1792623 -0.85047925 -1.6424875 -0.16338006 -0.4705373 -0.9218751
-1.1356466 0.13457114 -1.1900014 -1.3833791 -1.4690309 0.25678495 -0.6579343 -1.8544915
-0.065956905 -0.9084618 -0.51063204 -1.0965906 -1.9325738 -1.1815565 -0.5199675 -0.1706201
0.65864897 -2.4163768 -0.61955315 -0.8533665 -1.1842909 -0.508566 -0.9458695 -0.98031014
-0.32746282 -0.10005186 -1.2528641 -0.35411498 -1.0126812 -0.6332663 -0.7097737 -0.95710456
-0.91993254 0.06350934 -0.33103505 -0.18511494 0.8129315 -0.79253954 -0.42271325 -0.7797479
-1.773434 -0.82816595 -0.9435054 -1.0085169 -1.2473453 -1.3140719 -1.1984233 -1.2777802
-1.0515594 -1.1223361 -2.4004605 0.20790038 -0.7327335 0.42021406 -1.782349 -1.566835
-0.493239 -0.35518378 -0.98710656 0.95368135 0.18741195 -0.3735551 -1.2195481 -1.1256865
-0.6241174 -1.055676 0.6680772 -0.29838964 -1.6864346 -0.27102754 -0.37332675 0.107694805
-0.82169193 -1.6802756 -1.2912927 -1.7398436 -0.6119294 -0.8149822 0.40627438 0.06998738
-0.046952628 -0.38787764 -1.396193 0.16599652 -0.67985296 -1.1276572 -1.6541307 -1.216485
-1.3084729 -0.20672894 -0.9332331 -1.7467192 -0.5376565 -0.9865191 -0.47992197 -1.4319671
0.83362734 -1.4150448 -0.85873383 -0.7443953 -0.20543322 0.26367545 -0.5639504 -1.0079195
-0.5532973 -0.22926702 0.41810855 -0.74726385 -0.6347308 -0.73593086 0.91244566 -1.5624563
-1.465069 -0.35637274 -1.1379057 0.06810887 -1.0668768 -1.0687835 -0.38093242 -1.3639145
-0.5512365 -1.0694464 -0.7878703 -1.289381 -1.3416145 -0.9542793 -0.50030476 0.029315654
-0.48192224 -1.4610755 -1.0961837 -0.4365549 0.31851056 -1.8201313 -0.4628563 -0.83705014
-1.7177036 -0.59775656 0.0315975 -1.4606049 -0.8530801 -0.22326411 -1.329391 -1.2354046
0.2022076 0.60296124 -1.0037907 -0.39664873 -1.0341476 -0.8369412 -0.516828 -0.7992986
-0.8467766 0.289849 0.41480616 0.09043858 -0.32309625 -0.86796606 -0.7938318 -0.38753954
-0.82421106 -0.5385765 -0.58388937 -1.3201281 0.23522677 0.08067918 -0.14962165 0.14818327
-0.99368536 0.012301485 -0.37233505 0.18132755 -0.50157744 -1.2645547 -1.3268898 -1.8887653
-1.992159 -0.45526722 -1.2442734 -1.3813603 0.08380154 -0.67177045 0.28544036 -1.3769559
-0.9644057 0.80717313 -1.3557953 -1.9492745 -1.6468353 -0.8877951 0.7438047 -1.70703
-0.46254244 -0.98053193 0.32193634 -0.98589236 -0.03317572 -0.6328195 -1.2292194 -0.68628997
-1.1433439 -1.2371773 -0.7997069 -1.0232606 -2.1010456 -0.23704061 -0.029177608 -1.4073905

fc2.weight f4 [1, 4096]
00000000: cd79 8eb8 9ce8 f5ba b4a2 7dbc af03 af3c
00000010: 31ee d4bc 0b65 a03c 3086 e83c 7c5e fe3c
00000020: dffc a33c 6829 413d 996a b53c 4b9a 943c
00000030: 4951 c73c 06c9 303c 0b73 c03c 4685 8c3b
00000040: 3656 dcbb 26ee 3c3c d7d9 603d 674b d7bc
00000050: f8e1 f3ba 8b8e 2fbd 36a1 79bc 72d3 273d
00000060: a635 a3bc dcaa 8cbc 127c 9fbc 7ce6 bebb
00000070: b12d d03c 2799 0c3c 55f8 72bb 2114 6fbd
00000080: 10e6 c7bc 92c8 b63c e370 c0bb 4f71 7bbc
00000090: becc 83bc d505 0cbd 4238 22bd 898b c1bc
000000a0: 5f89 5b3c ba72 18bd 0ef0 c33c 2757 2ebd
000000b0: e35c 833c 8334 043d a922 26bb 08c5 8b3c
000000c0: 72ce 033c ea09 e83c d5a1 9bbc 832a a7bb
000000d0: f2c1 86bb 99aa 7dbc cfa5 1b3b 176f 123d
000000e0: f2d3 04bd 1549 08bd 13f0 b43c 6d51 a23c
000000f0: e559 4bbd 3412 943c 5d43 aabc bdd8 f83c
00000100: a802 c5bc 10a4 97bc 12ba 9c3c b459 2ebb
00000110: 2a90 eeba 7bb0 bd3c d64c 2a3d 6ce9 5cbc
00000120: 4b81 29bc 1cf3 7bbc cb63 943c 1d2c 663c
00000130: ec73 953c ecbd d63c e92e 1e3d 9215 f3ba
00000140: d5ff a1bb d61e 04bd 7772 d5bb 3c5e 14bd
00000150: 8375 2d3c 3def b6bc 602b ab3b 129c 0fbc
00000160: 2aa4 b0bc 29ab 1ebd 1b7b 323a eec4 533c
00000170: 8972 53bc f1cd 053b 1b27 43bd ff12 b63b
00000180: 2097 5cbc 8ff8 22bd 3ada 5539 5cf5 b93b
00000190: 8567 6fbc 79dc b03c 0f0e 903c 7bee 54bc
000001a0: 0ee5 adbc 2b3b 1e3c 2d4b 223d 3186 4e3c
000001b0: 1d2d aa3c b31f 10bc 3b73 9cbc 1a58 ccbc
000001c0: 9e66 98bc 554b 6fbb 973a fa3b aa78 a6bc
000001d0: bcd6 f03b 5fe2 8b3c 89b8 7cbc c7cc a83a
000001e0: f9ac 183d 59ed a6bb 1c4e ecbb 3ad5 de3c
000001f0: db43 fb3b b37b 383b 5ee3 5bbc 287a 733c
00000200: 064c acbb 772b dbbb cfdc 0b3a 3abf 2c3b
00000210: bc16 d63a d675 f23c 3001 f3bc 8ff4 c53b
00000220: 9623 74bb 85ef 8fbc 3c0d 713c 8ddd 92bc
00000230: 3c83 08bb d56f 38bc b798 00bd 670e de3a
00000240: 4002 bf3c 63d5 0a3d 44f3 253d cda6 383d
00000250: 2341 973c 40bd 643c bb2d 41bd 9c29 cc3b
00000260: ae66 cd3b 6205 25bc f874 223d f196 83bc
00000270: af44 34bd ee07 e73c 8b5e 053d 00b1 94bb
00000280: 2be3 0e3c 6581 bb3b aa30 8fbc e507 16bc
00000290: dade c7b7 144e 7f3c 97b1 bbbc 63a4 9fbc
000002a0: 0740 7abb cf5d 853c 59fb 703c 3e73 b6bc
000002b0: 7193 ec3b c9db 73bc 277d 4cbc cd4b 743b
000002c0: 9561 7abb de8e 35bb 44dd 23bd e7e9 98bc
000002d0: 5e0d b23b 9a1c 88bc 36e5 013d 5521 363b
000002e0: 6fdf a43c 121e d53c 096e c23c e182 02bd
000002f0: b35d 3dbc e691 973c df0c 06bc f019 ca3c
00000300: 2741 ba3c a471 c1bc fd57 55bd 9120 4abc
00000310: 4e1d a5bc dc5b febc e0fc a7bc 2e50 b9bc
00000320: 70c6 adbb 9897 303d ba07 2d3d 3cd5 9fbb
00000330: f695 ee3c 3ac6 cbbc 66cb dfba 84e6 3fbb
00000340: a110 1f3d 48df cbba 4b57 b83c f73e a6ba
00000350: 22e0 633b ca60 aabc 1ec3 d2bc 4ecf 9c3c
00000360: 2d20 1e3d 9025 26bc 80d4 a0bc 76d5 0ebd
00000370: a51c 13bb 546c 0f3d a1d3 b73c 057f 96bc
00000380: 6873 1e3c bf27 253d 3406 b8ba c144 f5b9
00000390: b27c b7bb c140 0e3c c472 713c c932 b33b
000003a0: 8214 85bc 0a30 01bd f24f 77bc 6333 a63b
000003b0: 27b8 21bc ded7 a93b 9dc9 bc3c 9009 143c
000003c0: ee8f bc3c f80b 5ebb 529c ac39 3810 313c
000003d0: e8d8 4abd 3d5d cd3b f9cb 7b3c ce12 ccbc
000003e0: 7087 b7bc 79e0 86bc f888 cbbc 432f 323c
000003f0: c276 b0bc 1618 643c b805 e1bc 283d 883c
-6.793775e-05 -0.001876134 -0.015480686 0.021364061 -0.025992485 0.019579431 0.028384298 0.031050913
0.02001804 0.04715863 0.022145556 0.018139979 0.024330752 0.010790115 0.023492357 0.0042883484
-0.0067241443 0.011531388 0.05489525 -0.026281072 -0.0018606773 -0.04286055 -0.01523619 0.040973134
-0.019923043 -0.017171316 -0.019468341 -0.0058258157 0.025412412 0.008581436 -0.0037074287 -0.058368806
-0.024401695 0.022312436 -0.005872832 -0.015346839 -0.01608884 -0.03418525 -0.039604433 -0.023626106
0.013399451 -0.037218787 0.023918178 -0.042563584 0.016035503 0.03227664 -0.002535025 0.017061725
0.008044826 0.02832504 -0.018998066 -0.0051015033 -0.0041124756 -0.015482568 0.0023749953 0.035750475
-0.03242869 -0.03327282 0.022087133 0.019814217 -0.049646277 0.018075086 -0.020784074 0.030376786
-0.024049118 -0.018510848 0.019131694 -0.002660376 -0.0018200923 0.023155442 0.041577183 -0.0134833865
-0.010345767 -0.015377786 0.018113991 0.014048603 0.018243752 0.026213609 0.038618956 -0.0018545857
-0.0049438276 -0.03225597 -0.0065138894 -0.03622268 0.010587099 -0.022330875 0.0052236766 -0.008765237
-0.021562655 -0.03873745 0.0006808505 0.01292537 -0.012905725 0.002041694 -0.047644716 0.0055564637
-0.013463765 -0.039787825 0.00020394559 0.005675001 -0.014612083 0.021589505 0.017584829 -0.012996311
-0.021227386 0.009657661 0.039622474 0.012605236 0.020773465 -0.00879662 -0.019097915 -0.024944354
-0.01860362 -0.0036513407 0.007636379 -0.020321209 0.007349817 0.017075716 -0.015424856 0.0012878411
0.037274335 -0.005094212 -0.00721146 0.027201284 0.007668001 0.0028149902 -0.013420908 0.014860667
-0.005258086 -0.006688531 0.0005335332 0.0026359097 0.001633368 0.029597204 -0.029663652 0.0060411165
-0.0037252656 -0.017570267 0.014712628 -0.01792791 -0.0020830175 -0.011257132 -0.03139564 0.0016941548
0.023316503 0.033894908 0.0405152 0.04508095 0.018463677 0.013961136 -0.047162753 0.006230546
0.006268344 -0.010072084 0.03966233 -0.016063185 -0.044010814 0.028202023 0.032560866 -0.0045377016
0.008721153 0.005722212 -0.01747926 -0.009157156 -2.3826422e-05 0.01558258 -0.02291183 -0.019487565
-0.0038185136 0.016280083 0.014708363 -0.022271749 0.007219725 -0.014883944 -0.0124810105 0.0037276626
-0.0038205136 -0.0027703564 -0.040005937 -0.01866622 0.0054337224 -0.0166152 0.031712733 0.0027790864
0.020126073 0.026015315 0.02373411 -0.031863097 -0.011557984 0.018502187 -0.00818178 0.024670571
0.022736145 -0.023613758 -0.052085865 -0.012336866 -0.020155575 -0.031049661 -0.020506322 -0.02262124
-0.0053031966 0.04311332 0.042243697 -0.0048777144 0.029124241 -0.024874795 -0.0017074167 -0.0029281685
0.038834218 -0.0015554214 0.022502562 -0.001268356 0.0034771045 -0.020798106 -0.025727805 0.01914182
0.038604904 -0.010140792 -0.019632578 -0.03487154 -0.0022447493 0.03501542 0.02243978 -0.018371115
0.00967107 0.040321108 -0.0014039935 -0.00046781267 -0.0055995816 0.008682431 0.014736835 0.0054687005
-0.01624513 -0.031539954 -0.015094744 0.0050720437 -0.0098705655 0.005183204 0.023045355 0.009035483
0.02301785 -0.0033881646 0.00032922864 0.0108070895 -0.049523264 0.0062672184 0.015368455 -0.02491131
-0.022403449 -0.016464459 -0.024845585 0.010875526 -0.021541003 0.013921758 -0.027468547 0.016630724
