checkpoint/perturb/5/NGD/mlp_epoch497_seed19.pt (torch, 67303 bytes, 3 tensors)

fc1.weight f4 [4096, 2]
1.5505536 0.6492226 0.027406534 -0.40785483 0.6886155 0.4263376 -0.945125 0.15733697
-2.1254294 -0.1579275 0.64727676 0.35498786 0.113511615 0.26751092 0.07164044 0.09449511
-0.6833991 -0.0034119554 1.4329416 -1.0281256 0.60786736 -0.75960344 7.689985 4.5934315
-1.1296657 0.115266964 -0.74732506 -0.2627432 0.5273116 0.52724034 -0.65941393 -0.25161844
-2.32672 -2.819971 -16.688677 -9.252143 0.084793344 -1.2949598 -0.38174233 1.1082318
0.45350564 -0.25932643 -1.1141243 -0.45275003 -0.9284965 -0.47628555 -3.4675846 0.31786412
-1.0599945 -1.4678215 -1.1010618 -1.0455633 -1.3942873 0.4396749 -20.419115 -11.616377
-20.768578 -10.868933 -0.8031854 0.47091162 -0.8294714 -0.25549567 -0.17349438 -0.35795644
-0.23054637 -0.056604497 -0.09600376 -1.443708 -0.86748946 -0.25576612 0.6331619 -0.18042316
-0.9326083 -0.74702907 0.43198028 -1.4051907 -6.397356 -2.6159666 -50.48981 -28.355564
-0.8260592 -0.5292826 -69.49688 -34.20628 -0.27880678 -1.5385588 -0.98169065 -0.6385184
0.22511645 -0.15301137 0.11076871 -1.0824138 -3.1700325 -2.4500349 0.97387695 -1.341161
0.062841944 -1.1369447 -1.4266965 -1.6016041 -3.0779636 2.3552694 -83.535866 -51.991196
-0.78295976 -1.4787824 0.4311807 0.20338671 -1.5149473 -1.9583613 0.6863605 0.09034462
0.88965154 0.038006146 -0.095197976 -0.05927671 -2.146349 0.22701164 -0.07223521 -0.8243758
-0.4137354 -0.82844114 -0.665483 1.09472 -2.3583963 -1.1785787 -0.094671994 1.0963408
-23.297546 -13.1044445 -0.46432573 -0.2748319 -0.47575507 -0.7226757 0.21536751 -0.95213
-184.94005 -105.116005 -1.269845 1.3455967 -223.8486 -68.06488 -108.29586 -59.66876
-0.9063466 -0.5227787 1.3409519 0.32693958 0.86360985 -0.67278177 -1.7507044 0.0981397
-18.447382 -14.215625 -0.22173773 -0.23672208 0.31175306 0.8524798 -158.8439 -86.76688
0.13859233 0.7548372 0.33846807 -0.79023427 -545.736 -301.5539 0.27203894 0.13737865
-0.40064067 -1.7028085 -2.4043887 -0.18108936 -0.7874971 0.38131845 -31.635517 -13.712448
-53.664555 -25.82194 -14.752108 -3.0642693 -36.29758 -18.53782 -0.30356544 -0.107313566
-58.22686 -38.956017 1.0432944 -1.4565133 -1593.8203 -847.4487 -0.96956706 0.24214691
-403.59134 -219.89026 -973.75397 -520.5327 -0.25599644 0.13757728 -1763.046 -941.16235
-7.4361734 -4.3858004 -2527.0625 -1349.6138 -42.512726 -10.77779 -0.035962775 -0.21307103
-71.75136 -36.40272 -4161.2607 -2206.4963 -109.98523 -55.65637 -109.82681 -56.54348
-0.2664796 -0.11565027 -1.2251239 -0.1460412 -1419.863 -771.6018 -1148.5156 -614.14355
0.23643245 -0.4168068 -1.0105491 -0.6769262 -30.913054 -23.979052 -58.698345 -59.19416
-0.40159687 -0.7702948 -8.719073 -10.264943 0.78085566 1.0028938 -52.25017 -26.429409
-0.439316 -0.22253728 -3332.8853 -1810.2114 -0.5464963 -0.10403902 -1.3332325 0.057042636
-2482.4116 -1325.3519 -3935.5486 -2101.0957 -0.011584057 -0.013466981 -61.231815 -31.241468
00000000: 8a78 c63f 7433 263f ab83 e03c 59d2 d0be
00000010: 1b49 303f ec48 da3e b6f3 71bf f11c 213e
00000020: 0907 08c0 bfb7 21be eeb3 253f f8c0 b53e
00000030: c778 e83d 31f7 883e 39b8 923d a786 c13d
00000040: 3ef3 2ebf 1d9b 5fbb a16a b73f 9f99 83bf
00000050: 329d 1b3f 5f75 42bf 5b14 f640 64fd 9240
00000060: e398 90bf 1611 ec3d b250 3fbf 4786 86be
00000070: e5fd 063f 39f9 063f 5acf 28bf 22d4 80be
00000080: fbe8 14c0 687a 34c0 6982 85c1 c708 14c1
00000090: 22a8 ad3d 3ec1 a5bf bb73 c3be 8ada 8d3f
000000a0: e431 e83e 6fc6 84be a09b 8ebf dace e7be
000000b0: f2b1 6dbf b3db f3be e8ec 5dc0 16bf a23e
000000c0: e6ad 87bf 93e1 bbbf 98ef 8cbf 05d5 85bf
000000d0: 0278 b2bf 121d e13e 595a a3c1 aedc 39c1
000000e0: 0c26 a6c1 26e7 2dc1 8f9d 4dbf 541b f13e
000000f0: 3d58 54bf 54d0 82be 83a8 31be 1146 b7be
00000100: 5914 6cbe 1eda 67bd 9f9d c4bd 6ccb b8bf
00000110: ca13 5ebf c7f3 82be e616 223f d9c0 38be
00000120: 6bbf 6ebf 4c3d 3fbf 852c dd3e 4add b3bf
00000130: 24b7 ccc0 ff6b 27c0 91f5 49c2 32d8 e2c1
00000140: 9e78 53bf 117f 07bf 67fe 8ac2 3bd3 08c2
00000150: c3bf 8ebe 7fef c4bf 1450 7bbf f175 23bf
00000160: ed84 663e 03af 1cbe b5da e23d 898c 8abf
00000170: d0e1 4ac0 5fcd 1cc0 0050 793f 2aab abbf
00000180: 47b3 803d 6787 91bf fe9d b6bf 5d01 cdbf
00000190: 5bfd 44c0 bcbc 1640 5d12 a7c2 fcf6 4fc2
000001a0: 0d70 48bf be48 bdbf b7c3 dc3e 9b44 503e
000001b0: cbe9 c1bf 95ab fabf 52b5 2f3f 9a06 b93d
000001c0: 34c0 633f 55ac 1b3d 28f7 c2bd 23cc 72bd
000001d0: c85d 09c0 bd75 683e 0ef0 93bd 4b0a 53bf
000001e0: 20d5 d3be b814 54bf 185d 2abf c91f 8c3f
000001f0: f7ef 16c0 abdb 96bf 64e3 c1bd e554 8c3f
00000200: 6061 bac1 ceab 51c1 1abc edbe c4b6 8cbe
00000210: 2b96 f3be 4601 39bf 4d89 5c3e cbbe 73bf
00000220: a7f0 38c3 653b d2c2 488a a2bf 833c ac3f
00000230: 3ed9 5fc3 3821 88c2 7b97 d8c2 cfac 6ec2
00000240: 5506 68bf d3d4 05bf 50a4 ab3f a064 a73e
00000250: 8915 5d3f 6d3b 2cbf 1517 e0bf 78fd c83d
00000260: 3d94 93c1 3373 63c1 370f 63be 4667 72be
00000270: 199e 9f3e 1e3c 5a3f 0ad8 1ec3 a488 adc2
00000280: 26eb 0d3e 033d 413f b04b ad3e cb4c 4abf
00000290: 1b6f 08c4 e6c6 96c3 b048 8b3e fdac 0c3e
000002a0: c620 cdbe a1f5 d9bf 81e1 19c0 7d6f 39be
000002b0: 6999 49bf 2c3c c33e 8a15 fdc1 3066 5bc1
000002c0: 81a8 56c2 5593 cec1 a208 6cc1 fd1c 44c0
000002d0: b930 11c2 754d 94c1 ee6c 9bbe 37c7 dbbd
000002e0: 4ee8 68c2 f6d2 1bc2 ac8a 853f 076f babf
000002f0: 403a c7c4 b8dc 53c4 8c35 78bf 5cf5 773e
00000300: b1cb c9c3 e8e3 5bc3 4170 73c4 1822 02c4
00000310: f711 83be 0fe1 0c3e 7961 dcc4 644a 6bc4
00000320: 22f5 edc0 7a58 8cc0 00f1 1dc5 a4b3 a8c4
00000330: 080d 2ac2 d471 2cc1 b44d 13bd 4b2f 5abe
00000340: b280 8fc2 639c 11c2 160a 82c5 f1e7 09c5
00000350: 70f8 dbc2 1fa0 5ec2 54a7 dbc2 862c 62c2
00000360: 0470 88be 0cda ecbd dcd0 9cbf d38b 15be
00000370: 9e7b b1c4 84e6 40c4 8090 8fc4 3089 19c4
00000380: 591b 723e b367 d5be ac59 81bf 094b 2dbf
00000390: ef4d f7c1 19d5 bfc1 1bcb 6ac2 d2c6 6cc2
000003a0: 1b9e cdbe 0a32 45bf 5381 0bc1 353d 24c1
000003b0: 28e6 473f d35e 803f 2d00 51c2 6e6f d3c1
000003c0: 07ee e0be d0e0 63be 2a4e 50c5 c446 e2c4
000003d0: 2ee7 0bbf 6912 d5bd 5da7 aabf 8aa5 693d
000003e0: 9626 1bc5 43ab a5c4 c7f8 75c5 8851 03c5
000003f0: 0ecb 3dbc 9da4 5cbc 61ed 74c2 87ee f9c1

fc1.bias f4 [4096]
-0.42112222 -0.43032396 -1.0194755 -0.5335607 -0.8743038 -0.73823625 -1.7382969 -1.1138029
-1.5690656 -1.600046 -0.99534905 -0.5650104 -1.295399 -0.47221124 -1.5249008 0.2539564
-0.050583974 0.037771326 -0.081155255 -0.75363517 -0.63243616 -0.5739967 -0.2535882 0.56331354
-0.9751974 0.3761655 -1.1461868 0.474425 -0.5030885 -0.025980456 -0.7182553 -1.7256227
0.17250948 0.10130675 -0.50501364 -2.3469648 -1.9172246 -0.4809777 -0.016515791 -0.53311294
-1.6077944 -0.59721875 -0.88237906 -1.3951716 -1.2204518 -1.051875 0.15393546 -1.2513762
-0.8652891 0.02041155 -0.31278172 -0.20651695 0.5832172 -0.78931665 -0.76177996 -0.87885326
-2.136916 -0.6858602 -0.7920306 -0.72908336 -1.5548216 -0.8225442 -0.513838 -2.0456717
0.028506666 -0.9704224 -0.7181347 -1.3830827 -0.7372084 -1.736944 0.4237229 -1.013219
-0.35991302 -1.6494244 -1.3502198 0.41292465 -0.11842388 -0.47778904 -1.9322308 -0.5509758
-0.8120309 -1.8794715 -0.8456095 -2.2160125 -0.9207339 -0.45498657 -0.61772984 0.35777968
-1.0681105 -0.038017165 -0.21700157 -0.842186 -0.72770953 -1.1705818 -0.795185 -0.3931038
-0.18661527 -0.17729887 -0.31615317 0.73869216 -1.1713498 -0.14503008 -0.95720506 -1.1537585
-0.61649233 -0.07910628 0.17908596 0.5143938 -0.40970546 -0.7875862 -0.3383349 -0.16932683
-1.1682099 -0.91257334 -0.21578339 -0.44389322 -0.81765014 -0.69015515 -1.3391427 -0.27182055
-0.73031783 0.07842533 -0.4645558 -1.1771395 -0.8055917 0.15565242 -0.5563461 -0.9954446
-0.78337306 -1.1760253 -0.06539691 0.0040321047 0.79624116 -0.7730841 -0.6642824 -1.3165946
-0.67851794 -0.76292056 -0.23587675 -0.42401627 -0.45236772 0.06925141 -1.691039 -0.4841488
-0.5201326 -0.32624236 -1.1282456 -1.0164413 -0.4007731 -1.237526 -0.85712326 -1.8024896
0.010138238 -0.9678716 -0.91692793 -0.0870475 -0.2186212 1.5104667 -1.2394078 -1.3667045
0.66147214 -1.3583119 -1.2710466 -1.5523356 -0.71920687 -1.1792281 -0.5228075 -1.7640605
-1.0580312 -0.06197971 -0.7780347 0.5426901 -1.617983 -0.29790172 -0.4720835 -0.55215
-0.830206 -1.3342166 -0.21846066 -0.2842329 -1.8413689 0.37673736 0.16421364 -2.192829
-0.53023565 -0.51605856 -1.1104971 -0.6978944 0.3625144 -0.71774143 -1.0794115 0.2000238
-1.1211458 0.28974694 -1.0007441 -0.06345775 -0.5552331 1.2032077 -0.7948161 -0.70632845
-0.4197405 -0.93060595 0.8394164 -0.6477141 0.4871273 1.087545 -0.926801 -0.07746881
0.023156906 -1.0968505 -1.8928703 0.0073505 0.1900499 -0.547653 -0.42666394 -1.6479053
-0.7955426 -1.5120957 0.07990767 0.022953562 -0.24246345 -0.19439635 -0.78002936 -1.6932867
-0.26150715 -1.3626928 -0.5728168 0.09384215 0.56373864 0.28751367 -0.5730287 0.86528057
-0.56817085 -0.94982487 -1.0506703 -1.078917 0.3837448 -0.79008144 -1.0701088 -0.018245371
-0.4138229 -0.42764696 -1.2655728 -0.82907385 1.1461214 -0.39120412 0.20602548 -0.8767023
0.24575344 -0.7739736 -1.1985571 -1.1334456 -1.172213 -0.3304311 -1.5738626 -1.5678086
00000000: 559d d7be 6c53 dcbe 2c7e 82bf 6f97 08bf
00000010: 60d2 5fbf 0dfd 3cbf 8380 debf 1891 8ebf
00000020: 24d7 c8bf 4fce ccbf 32cf 7ebf 86a4 10bf
00000030: a2cf a5bf acc5 f1be f32f c3bf 9306 823e
00000040: 2431 4fbd 1bb6 1a3d ba34 a6bd 3cee 40bf
00000050: 56e7 21bf 73f1 12bf 50d6 81be 5135 103f
00000060: 89a6 79bf c498 c03e 40b6 92bf d5e7 f23e
00000070: 68ca 00bf f7d4 d4bc 94df 37bf 34e1 dcbf
00000080: 53a6 303e ea79 cf3d 9348 01bf ac34 16c0
00000090: 9e67 f5bf b642 f6be 204c 87bc 177a 08bf
000000a0: 35cc cdbf 54e3 18bf 98e3 61bf fc94 b2bf
000000b0: c437 9cbf d7a3 86bf 42a1 1d3e 182d a0bf
000000c0: 9683 5dbf 1f36 a73c ed24 a0be 2e79 53be
000000d0: b94d 153f a810 4abf 0304 43bf 87fc 60bf
000000e0: 3bc3 08c0 8994 2fbf 84c2 4abf 35a5 3abf
000000f0: 6504 c7bf 4292 52bf e38a 03bf 49ec 02c0
00000100: d086 e93c 9a6d 78bf add7 37bf db08 b1bf
00000110: b1b9 3cbf 2e54 debf 35f2 d83e 29b1 81bf
00000120: 8546 b8be 5720 d3bf 01d4 acbf dc6a d33e
00000130: 3888 f2bd c4a0 f4be 5753 f7bf c00c 0dbf
00000140: 42e1 4fbf 8692 f0bf dd79 58bf 26d3 0dc0
00000150: 38b5 6bbf 00f4 e8be 8b23 1ebf e62e b73e
00000160: d8b7 88bf e3b7 1bbd a935 5ebe 8099 57bf
00000170: 2c4b 3abf a0d5 95bf 3f91 4bbf e744 c9be
00000180: 1318 3fbe d68d 35be d4de a1be ee1a 3d3f
00000190: caee 95bf c482 14be 640b 75bf 5cae 93bf
000001a0: 71d2 1dbf 7902 a2bd 4f62 373e 50af 033f
000001b0: eac4 d1be 409f 49bf 3b3a adbe 0364 2dbe
000001c0: e787 95bf 689e 69bf 52f6 5cbe f945 e3be
000001d0: 8551 51bf 02ae 30bf 0769 abbf 102c 8bbe
000001e0: 1cf6 3abf 769d a03d 42da edbe 82ac 96bf
000001f0: 423b 4ebf 5963 1f3e b36c 0ebf 75d5 7ebf
00000200: 238b 48bf ff87 96bf d1ee 85bd bf1f 843b
00000210: 76d6 4b3f d7e8 45bf 690e 2abf 2c86 a8bf
00000220: 5ab3 2dbf c34e 43bf ad89 71be a918 d9be
00000230: be9c e7be afd3 8d3d f773 d8bf 5ae2 f7be
00000240: 6927 05bf 3d09 a7be 5a6a 90bf c01a 82bf
00000250: 2232 cdbe 4167 9ebf 6e6c 5bbf fbb7 e6bf
00000260: da1a 263c 6fc6 77bf cabb 6abf f645 b2bd
00000270: 3cde 5fbe f956 c13f eaa4 9ebf 2cf0 aebf
00000280: 3d56 293f 2add adbf a8b1 a2bf efb2 c6bf
00000290: f11d 38bf f2f0 96bf b6d6 05bf bccc e1bf
000002a0: 916d 87bf 70de 7dbd 482d 47bf bded 0a3f
000002b0: 111a cfbf 9386 98be eeb4 f1be b459 0dbf
000002c0: 6188 54bf 9cc7 aabf 27b4 5fbe fa86 91be
000002d0: fab1 ebbf b8e3 c03e 9f27 283e 4f57 0cc0
000002e0: 86bd 07bf 6a1c 04bf c524 8ebf 35a9 32bf
000002f0: 7d9b b93e e7bd 37bf 282a 8abf 0ad3 4c3e
00000300: b581 8fbf b659 943e 6218 80bf 23f6 81bd
00000310: c223 0ebf b602 9a3f 1179 4bbf f1d1 34bf
00000320: 3ae8 d6be 313c 6ebf fee3 563f 97d0 25bf
00000330: c068 f93e ad34 8b3f d542 6dbf f8a7 9ebd
00000340: 8db3 bd3c 9965 8cbf 9349 f2bf 77dc f03b
00000350: 719c 423e fd32 0cbf b273 dabe 90ee d2bf
00000360: aea8 4bbf 5a8c c1bf a2a6 a33d 1c09 bc3c
00000370: 5748 78be d60f 47be 01b0 47bf 9ebd d8bf
00000380: 44e4 85be b86c aebf 1fa4 12bf 5030 c03d
00000390: 2d51 103f fe34 933e 02b2 12bf 0783 5d3f
000003a0: a573 11bf b927 73bf 5d7c 86bf f419 8abf
000003b0: 337a c43e c742 4abf 53f9 88bf 5177 95bc
000003c0: 98e0 d3be 8bf4 dabe 4afe a1bf 2f3e 54bf
000003d0: 1bb4 923f e84b c8be 58f8 523e 906f 60bf
000003e0: caa6 7b3e 2223 46bf 526a 99bf bf14 91bf
000003f0: 130b 96bf 442e a9be 5474 c9bf f4ad c8bf

fc2.weight f4 [1, 4096]
0.014900447 0.0068005132 -0.0013426306 -0.029969122 -0.020328002 -0.005942285 -0.025533251 -0.004973189
0.011576871 0.003910425 -0.023841139 0.0016361988 0.01956085 0.022350965 0.0037474758 -0.009705607
-0.006587592 0.037918027 -0.024777573 -0.007934775 -0.00395904 0.0026340566 0.0025949094 0.0033788523
0.035807095 -0.026209634 0.01305092 0.015685245 0.015231522 -0.023393828 0.009806965 0.004504967
-0.0006531907 -0.0043255226 0.025980635 0.012648723 -0.015197215 -0.010038631 -0.05193336 0.017150719
-0.0130987875 0.022341203 -0.013727739 -0.032209095 0.0016227091 -0.00059479673 -0.02079702 0.018488122
-0.0056106793 -0.0029665674 -0.0077124876 0.016048688 0.00052303734 -0.000577394 0.015686123 -0.0022879466
0.009822009 -0.032549545 -0.044895 0.028459338 -0.004202178 0.012358403 -0.01829485 -0.03958113
0.0024894055 0.005294662 -0.012218622 -0.00071499817 0.015588057 -0.018907316 0.021592548 0.00686384
-0.008916911 -0.033646252 0.019505516 -0.0031096297 -0.03514886 0.015526032 -0.0037520796 0.006759708
0.011775649 -0.0069307256 0.020024259 0.0034369715 0.010053798 0.028184116 0.0151779475 -0.017397717
0.0013764359 -0.015669778 -0.0118345665 -0.0052458434 -0.020536441 0.029747799 0.01580395 0.007595824
0.003892835 0.009611835 -0.0018668694 0.017384686 -0.0019372534 0.024976404 -0.014265503 0.019239904
-0.0129838195 0.03867118 -0.019440455 -0.019548377 0.052836996 -0.0048908293 0.013397797 0.0114615485
0.0031440777 -0.007769293 -0.010077513 -0.03448267 0.006540233 -0.010316892 0.024176994 -0.009403881
-0.015406115 0.031993426 -0.028532231 0.009293293 0.024449117 0.038818 -0.005874756 -0.011078825
0.02850847 -0.004657536 0.012095625 0.030854335 -0.021518316 0.015247704 -0.008536258 0.018925354
-0.011243902 -0.024782244 0.03553127 0.03800386 0.0023715904 0.009042934 -0.015046958 0.009313957
0.017557064 0.025872704 -0.026393576 0.022095645 0.009929647 -0.014319771 -0.0066682673 -0.030249454
0.013770315 0.029354488 0.002113294 -0.020996246 -0.03369861 -0.02618582 0.0036996105 0.011094709
-0.006270146 0.0100688785 0.016666876 -0.0064609875 0.0064782486 -0.014416756 0.017383887 -0.037621845
-0.02565519 -0.012295755 -0.019384464 0.011839835 0.0015118322 0.024707144 -0.01535043 0.018285666
0.01765482 -0.0044954363 0.012021362 0.01026031 -0.0051995968 -0.010096113 0.025669284 -0.0065748324
0.01686856 -0.034705758 0.021919746 0.0077601844 -0.01595315 0.00056944427 0.007067273 -0.010450778
-0.00076103024 -0.006776122 0.021240614 -0.021544797 0.00041302448 0.0009841103 0.018521251 0.024969434
0.04050098 0.0014267511 -0.017368099 -0.00782138 -0.005105928 0.017295798 0.010138539 -0.005173762
0.00039881386 0.033373166 -0.008240969 0.007270714 -0.026837837 0.018444506 0.023834664 0.04773886
0.007021013 -0.0375686 0.024336804 0.022889782 0.009409826 -0.0132243475 -0.023420949 -0.0017074931
-0.04215287 0.0051246183 -0.021193257 -0.0014610859 0.030673794 0.01588789 0.030968621 -0.0023890762
-0.018848859 -0.005367588 -0.009143978 -0.038016543 -0.015350476 -0.009881986 0.03634476 0.039032146
0.02662641 0.063489355 0.0008236453 0.002893959 -0.033083457 0.040350284 -0.0015683377 0.016017273
0.02762691 -0.0007934181 -0.01851658 -0.048564766 0.008565789 -0.011583324 -0.021120071 0.04423704
00000000: 0121 743c d7d6 de3b 35fb afba ce81 f5bc
00000010: e986 a6bc 80b7 c2bb 1c2b d1bc 22f6 a2bb
00000020: ebac 3d3c 0623 803b 7e4e c3bc b975 d63a
00000030: 133e a03c 5f19 b73c 3698 753b 4404 1fbc
00000040: badc d7bb ef4f 1b3d 56fa cabc dc00 02bc
00000050: d6ba 81bb 23a0 2c3b 5b0f 2a3b bc6f 5d3b
00000060: 76aa 123d 96b5 d6bc 87d3 553c 587e 803c
00000070: a28d 793c 6aa4 bfbc 64ad 203c 679e 933b
00000080: e33a 2bba 1dbd 8dbb 57d5 d43c 973c 4f3c
00000090: bdfd 78bc 1279 24bc 13b8 54bd aa7f 8c3c
000000a0: 4c9c 56bc e604 b73c 50ea 60bc afed 03bd
000000b0: 15b1 d43a 22ec 1bba 835e aabc 6774 973c
000000c0: cad9 b7bb be6a 42bb 09b9 fcbb 8a78 833c
000000d0: 711c 093a 415c 17ba 2f80 803c 60f1 15bb
000000e0: 7eec 203c ac52 05bd d2e3 37bd 8f23 e93c
000000f0: 6db2 89bb e67a 4a3c 15df 95bc d31f 22bd
00000100: 4b25 233b d87e ad3b 9d30 48bc b76e 3bba
00000110: 0d65 7f3c 84e3 9abc dbe2 b03c 10ea e03b
00000120: 3c18 12bc a7d0 09bd 08ca 9f3c eeca 4bbb
00000130: 40f8 0fbd e660 7e3c 73e5 75bb 8a80 dd3b
00000140: a7ee 403c 241b e3bb ea09 a43c d03e 613b
00000150: afb8 243c 60e2 e63c edac 783c a885 8ebc
00000160: 8669 b43a e85d 80bc c5e5 41bc 53e5 abbb
00000170: 0a3c a8bc a8b1 f33c 4977 813c 64e6 f83b
00000180: ef1e 7f3b f57a 1d3c beb1 f4ba 546a 8e3c
00000190: 70eb fdba 519b cc3c dbb9 69bc 019d 9d3c
000001a0: 16ba 54bc ac65 1e3d 9741 9fbc eb23 a0bc
000001b0: 9b6b 583d 4043 a0bb 6f82 5b3c 38c9 3b3c
000001c0: df0c 4e3b 8e95 febb 271c 25bc b33d 0dbd
000001d0: 734f d63b 2e08 29bc d50e c63c bc12 1abc
000001e0: ee69 7cbc 8a0b 033d 6dbc e9bc e542 183c
000001f0: 8449 c83c a0ff 1e3d 0681 c0bb f683 35bc
00000200: 988a e93c 3e9e 98bb ba2c 463c 3bc2 fc3c
00000210: 2e47 b0bc 82d1 793c a9db 0bbc 5809 9b3c
00000220: 5838 38bc 2204 cbbc 3d89 113d efa9 1b3d
00000230: af6c 1b3b d028 143c 8487 76bc 9199 183c
00000240: d5d3 8f3c fef2 d33c 5737 d8bc ed01 b53c
00000250: f5af 223c 799d 6abc 7b81 dabb b4cd f7bc
00000260: e39c 613c d378 f03c 317f 0a3b 5200 acbc
00000270: 8e07 0abd a583 d6bc 2a75 723b 95c6 353c
00000280: cc75 cdbb f0f7 243c f988 883c b1b6 d3bb
00000290: 7d47 d43b 4234 6cbc a768 8e3c 5d19 1abd
000002a0: d52a d2bc 2274 49bc 2bcc 9ebc defb 413c
000002b0: ac28 c63a a366 ca3c 5f80 7bbc d2cb 953c
000002c0: d7a0 903c 744e 93bb 3ff5 443c dc1a 283c
000002d0: 6161 aabb 2b6a 25bc 6448 d23c b171 d7bb
000002e0: ef2f 8a3c a027 0ebd 0a91 b33c 2549 fe3b
000002f0: 2eb0 82bc c246 153a 9594 e73b bd39 2bbc
00000300: e07f 47ba 3b0a debb cc00 ae3c b77e b0bc
00000310: 358b d839 43fd 803a e1b9 973c b38c cc3c
00000320: 5be4 253d d301 bb3a 8b47 8ebc 3f25 00bc
00000330: a14f a7bb ebaf 8d3c 1d1c 263c a988 a9bb
00000340: e417 d139 4db2 083d 2105 07bc 2b3f ee3b
00000350: 06db dbbc ef18 973c ea40 c33c d389 433d
00000360: 8710 e63b 88e1 19bd fa5d c73c 5a83 bb3c
00000370: ac2b 1a3c efaa 58bc 4add bfbc f6cd dfba
00000380: 7da8 2cbd 6aec a73b 7b9d adbc e881 bfba
00000390: 9c47 fb3c 5227 823c e8b1 fd3c 0c92 1cbb
000003a0: ec68 9abc 97e2 afbb a0d0 15bc 3cb7 1bbd
000003b0: 9080 7bbc 0ee8 21bc 3ede 143d 2ce0 1f3d
000003c0: a11f da3c b506 823d e7e9 573a 93a8 3d3b
000003d0: 8582 07bd 5746 253d ae90 cdba a836 833c
000003e0: d451 e23c 63fd 4fba 15b0 97bc d9eb 46bd
000003f0: 8657 0c3c fbc7 3dbc 0004 adbc e631 353d
