checkpoint/perturb/5/NGD/mlp_epoch493_seed15.pt (torch, 67303 bytes, 3 tensors)

fc1.weight f4 [4096, 2]
-0.83996534 0.14799272 -0.7601818 -0.7540663 -0.8891537 -1.0299832 1.1968919 -0.4044635
-0.017160673 0.78769803 -1.6170202 0.640138 2.04618 -0.05385359 -0.40395975 1.2312243
0.052410394 0.8737913 -1.9351844 0.9090694 -1.7565597 0.47915286 1.5463468 -0.44312695
-1.364412 0.13726537 -1.8882886 0.10250204 -1.4344686 0.64636517 -0.81270105 0.7840756
-1.2800547 0.47128096 -2.2911866 -0.47695708 -0.160216 -1.373413 0.19515522 -0.4472201
-1.3144617 -1.5119686 0.9816624 0.68964535 -0.41867155 1.3588984 -0.21403614 -0.45553938
1.6879672 1.2692218 1.8613307 -0.40850896 -0.1852255 -0.091750935 -0.18926516 0.9851
1.1524004 -0.3296186 -2.102235 0.30622768 -0.052120376 -0.80497324 -0.31005833 -0.9980518
-1.0897057 0.312684 0.09872834 -1.064626 0.54625505 0.08583818 -1.1017652 0.061071265
-0.09741073 -0.5059883 -1.7979367 -1.1813128 0.78361017 3.1311603 -0.120633416 -0.19677265
-0.977205 0.6719653 0.48554474 -0.59652287 0.3156697 -0.6994634 -0.5836936 2.8665009
-0.22983514 -3.1650875 -0.91934466 -1.3645215 1.3609589 3.044564 -0.31639722 -0.44341668
-2.3523436 -1.5966942 0.46390718 -0.24506849 -6.296725 -2.935032 -0.7840919 -1.9430412
-0.17284997 2.4508924 -5.6679683 -4.30761 -0.79811054 0.007415511 0.68913686 -1.7536571
-10.107805 -6.112693 -5.6330147 -5.0005317 -7.0569386 -3.407221 -0.3726232 0.67049134
4.8325834 5.995134 0.16929913 0.39260888 -8.156324 -5.7013426 -1.7527437 -0.6717628
-2.0671096 -0.5184833 -1.9982272 1.2348123 -0.7967741 -1.0853988 -1.0234956 -0.9091832
-2.2827132 0.17504382 -0.68386644 -1.798861 5.6650624 1.3729755 12.1050415 8.1303425
-9.112532 -6.0270104 0.18222578 0.5212541 -0.49835613 -1.8428104 1.2201426 -0.70408714
-0.7791443 0.54288733 0.34904584 -0.85306686 -3.1104224 0.34625164 1.8620198 -2.198249
-0.58984435 2.177518 -1.6222204 -0.7823376 -1.0362471 -0.3456168 1.527335 0.86089677
23.762026 17.136751 -6.743096 -4.7729683 -0.8593535 -1.1950984 0.123979636 0.009076565
-0.68069035 -1.6433734 -51.05052 -46.419098 0.7640888 -0.86944395 -0.67484313 0.47368088
-0.8958772 0.30313256 -1.2451327 0.46649483 -0.71363497 0.0052531227 0.6698886 -0.04075872
-25.211 -7.97114 -0.89668167 -0.16135097 -1.4227669 0.9539564 -0.064847186 -0.54279697
-0.82803154 -0.71492726 -89.84865 -47.67066 -0.38868183 -0.629845 7.788048 4.144133
-0.27705368 0.5714789 0.98684293 -0.3678785 -0.37332815 0.6733398 -0.79122233 1.3181418
-0.4613519 -0.1645517 -1.1511042 -0.22634232 0.85733867 -0.38971612 -15.366151 -1.5409127
0.278169 0.24745657 -0.06333589 -1.0891429 0.059560258 -0.79184943 -0.83464473 -0.4419513
-0.31554908 0.0234977 -1.5599241 1.4132384 -1.0629413 -0.17083122 -2.12667 -1.507823
11.926921 6.0910316 -0.19893754 -0.87922907 0.8344554 0.43005633 1.1549562 -1.7198772
-1.287892 -0.14032233 -0.21209264 1.0073183 -38.16849 -12.899297 -4.8611383 -6.6514673
00000000: f807 57bf 678b 173e 469b 42bf 7d0a 41bf
00000010: 949f 63bf 7dd6 83bf c133 993f d715 cfbe
00000020: 8a94 8cbc 94a6 493f 85fa cebf 15e0 233f
00000030: 9df4 0240 9595 5cbd d0d3 cebe c298 9d3f
00000040: 48ac 563d c9b0 5f3f 1fb4 f7bf c6b8 683f
00000050: f3d6 e0bf 8653 f53e b1ee c53f 89e1 e2be
00000060: 0da5 aebf 4b8f 0c3e 71b3 f1bf 97ec d13d
00000070: ab9c b7bf 3078 253f 2d0d 50bf 2eb9 483f
00000080: d5d8 a3bf bd4b f13e cda2 12c0 b833 f4be
00000090: aa0f 24be ffcb afbf c5d6 473e 08fa e4be
000000a0: 4840 a8bf 3088 c1bf 3a4e 7b3f 998c 303f
000000b0: 1e5c d6be 62f0 ad3f 4a2c 5bbe 753c e9be
000000c0: 4f0f d83f dc75 a23f 1640 ee3f 1628 d1be
000000d0: c1ab 3dbe eae7 bbbd bace 41be 832f 7c3f
000000e0: db81 933f c5c3 a8be 058b 06c0 e0c9 9c3e
000000f0: 2d7c 55bd ba12 4ebf f7bf 9ebe 5380 7fbf
00000100: 7a7b 8bbf 1e18 a03e 1532 ca3d aa45 88bf
00000110: 5fd7 0b3f edcb af3d a406 8dbf dd25 7a3d
00000120: 477f c7bd 7388 01bf ca22 e6bf 4235 97bf
00000130: ad9a 483f ee64 4840 a70e f7bd c57e 49be
00000140: 1b2a 7abf eb05 2c3f 5299 f83e b9b5 18bf
00000150: 759f a13e 0910 33bf f26c 15bf c074 3740
00000160: e759 6bbe cb90 4ac0 2c5a 6bbf a4a8 aebf
00000170: e733 ae3f 23da 4240 d1fe a1be 8307 e3be
00000180: cc8c 16c0 7a60 ccbf 3e85 ed3e 3cf3 7abe
00000190: c57e c9c0 90d7 3bc0 3fba 48bf 93b5 f8bf
000001a0: 95ff 30be 6cdb 1c40 ff5f b5c0 f1d7 89c0
000001b0: f950 4cbf d1fd f23b 466b 303f d677 e0bf
000001c0: 92b9 21c1 2e9b c3c0 a841 b4c0 5b04 a0c0
000001d0: 71d2 e1c0 e90f 5ac0 78c8 bebe 52a5 2b3f
000001e0: 86a4 9a40 23d8 bf40 c05c 2d3e 0804 c93e
000001f0: 4e80 02c1 6671 b6c0 e859 e0bf a6f8 2bbf
00000200: 864b 04c0 52bb 04bf e9c5 ffbf 540e 9e3f
00000210: 63f9 4bbf 59ee 8abf e701 83bf 3bc0 68bf
00000220: f917 12c0 b03e 333e df11 2fbf 1441 e6bf
00000230: 3148 b540 a9bd af3f 40ae 4141 e215 0241
00000240: eecc 11c1 45dd c0c0 6599 3a3e e970 053f
00000250: 8928 ffbe 36e1 ebbf a22d 9c3f 0e3f 34bf
00000260: 0076 47bf aafa 0a3f 23b6 b23e 9762 5abf
00000270: 2911 47c0 e547 b13e aa56 ee3f 1db0 0cc0
00000280: 0a00 17bf 745c 0b40 eba4 cfbf 4747 48bf
00000290: bfa3 84bf aff4 b0be b77f c33f bb63 5c3f
000002a0: a118 be41 1118 8941 71c7 d7c0 28bc 98c0
000002b0: 97fe 5bbf fcf8 98bf 09e9 fd3d dfb5 143c
000002c0: b941 2ebf 0f5a d2bf bc33 4cc2 28ad 39c2
000002d0: 539b 433f e193 5ebf 85c2 2cbf 4d86 f23e
000002e0: 3558 65bf 3134 9b3e 8260 9fbf 69d8 ee3e
000002f0: c8b0 36bf 6322 ac3b d27d 2b3f 9ef2 26bd
00000300: 21b0 c9c1 9413 ffc0 ee8c 65bf 3039 25be
00000310: 3a1d b6bf 7d36 743f 9ace 84bd bef4 0abf
00000320: e0f9 53bf 7905 37bf 82b2 b3c2 c1ae 3ec2
00000330: 4e01 c7be 863d 21bf b037 f940 bd9c 8440
00000340: fbd9 8dbe 714c 123f bda1 7c3f 925a bcbe
00000350: de24 bfbe ff5f 2c3f 8c8d 4abf dfb8 a83f
00000360: 5136 ecbe 3e80 28be 6257 93bf 48c6 67be
00000370: 8c7a 5b3f df88 c7be c1db 75c1 a13c c5bf
00000380: 2b6c 8e3e 4165 7d3e 3fb6 81bd 0969 8bbf
00000390: 75f5 733d a5b6 4abf 47ab 55bf 7147 e2be
000003a0: a68f a1be 407e c03c 98ab c7bf ffe4 b43f
000003b0: 760e 88bf 61ee 2ebe 5c1b 08c0 5800 c1bf
000003c0: abd4 3e41 bbe9 c240 48b6 4bbe 2815 61bf
000003d0: de9e 553f 5830 dc3e 9bd5 933f f024 dcbf
000003e0: a5d9 a4bf a8b0 0fbe d02e 59be ceef 803f
000003f0: 89ac 18c2 8563 4ec1 728e 9bc0 d2d8 d4c0

fc1.bias f4 [4096]
-1.1098802 -0.6347967 -1.0456932 0.22156326 0.21938255 -1.2646712 -2.4687002 0.043854233
0.038709912 0.1931654 0.65097046 -0.6647052 -0.3157458 -0.29205835 0.097005434 -0.9583666
-0.9340912 -0.2670686 -1.8409275 -1.0581399 -0.7292009 0.7684426 -0.3739403 -0.51175797
-0.06828285 -0.64910847 -1.8101653 -1.0919086 -2.054789 -0.4621843 -0.56333995 -0.8031051
0.28763705 -0.959264 -1.0687907 -0.9543129 -1.7789974 1.2198488 -0.79624057 -0.5253628
-0.78704107 -0.659943 -1.3433319 -0.6871657 0.24246283 -0.30672988 -0.45707947 0.034764323
-0.89286286 -0.77413726 -0.78909165 -0.30477023 -0.46943715 0.80418533 -0.88344175 -0.84176517
-0.33257425 0.20474224 0.6186007 -0.8466966 -0.9231933 -0.94879186 0.25959724 -0.7307813
-0.56703275 -1.2252877 -0.5338274 -0.41793346 -1.0306168 -1.1003586 -0.3927385 0.08962202
-0.47125304 -1.3592026 -0.27709097 -1.3779647 -0.35069245 -0.9128321 -1.2031624 -0.75132537
-1.9307526 -2.1445017 -1.7668378 -2.170956 -0.24451758 -0.5175219 -0.055855237 -0.9009066
-1.1508417 -0.07970053 -1.0214157 -1.4656826 -1.3123538 -0.07670461 -1.6961733 -1.7033452
-0.013480278 -0.8345018 -0.7560662 -1.9308535 -0.967449 -0.9850861 0.30535308 0.32310358
-1.3595527 -1.1866338 -1.0655786 -1.1241884 -0.5714065 -0.91046405 -1.836475 -1.1590987
-1.4631242 -1.1666148 -1.0731552 -1.2854769 -0.9099049 -1.0886159 -0.60186136 -1.050156
-0.72028184 -0.7906058 -0.949299 -1.6239686 -0.039177854 -1.4779339 -0.1326692 -0.84252095
0.46214083 -1.2600515 -0.75428754 -1.0174788 -1.5012355 -0.75264764 -1.2022818 0.51031727
0.25514314 -0.14520057 -1.8054335 -1.8899976 -0.3876867 -0.034408856 0.45624316 -1.6804142
-1.6779045 -0.3871132 -0.3179403 -1.7700315 -0.44274008 -0.99268866 -0.9373762 -0.15713677
-1.0543618 -0.90869135 -0.4072187 -0.5422369 -0.47046816 -0.57965183 -0.23576155 -0.97765905
-0.13879526 -1.3693031 1.2288862 0.13612734 -0.6696568 -0.99747586 -0.048981845 -1.7452334
0.21126564 -0.11446616 -0.23158635 -1.8070521 -0.10705051 0.47104347 0.0053156824 -0.001625371
-0.8457487 -0.4491634 0.5725615 -1.5978693 -0.49286827 -1.1086154 -1.2165555 -1.806833
-1.0059655 -0.6441491 -0.15513866 -1.8467153 -0.33250836 -1.3741252 -0.6704407 -0.5508558
0.45833346 0.28044975 -0.7458542 -0.929368 -1.0679504 -1.0316392 -0.6707854 -0.6425303
0.30649608 -0.7552305 0.78800935 0.15246123 -0.5483555 -0.08803694 -0.26735213 -1.105665
-0.72300977 -1.2794261 -0.15624544 0.27099124 -0.80842155 -1.6541498 -1.1685438 -0.5219868
-0.69691944 -1.2104896 -0.8917346 -1.4519314 -1.8404139 0.43039083 -1.4208616 -1.4231972
-0.2900997 -0.21831055 -0.7357493 -0.95042443 -0.7757146 -0.45300388 -0.9798678 -0.7164593
-1.043725 -0.028916994 0.7433743 0.27558592 -0.094964765 -1.5777754 -0.40923417 -0.8125458
-0.6179049 0.13181672 -1.8436456 -2.1566374 -0.62010026 -1.0004983 -0.5642774 -1.8092471
-0.7568404 -2.1262012 0.21301618 -1.5254089 -1.7150064 -0.13707605 -1.1472833 0.2865876
00000000: 8e10 8ebf 0982 22bf 46d9 85bf 7be1 623e
00000010: d2a5 603e bfe0 a1bf 2fff 1dc0 7fa0 333d
00000020: 498e 1e3d 27cd 453e 00a6 263f 1f2a 2abf
00000030: 6fa9 a1be ac88 95be c9aa c63d 8357 75bf
00000040: 9a20 6fbf 37bd 88be 83a3 ebbf 2171 87bf
00000050: e9ac 3abf a7b8 443f 1a75 bfbe 9202 03bf
00000060: e1d7 8bbd f92b 26bf 7fb3 e7bf a9c3 8bbf
00000070: aa81 03c0 6ca3 ecbe 0c37 10bf 4c98 4dbf
00000080: 2a45 933e 5392 75bf 22ce 88bf da4d 74bf
00000090: 30b6 e3bf 0124 9c3f 6cd6 4bbf 2d7e 06bf
000000a0: 867b 49bf 06f2 28bf 4df2 abbf 17ea 2fbf
000000b0: 2d48 783e b30b 9dbe 5206 eabe 0965 0e3d
000000c0: a992 64bf dc2d 46bf e901 4abf d80a 9cbe
000000d0: 115a f0be 17df 4d3f 3d29 62bf ec7d 57bf
000000e0: 2c47 aabe f3a7 513e 9e5c 1e3f 1cc1 58bf
000000f0: 6556 6cbf 06e4 72bf eee9 843e 7c14 3bbf
00000100: 0f29 11bf 3ad6 9cbf eaa8 08bf 60fb d5be
00000110: 40eb 83bf 8dd8 8cbf 0515 c9be c08b b73d
00000120: 1448 f1be 5afa adbf dede 8dbe 2661 b0bf
00000130: f68d b3be 5daf 69bf 3a01 9abf dc56 40bf
00000140: e722 f7bf 843f 09c0 be27 e2bf f1f0 0ac0
00000150: d162 7abe 517c 04bf 76c8 64bd d1a1 66bf
00000160: c84e 93bf 083a a3bd c0bd 82bf 7d9b bbbf
00000170: 36fb a7bf 4e17 9dbd 351c d9bf 3707 dabf
00000180: 62dc 5cbc e9a1 55bf 8e8d 41bf 3526 f7bf
00000190: bdaa 77bf 9a2e 7cbf 3d57 9c3e d56d a53e
000001a0: d305 aebf 9ee3 97bf e164 88bf 68e5 8fbf
000001b0: b247 12bf 2c14 69bf 9d11 ebbf 595d 94bf
000001c0: a747 bbbf a253 95bf 265d 89bf 828a a4bf
000001d0: 87ef 68bf c457 8bbf 9613 1abf 836b 86bf
000001e0: 6464 38bf 2465 4abf 4205 73bf 34de cfbf
000001f0: f578 20bd f02c bdbf 6fda 07be 74af 57bf
00000200: b99d ec3e 5e49 a1bf fd18 41bf bf3c 82bf
00000210: 7c28 c0bf 84ad 40bf 5fe4 99bf 27a4 023f
00000220: 1fa2 823e 75af 14be 7218 e7bf 71eb f1bf
00000230: df7e c6be 4df0 0cbd b498 e93e d017 d7bf
00000240: 93c5 d6bf b433 c6be 12c9 a2be 6490 e2bf
00000250: d4ae e2be d820 7ebf e3f7 6fbf 76e8 20be
00000260: 54f5 86bf ff9f 68bf f87e d0be 0ad0 0abf
00000270: 34e1 f0be 1064 14bf 7a6b 71be dd47 7abf
00000280: 5820 0ebe 5345 afbf 254c 9d3f f764 0b3e
00000290: a16e 2bbf 945a 7fbf 30a1 48bd cf63 dfbf
000002a0: 0556 583e 3c6d eabd f924 6dbe 7c4d e7bf
000002b0: 4c3d dbbd 9c2c f13e 2d2f ae3b 670a d5ba
000002c0: fd82 58bf bff8 e5be 6493 123f fb86 ccbf
000002d0: 3b59 fcbe 1ce7 8dbf 17b8 9bbf 4e46 e7bf
000002e0: 7ac3 80bf f5e6 24bf abdc 1ebe 2b61 ecbf
000002f0: 893e aabe 56e3 afbf 00a2 2bbf e304 0dbf
00000300: afaa ea3e 1c97 8f3e 4df0 3ebf 10eb 6dbf
00000310: 99b2 88bf c10c 84bf 98b8 2bbf de7c 24bf
00000320: 0eed 9c3e c956 41bf fbba 493f cc1e 1c3e
00000330: 0761 0cbf b64c b4bd 61e2 88be 6e86 8dbf
00000340: 2b17 39bf 3cc4 a3bf cefe 1fbe 5dbf 8a3e
00000350: b7f4 4ebf 2ebb d3bf d892 95bf eda0 05bf
00000360: 5069 32bf 53f1 9abf b848 64bf e3d8 b9bf
00000370: af92 ebbf 305c dc3e cbde b5bf 532b b6bf
00000380: f387 94be cd8c 5fbe 115a 3cbf 044f 73bf
00000390: 3b95 46bf 20f0 e7be 9ed8 7abf e069 37bf
000003a0: c898 85bf 55e3 ecbc c74d 3e3f 9919 8d3e
000003b0: e37c c2bd 8bf4 c9bf 2487 d1be 0003 50bf
000003c0: 042f 1ebf f6fa 063e 94fc ebbf 5906 0ac0
000003d0: e4be 1ebf 5410 80bf 7c74 10bf 6995 e7bf
000003e0: 4bc0 41bf ae13 08c0 ea20 5a3e 9940 c3bf
000003f0: 5485 dbbf aa5d 0cbe 2eda 92bf 9cbb 923e

fc2.weight f4 [1, 4096]
-0.007943253 -0.006038891 0.005545501 0.0030074555 -0.00967709 -0.033673074 -0.0070853895 0.0031360476
0.01369633 0.008741346 0.020099007 0.032542318 0.021232665 -0.009776567 -0.016753595 0.0075910613
-0.024782723 -0.039613146 -0.013467529 -0.0027658595 0.0020197707 -0.0008916092 0.0004647407 -0.027145835
0.027501052 0.035599716 -0.03244209 0.022875804 -0.00737233 0.0028409439 0.022600463 -0.00027362385
-0.0126792705 -0.0059665088 -0.009187416 -0.021196557 -0.030828383 -0.020426275 0.022444187 0.015750382
-0.0026194747 -0.0062686065 -0.039226852 -0.0037257487 0.004394165 -0.004061759 0.010508434 -0.011281336
-0.018475087 0.028498873 -0.03711833 -0.027196847 -0.00040855806 -0.02318104 -0.017769594 -0.013868533
-0.042314213 -0.022418333 -0.021579614 -0.015811974 0.012683028 -0.013150516 -0.026760561 -0.034534063
-0.03308023 -0.009885109 0.040625706 0.015906047 -0.013127443 0.0048165275 0.0064521325 0.01714687
-0.025294803 0.009193661 0.01643622 -0.023019617 -0.0019790798 -0.013715456 0.0041931206 -0.0004719487
-0.001207652 -0.036976084 -0.0313963 -0.030216562 0.0159077 -0.008940473 0.015659261 0.023946721
-0.070996866 -0.052016642 0.014893436 0.01634921 0.00943391 -0.027618617 -0.0076567223 0.044487372
-0.01091715 0.0072843805 0.05453791 -0.03494159 0.016130015 -0.017912569 -0.01347815 0.004317865
-0.043030668 0.036530823 -0.0011370725 -0.0016391324 0.011981602 -0.010050095 -0.02495301 -0.0153914355
-0.0045595802 -0.027325477 0.007062207 -0.0070204413 -0.016230743 -0.0033734746 0.02230033 -0.022512522
0.0024732866 -0.019945404 -0.019112568 0.030282117 0.011137361 -0.0066170017 -0.010909876 -0.014358194
0.00653356 -0.0058380887 0.022924935 0.010047308 -0.00055736443 0.016000481 0.025457568 0.03974694
-0.03572992 0.010374684 0.033679664 0.013139339 -0.010980433 -0.009571179 -0.025388958 0.019893419
-0.0048000556 0.037061762 0.03194585 -0.05501785 0.01084648 0.0014668884 -0.0043610125 -0.006212984
0.015095249 0.012974774 0.018807739 0.018428845 -0.022111919 -0.007668982 -0.054389294 0.00625623
0.02897776 0.027113812 0.016746549 -0.0049580373 0.028484322 -0.023568682 -0.00840356 0.046634197
-0.005450142 -0.033126272 -0.010617056 -0.038886044 -0.030864786 0.02840787 -0.014858061 0.020740572
0.010303416 -0.013367931 0.013383773 -0.0053275465 0.021733792 -0.0032842562 -0.03519519 0.000124782
0.0027421138 0.01059469 0.049364876 0.018889079 0.008773629 -0.006946559 0.020566447 0.007847983
-0.0142041175 0.017105026 0.037856977 -0.014916542 -0.038227435 -0.0002375273 -0.025690498 0.025758253
-0.02625256 -0.015093005 0.019712154 0.05187548 -0.0031727697 0.008632013 0.008805392 0.023620987
-0.005632864 -0.026656423 -0.0004316406 -0.015704243 -0.021305714 -0.0034343353 -0.01875546 0.01587143
0.018094992 0.01840245 0.004125693 -0.0020736707 -0.004254135 0.042832885 0.00964738 0.016538022
-0.024772897 0.01787441 -0.015501143 0.0175051 -0.0030037807 0.022813225 0.018814588 0.027669681
0.06481269 0.015196504 0.011200242 0.023374055 -0.0038431238 0.024195647 -0.0202136 0.002673182
0.012481577 -0.03839171 -0.023138918 0.024638414 -0.032183245 0.015725182 0.0079907365 0.0368488
-0.00847412 0.010403424 -0.011044125 0.013925099 0.017306527 -0.036545165 -0.025613064 0.02340906
00000000: 6b24 02bc e4e1 c5bb 09b7 b53b bb18 453b
00000010: a88c 1ebc c7ec 09bd 8e2c e8bb 2686 4d3b
00000020: 9266 603c dd37 0f3c aca6 a43c 184b 053d
00000030: 20f0 ad3c e52d 20bc d63e 89bc 70be f83b
00000040: 2305 cbbc 6541 22bd e9a6 5cbc 6c43 35bb
00000050: 215e 043b e1ba 69ba 71a8 f339 f160 debc
00000060: e349 e13c 02d1 113d ffe1 04bd 0a66 bb3c
00000070: 9693 f1bb 212f 3a3b 9b24 b93c 2c75 8fb9
00000080: b7bc 4fbc b482 c3bb d186 16bc 67a4 adbc
00000090: ce8b fcbc 0155 a7bc dfdc b73c f206 813c
000000a0: 7eab 2bbb e268 cdbb 56ac 20bd b12b 74bb
000000b0: edfc 8f3b 8118 85bb 912b 2c3c 5ad5 38bc
000000c0: 1159 97bc 7876 e93c 6409 18bd eccb debc
000000d0: bc33 d6b9 2ae6 bdbc 8a91 91bc d838 63bc
000000e0: ab51 2dbd a7a6 b7bc bbc7 b0bc 1d88 81bc
000000f0: 7acc 4f3c 4375 57bc f738 dbbc 9773 0dbd
00000100: 237f 07bd 27f5 21bc 2467 263d 664d 823c
00000110: 7d14 57bc f6d3 9d3b 696c d33b 9877 8c3c
00000120: 0c37 cfbc 02a1 163c 40a5 863c a393 bcbc
00000130: 73b3 01bb cbb6 60bc 7266 893b e26f f7b9
00000140: 144a 9eba 3c74 17bd 6899 00bd b988 f7bc
00000150: dd50 823c 107b 12bc da47 803c ea2b c43c
00000160: ce66 91bd 670f 55bd 9903 743c c7ee 853c
00000170: b090 1a3c 7040 e2bc 3ee5 fabb 6438 363d
00000180: d9dd 32bc d0b1 ee3b 2563 5f3d ea1e 0fbd
00000190: 1823 843c 61bd 92bc 75d3 5cbc e07c 8d3b
000001a0: ed40 30bd 58a1 153d d209 95ba 28d8 d6ba
000001b0: 7b4e 443c 27a9 24bc 416a ccbc 5c2c 7cbc
000001c0: 8868 95bb aed9 dfbc 166a e73b bb0b e6bb
000001d0: 56f6 84bc 8315 5dbb 2faf b63c 2e6c b8bc
000001e0: dd16 223b 8b64 a3bc f691 9cbc 3412 f83c
000001f0: 7a79 363c 6fd3 d8bb 56bf 32bc a13e 6bbc
00000200: 7917 d63b 704d bfbb 13cd bb3c 779d 243c
00000210: 181c 12ba 7113 833c 648c d03c b0cd 223d
00000220: 8959 12bd 94fa 293c b0f3 093d 6246 573c
00000230: 46e7 33bc 6fd0 1cbc 81fc cfbc 86f7 a23c
00000240: c949 9dbb 13ce 173d a7d9 023d 665a 61bd
00000250: 6fb5 313c 9b44 c03a d3e6 8ebb 4a96 cbbb
00000260: 1052 773c 2694 543c b012 9a3c 17f8 963c
00000270: 0e24 b5bc 154c fbbb 4fc7 5ebd 1001 cd3b
00000280: c462 ed3c c91d de3c 0f30 893c 0877 a2bb
00000290: f457 e93c 1c13 c1bc 16af 09bc 8003 3f3d
000002a0: 1b97 b2bb 6aaf 07bd 29f3 2dbc f946 1fbd
000002b0: 26d8 fcbc 9fb7 e83c 3a6f 73bc 22e8 a93c
000002c0: a9cf 283c 2b05 5bbc 9d47 5b3c b392 aebb
000002d0: 110b b23c ad3c 57bb d528 10bd ead7 0239
000002e0: 09b5 333b 5a95 2d3c d332 4a3d 45bd 9a3c
000002f0: 44bf 0f3c f69f e3bb f77a a83c d494 003c
00000300: 63b8 68bc d71f 8c3c eb0f 1b3d 8364 74bc
00000310: 5f94 1cbd c010 79b9 e174 d2bc f902 d33c
00000320: 9c0f d7bc a748 77bc 627b a13c 627b 543d
00000330: 3eee 4fbb 496d 0d3c 7e44 103c cd80 c13c
00000340: e393 b8bb 925e dabc d24d e2b9 2fa6 80bc
00000350: 5289 aebc 9612 61bb 0da5 99bc cd04 823c
00000360: f33b 943c bcc0 963c d230 873b 6ce6 07bb
00000370: 4566 8bbb 8971 2f3d 0b10 1e3c bf7a 873c
00000380: 88f0 cabc 5b6d 923c 82f8 7dbc db66 8f3c
00000390: 14db 44bb cde2 ba3c 0d21 9a3c 87ab e23c
000003a0: 84bc 843d c2fa 783c 3881 373c f27a bf3c
000003b0: ebdc 7bbb f335 c63c fe96 a5bc 8d30 2f3b
000003c0: 877f 4c3c a040 1dbd d48d bdbc 80d6 c93c
000003d0: 94d2 03bd 19d2 803c 94eb 023c c4ee 163d
000003e0: 09d7 0abc 1f73 2a3c 6bf2 34bc 1926 643c
000003f0: 6bc6 8d3c 62b0 15bd 7dd2 d1bc 5bc4 bf3c
