checkpoint/perturb/5/NGD/mlp_epoch491_seed11.pt (torch, 67303 bytes, 3 tensors)

fc1.weight f4 [4096, 2]
-0.5107965 1.0282699 -0.35313848 0.12299587 -0.17748287 -1.4970695 0.01647403 -0.62011576
-0.24874718 -0.52529347 4.1480083 0.23872703 4.728518 2.1683307 -1.3151141 -0.008005612
-1.2077304 0.4117437 -1.6394634 -1.592533 -0.1546234 -1.0964417 0.23229842 0.14206304
-0.39351574 0.6170813 0.44134748 0.42354697 -0.9088262 -2.1685677 -1.3241985 1.1267438
-0.22553933 0.521757 -2.0597718 0.13833198 0.49617463 -0.6052805 -0.8006931 0.15864104
0.15620212 -1.1481972 0.2800776 0.37349457 1.3308136 -1.2409925 -0.8154201 0.88198644
3.3330746 0.86165607 0.54850197 -1.5884911 -0.033789076 0.37334996 0.9974847 -0.21558401
1.3265884 -0.10864101 -1.0265024 0.043578345 -4.5859466 -1.6477716 -3.6368864 -0.8743756
-1.4555643 0.55822533 -3.2541273 -1.5402416 -0.86042666 -0.85281634 -2.4037087 -2.3622677
-0.90298474 -1.7102035 -3.1449258 -1.4016651 0.28668004 1.1018941 -1.7209734 -0.05897795
0.8454922 -0.13036023 -0.32316887 -0.7118742 -0.22730462 -2.5321941 0.3414619 1.104824
-3.9221034 -2.2787302 -13.470464 -8.487101 1.4768294 0.14487796 -1.6498926 -0.043486904
0.44980067 -0.55059254 -0.42786065 1.5626131 -1.2375163 -1.7875415 -0.42249164 -1.0846086
0.41272718 -0.22840984 -1.6792076 1.4899462 -1.1768739 1.845544 0.7274291 0.40350145
-7.4737043 -4.9810324 0.1566537 -2.8635175 -1.7517859 -2.9518657 0.07452692 0.28185064
0.38898996 -2.2678912 -0.695021 0.8543086 0.1758495 0.6641691 -1.1915458 1.0863373
-0.95542186 -1.0054822 -0.5948202 0.82402813 -0.373288 0.62881386 -34.475212 -22.840696
-30.729582 -17.106468 -5.78663 -2.4235208 -7.0179114 -3.2553592 -0.06295782 -0.35285452
0.33095744 -0.57497007 0.41261566 -0.3786857 1.2536892 -0.13334139 -1.3512917 -2.3166366
0.4825193 0.71190685 -9.849344 -4.7658763 -0.3908684 -0.8436971 -55.247456 -30.965357
-56.71136 -31.78555 -0.14541104 -1.3702631 0.12358455 -1.1937128 -26.284126 -14.5786705
-56.63312 -34.278088 1.0762177 -0.4689748 -2.4596872 -1.7786363 0.62510085 -0.82307684
-2.1522567 -0.016473167 -0.3945049 -0.7830246 -2.1304553 -2.7913713 -23.101736 -12.302886
-19.353727 -10.805362 -0.03441887 0.97439265 -0.34046444 0.85737365 -60.17853 -30.55782
-1.3578544 -1.0180328 0.41470146 -0.86280894 -0.46847376 0.27619436 -0.55793685 -0.469871
-6.6166744 -3.277905 -1.069664 -0.99099034 -30.409512 -9.387009 0.72716415 0.21854931
-22.418177 -9.111897 -0.8855444 0.3567349 -95.34768 -48.340553 -236.82207 -131.29419
-0.037675206 -1.7788887 -0.49455392 -1.714327 0.27666572 -2.1497912 0.8340787 0.07850426
-1.6789142 -0.4734306 0.008971319 1.3364344 -0.8135086 -1.592761 0.13512464 -1.7722751
-1.6928822 -0.10531148 0.49981418 -0.25865048 -5.9156075 -1.1486971 0.9466825 1.0368664
-1.2688786 -2.1839838 0.5062947 -1.0247548 -0.60502386 0.63024783 -63.78462 -34.574974
1.5522581 0.4948603 0.24954484 -0.5313285 -0.6395753 -0.44820395 -0.24410395 0.1281535
00000000: 8fc3 02bf 599e 833f 91ce b4be 42e5 fb3d
00000010: 12be 35be f99f bfbf 8cf4 863c e8bf 1ebf
00000020: 95b7 7ebe a279 06bf 7cbc 8440 dc74 743e
00000030: 0550 9740 eec5 0a40 a955 a8bf f829 03bc
00000040: e996 9abf 12d0 d23e f0d9 d1bf 1fd8 cbbf
00000050: 9955 1ebe 3458 8cbf a3df 6d3e f978 113e
00000060: e57a c9be 0af9 1d3f 4cf8 e13e 26db d83e
00000070: d5a8 68bf d0c9 0ac0 567f a9bf 2439 903f
00000080: c8f3 66be de91 053f 4dd3 03c0 e6a6 0d3e
00000090: 9a0a fe3e aaf3 1abf 39fa 4cbf cc72 223e
000000a0: 73f3 1f3e 20f8 92bf 5566 8f3e ae3a bf3e
000000b0: 1a58 aa3f d8d8 9ebf 5fbf 50bf ddc9 613f
000000c0: 1851 5540 7e95 5c3f a06a 0c3f ad53 cbbf
000000d0: 6a66 0abd ba27 bf3e 285b 7f3f 0ec2 5cbe
000000e0: a6cd a93f 2e7f debd 6e64 83bf 357f 323d
000000f0: 13c0 92c0 2eea d2bf bfc2 68c0 14d7 5fbf
00000100: ee4f babf dbe7 0e3f 9f43 50c0 a326 c5bf
00000110: ec44 5cbf 2c52 5abf 5dd6 19c0 652f 17c0
00000120: 022a 67bf f3e7 dabf 7746 49c0 c369 b3bf
00000130: bac7 923e de0a 8d3f db48 dcbf dd92 71bd
00000140: 2d72 583f 277d 05be 6476 a5be 633d 36bf
00000150: 8bc2 68be 780f 22c0 18d4 ae3e df6a 8d3f
00000160: be03 7bc0 b7d6 11c0 0587 57c1 2acb 07c1
00000170: bf08 bd3f e35a 143e ae2f d3bf 531f 32bd
00000180: 464c e63e a2f3 0cbf 8d10 dbbe b503 c83f
00000190: ef66 9ebf 29ce e4bf d350 d8be 74d4 8abf
000001a0: fa50 d33e 45e4 69be 46f0 d6bf 8fb6 be3f
000001b0: cea3 96bf c93a ec3f cb38 3a3f be97 ce3e
000001c0: 9628 efc0 9e64 9fc0 d469 203e df43 37c0
000001d0: 853a e0bf 5eeb 3cc0 92a1 983d ba4e 903e
000001e0: b129 c73e 2125 11c0 e5ec 31bf f8b3 5a3f
000001f0: e411 343e fc06 2a3f 9384 98bf 1a0d 8b3f
00000200: 8796 74bf a4b3 80bf 2346 18bf 82f3 523f
00000210: 9b1f bfbe f2f9 203f 9ee6 09c2 bfb9 b6c1
00000220: 2fd6 f5c1 0cda 88c1 132c b9c0 f71a 1bc0
00000230: bb92 e0c0 ce57 50c0 08f0 80bd 59a9 b4be
00000240: 4173 a93e 3d31 13bf 5c42 d33e 18e3 c1be
00000250: e378 a03f a58a 08be 20f7 acbf c643 14c0
00000260: c50c f73e 873f 363f ea96 1dc1 0f82 98c0
00000270: e71f c8be 88fc 57bf 65fd 5cc2 0db9 f7c1
00000280: 6fd8 62c2 ce48 fec1 a2e6 14be c864 afbf
00000290: e619 fd3d 95cb 98bf e445 d2c1 3c42 69c1
000002a0: 5188 62c2 c31c 09c2 80c1 893f 771d f0be
000002b0: 846b 1dc0 5baa e3bf 9c06 203f 2ab5 52bf
000002c0: 93be 09c0 bcf2 86bc 8cfc c9be 4d74 48bf
000002d0: 6159 08c0 d4a5 32c0 5bd0 b8c1 9fd8 44c1
000002e0: 6fd4 9ac1 c3e2 2cc1 cdfa 0cbd cc71 793f
000002f0: 5b51 aebe d77c 5b3f d1b6 70c2 6a76 f4c1
00000300: 2cce adbf e64e 82bf c053 d43e 0ce1 5cbf
00000310: cbdb efbe 5969 8d3e f3d4 0ebf ef92 f0be
00000320: ccbb d3c0 32c9 51c0 c0ea 88bf 8bb1 7dbf
00000330: ae46 f3c1 3031 16c1 6e27 3a3f 64cb 5f3e
00000340: 6d58 b3c1 55ca 11c1 0ab3 62bf f5a5 b63e
00000350: 03b2 bec2 ba5c 41c2 73d2 6cc3 504b 03c3
00000360: 5151 1abd a0b2 e3bf 2c36 fdbe 116f dbbf
00000370: 21a7 8d3e 2e96 09c0 2f86 553f d7c6 a03d
00000380: a9e6 d6bf 7f65 f2be 70fc 123c 4810 ab3f
00000390: 1a42 50bf 98df cbbf 1d5e 0a3e e9d9 e2bf
000003a0: 5db0 d8bf 8cad d7bd a5e7 ff3e d66d 84be
000003b0: a84c bdc0 8208 93bf c959 723f 0ab8 843f
000003c0: 9d6a a2bf 64c6 0bc0 889c 013f 2a2b 83bf
000003d0: d8e2 1abf ec57 213f 7323 7fc2 c64c 0ac2
000003e0: 65b0 c63f 545e fd3e af88 7f3e 2505 08bf
000003f0: 35bb 23bf fd7a e5be 63f6 79be ac3a 033e

fc1.bias f4 [4096]
-1.0862421 -0.77380353 0.21394886 0.43912688 -2.876485 -0.7668881 0.8655887 -0.654593
0.3285201 -1.3538575 -1.7965966 -0.2760481 -0.4891638 -0.7802986 0.9169869 -1.4250829
-0.6300269 -1.5276389 -0.54491884 -0.87081474 -0.15633267 -1.1635573 -1.4600686 -0.2987452
0.20272264 -1.7625387 -0.9071744 -1.0899816 -2.0331495 -1.2957386 0.9237744 0.2717774
-1.612474 0.2111618 -0.8325387 -0.5253453 -0.9345312 -0.76779026 -1.0854082 -1.8615619
-1.3104107 -1.3680675 -1.725218 -1.4501826 0.048838105 -0.41892058 -1.6694802 -1.5774511
-0.50935686 -0.27319655 -0.091890074 -0.97648364 -0.41793352 -0.6772248 -0.95064014 -1.5892745
-0.37997517 -0.19827044 -0.36726665 -1.7144392 -1.0786322 -0.77930146 -1.1100717 -0.27326325
-1.3465748 -0.36999202 -0.869356 -0.49137223 -0.4926369 -0.4007169 0.16227828 -0.6205573
-1.7044702 -0.7717866 -1.4735367 -1.0031177 -1.4480469 -1.3142529 -0.65038097 0.3363736
-0.49667355 -0.19338466 -0.55850255 0.462596 0.16872236 -1.1729146 0.14643788 -0.6553916
-2.329189 -1.0474187 -0.6300458 0.39956585 -1.0992851 -1.1436555 -1.1152155 -1.5464745
-0.18188818 -1.1081313 -0.48665872 -0.0898814 -0.42106664 -1.3251101 -0.48722532 -0.86036634
-0.33180916 0.050640788 -0.3616159 0.25525007 -1.4772044 -0.41973028 -0.556225 -1.3176297
-1.1476799 -1.452956 -0.9904773 -0.49958664 -0.4159514 -0.7135232 -0.7836406 -2.0484622
-1.7524855 -2.180072 -2.0196168 -0.13713281 -2.1374981 -1.4980756 -0.3948836 -0.5506051
-0.31479606 -0.4462172 -1.5215348 0.22874899 -1.5807115 -1.885321 -0.22818999 -0.52371264
0.09532089 0.09229654 0.6018495 -1.5433189 -0.3701932 -0.6187213 -0.76158 0.45372304
0.27726704 -0.71295285 -0.9762358 -1.710499 -0.64469707 -0.05841136 0.101371445 -2.0966754
0.42868456 -0.678434 -0.62655824 0.32091123 0.32134384 -0.0855047 -0.71966106 0.550281
-0.62409586 -1.5587912 -0.8828093 -0.52342063 -0.68620676 0.02523593 -0.21369915 -1.7033025
-0.53243417 -0.110559575 -1.6204108 -0.5035843 -0.9132105 0.058366142 -1.248676 -0.71855944
-0.5380986 -0.35843444 -1.0187275 -1.1365844 -0.67293465 -0.26107597 -1.5584863 -1.681447
-1.5860686 -0.18160875 -0.89374954 -1.5475305 -0.8134195 -0.6874155 -1.1154375 -0.7670419
-0.23751411 0.29639214 -1.2830756 -1.4969313 0.48186392 -1.7868928 -1.2088352 0.2614703
-0.22351493 -1.3093883 -0.78571403 -1.6685978 -0.649538 -0.56609684 -0.012499959 -0.5342259
-1.5006576 0.671687 -0.1241349 -1.056828 -0.4614727 -0.04078827 -0.011126726 -1.3765483
-1.3658748 0.14747556 -0.044132747 0.3034179 -1.7327217 0.9270764 0.17215006 1.0709634
-1.8907216 -2.2370214 -0.29903024 -1.1899599 -0.94688594 -0.979256 -0.7794058 0.13373017
0.85376555 -0.94550765 -0.35634762 0.63003105 -0.1398653 -2.377144 -0.45511794 -0.8408184
-1.0924065 -0.7217117 -1.0587392 -0.44119507 -0.02363751 -0.9936486 -0.48675385 -0.8796481
-0.6747286 -0.80478954 -0.6419433 -0.07669793 -1.0192757 -1.5441111 -0.026285304 -0.30582824
00000000: fb09 8bbf fd17 46bf 6915 5b3e 3dd5 e03e
00000010: 5518 38c0 c752 44bf 3997 5d3f 6893 27bf
00000020: c933 a83e 344b adbf e1f6 e5bf 2d56 8dbe
00000030: ad73 fabe a6c1 47bf a7bf 6a3f 1e69 b6bf
00000040: 7149 21bf ac89 c3bf cd7f 0bbf b7ed 5ebf
00000050: ac15 20be 72ef 94bf 87e3 babf 21f5 98be
00000060: 8696 4f3e de9a e1bf 953c 68bf 8484 8bbf
00000070: 1f1f 02c0 c3da a5bf 7b7c 6c3f 6826 8b3e
00000080: 8c65 cebf cd3a 583e 4221 55bf 087d 06bf
00000090: 703d 6fbf e78d 44bf a8ee 8abf a947 eebf
000000a0: 8abb a7bf d61c afbf f2d3 dcbf 959f b9bf
000000b0: 770a 483d c27c d6be 87b1 d5bf ebe9 c9bf
000000c0: 3665 02bf 6be0 8bbe dd30 bcbd d5fa 79bf
000000d0: 62fb d5be 9b5e 2dbf 275d 73bf 596d cbbf
000000e0: 1b8c c2be 6807 4bbe 600a bcbe be72 dbbf
000000f0: 9f10 8abf 4d80 47bf d416 8ebf 29e9 8bbe
00000100: 905c acbf 986f bdbe 1d8e 5ebf 2495 fbbe
00000110: e73a fcbe c42a cdbe 472c 263e d8dc 1ebf
00000120: 142c dabf ce93 45bf da9c bcbf 2966 80bf
00000130: 9a59 b9bf 7039 a8bf 5e7f 26bf 2939 ac3e
00000140: ff4b febe a106 46be 06fa 0ebf 62d9 ec3e
00000150: 8ec5 2c3e 1122 96bf d0f3 153e bec7 27bf
00000160: 6f11 15c0 d111 86bf ae4a 21bf e593 cc3e
00000170: 60b5 8cbf 4e63 92bf 62bf 8ebf e0f2 c5bf
00000180: e540 3abe 3fd7 8dbf 552b f9be bd13 b8bd
00000190: 0c96 d7be 359d a9bf 9975 f9be f840 5cbf
000001a0: e4e2 a9be b76c 4f3d b825 b9be 23b0 823e
000001b0: 0915 bdbf e3e6 d6be c364 0ebf 17a8 a8bf
000001c0: 2de7 92bf 76fa b9bf ec8f 7dbf d2c9 ffbe
000001d0: 95f7 d4be 75a9 36bf ac9c 48bf 011a 03c0
000001e0: 7251 e0bf 4d86 0bc0 6741 01c0 8b6c 0cbe
000001f0: c5cc 08c0 f1c0 bfbf 2f2e cabe 75f4 0cbf
00000200: f32c a1be 9576 e4be a7c1 c2bf 2d3d 6a3e
00000210: c154 cabf 3352 f1bf a3aa 69be 0812 06bf
00000220: 9937 c33d f805 bd3d cf12 1a3f 798b c5bf
00000230: f789 bdbe 8564 1ebf e8f6 42bf 634e e83e
00000240: f2f5 8d3e 1484 36bf 97ea 79bf a2f1 dabf
00000250: de0a 25bf c040 6fbd d59b cf3d ee2f 06c0
00000260: 8b7c db3e daad 2dbf 1f66 20bf 7a4e a43e
00000270: 2e87 a43e 171d afbd b53b 38bf 37df 0c3f
00000280: bfc4 1fbf 7886 c7bf caff 61bf e5fe 05bf
00000290: 3fab 2fbf 95bb ce3c f3d3 5abe d105 dabf
000002a0: 9b4d 08bf 0f6d e2bd 9f69 cfbf e7ea 00bf
000002b0: 2ac8 69bf 5611 6f3d 9dd4 9fbf 83f3 37bf
000002c0: d4c0 09bf b884 b7be aa65 82bf 997b 91bf
000002d0: 7245 2cbf c0ab 85be 7b7c c7bf a839 d7bf
000002e0: 4c04 cbbf a5f7 39be c5cc 64bf 7b15 c6bf
000002f0: 433c 50bf 76fa 2fbf a8c6 8ebf dc5c 44bf
00000300: e636 73be b6c0 973e d23b a4bf 729b bfbf
00000310: deb6 f63e e7b8 e4bf 1dbb 9abf 6fdf 853e
00000320: 19e1 64be 099a a7bf 8e24 49bf 9d94 d5bf
00000330: 1f48 26bf b9eb 10bf a1cc 4cbc 07c3 08bf
00000340: 8c15 c0bf aef3 2b3f 703a febd 2446 87bf
00000350: 2646 ecbe 9a11 27bd df4c 36bc bc32 b0bf
00000360: fcd4 aebf d503 173e 8ac4 34bd 9759 9b3e
00000370: d3c9 ddbf e154 6d3f 1b48 303e 5415 893f
00000380: 2a03 f2bf 5c2b 0fc0 7e1a 99be 9b50 98bf
00000390: 1e67 72bf 85b0 7abf 2387 47bf 90f0 083e
000003a0: 6190 5a3f ca0c 72bf 3273 b6be b749 213f
000003b0: d938 0fbe 2123 18c0 3805 e9be e03f 57bf
000003c0: fad3 8bbf 19c2 38bf c484 87bf 52e4 e1be
000003d0: 74a3 c1bc c15f 7ebf cd37 f9be 9e30 61bf
000003e0: 03bb 2cbf b006 4ebf 6556 24bf ce13 9dbd
000003f0: a077 82bf 6fa5 c5bf 4754 d7bc 8595 9cbe

fc2.weight f4 [1, 4096]
-0.004682572 -0.00528383 -0.031246647 0.0073958165 0.010156628 -0.010973313 -0.014250084 -0.038068697
0.0092202 0.03393185 0.021871071 0.009059199 -0.019942168 -0.016588693 0.020986382 0.03471787
-0.002360595 0.005353342 0.0028661042 0.029470077 0.04308498 0.037458193 -0.026186362 0.0073074945
-0.0004023042 0.033085205 -0.011477536 0.059782527 0.020785287 -0.010988503 -0.025813501 -0.03031257
-0.0011139498 -0.024097644 -0.047282957 -0.023723671 0.013379216 -0.031545885 0.0060421233 0.012647383
0.035079826 0.013765516 -0.028019378 0.024626773 -0.012919406 -0.044253673 0.013090367 -0.017544493
0.012804682 -4.0596555e-05 0.009023634 -0.018322634 0.0024981408 -0.005182062 0.013243986 -0.024006967
-0.016687755 0.015009402 0.017343992 -0.016991442 -0.0072795353 -0.00026920062 0.0026073803 0.005690605
0.025927603 0.0017433662 -0.04257007 -0.04215479 -0.033306576 -0.006859124 -0.0102421595 0.0018249783
-0.024500532 -0.0016899807 0.013657914 -0.0061073573 -0.018498832 -0.006940251 0.0053003584 -0.032316998
-0.032567434 0.001419804 -0.027495952 -0.012485771 -0.027033005 -0.02332686 0.010170617 -0.010178259
-0.04769615 0.0032889894 -0.02318196 -0.005576831 -0.00448697 0.03796946 -0.033532202 -0.0073332395
-0.015025084 -0.03585319 -0.0038331475 -0.026708623 0.009359188 -0.0083932625 0.03582464 -0.012077836
0.02270789 0.020453861 -0.011058488 -0.030315429 -0.013685707 0.048046857 -0.016138203 0.009523756
-0.0011010972 -0.017363923 -0.01883116 0.008219716 -0.026015963 -1.1582222e-05 0.010495636 0.02247084
-0.0069795125 0.043154728 0.03502052 -0.008223578 0.004464974 0.0074374895 -0.009144866 -0.035828643
-0.020094978 -0.013775421 -0.019384844 -0.0017192035 -0.012807712 0.033358578 -0.008502671 0.01931415
0.014454644 0.038968164 0.019165583 -0.03281014 -0.021210125 -0.013905299 -0.0051816157 0.008356007
-0.012434713 0.0009711113 0.007814638 -0.0011053751 -0.008827806 0.0131156035 0.00014911071 0.00058081956
0.010115142 0.008801007 -0.028736841 5.3651325e-05 -0.008291309 0.025101624 0.021823423 0.03363381
-0.03784451 -0.030731693 0.030367805 0.011645272 -0.0057881307 -0.014170609 0.024301142 0.022267414
-0.028042663 -0.023032183 0.022620361 0.0007979517 0.040647596 -0.0039320947 -0.0066212285 -0.0057215886
-0.0031510824 -0.02172725 0.024543013 -0.01770911 -0.012777854 -0.0042310967 0.00020267685 0.037221354
-0.042461023 -0.0032867983 -0.003704763 0.031219272 -0.032789897 0.01904886 0.016763462 -0.0306145
0.016626488 -0.0022419526 -0.0012798756 -0.006842655 0.013341479 0.0094744675 -0.0030505187 0.0037337795
0.0014133399 -0.0064653303 0.0295538 0.0074129617 0.023712864 0.031036036 0.0058466787 -0.020316001
0.045376908 0.01934469 0.012401781 0.047163565 -0.009180766 -0.014282949 -0.002632461 -0.024329156
-0.010144799 0.042311933 0.04741947 -0.00027963426 0.01634907 -0.012199048 -0.024951 0.011045191
-0.0057399976 -0.045863725 -0.00095658575 0.010437949 0.006623886 -0.011981504 -0.013089299 -0.02058495
-0.024755003 0.0009132241 -0.009413342 -0.011191654 0.006192114 0.041428328 -0.00091262365 0.0035900332
0.012927868 0.013474422 -0.025019646 0.0062772078 0.014418663 -0.013454529 -0.029227369 0.0013649238
-0.022409856 -0.005664959 0.025007803 -0.01225311 0.0040664943 0.026655642 0.034851678 0.015720276
00000000: 4370 99bb fb23 adbb f8f8 ffbc 9b58 f23b
00000010: fc67 263c 69c9 33bc 2f79 69bc eced 1bbd
00000020: 5210 173c 20fc 0a3d f62a b33c 096d 143c
00000030: c25d a3bc 03e5 87bc a2eb ab3c 5334 0e3d
00000040: 36b4 1abb 166b af3b 40d5 3b3b 3b6b f13c
00000050: e079 303d c36d 193d c884 d6bc b573 ef3b
00000060: 5bec d2b9 5a84 073d 460c 3cbc 86de 743d
00000070: e845 aa3c 1f09 34bc d676 d3bc 1152 f8bc
00000080: f401 92ba 6c68 c5bc c6ab 41bd 2558 c2bc
00000090: 8034 5b3c 4236 01bd 01fd c53b f836 4f3c
000000a0: ddaf 0f3d c288 613c e588 e5bc 16be c93c
000000b0: ebab 53bc 5743 35bd fb78 563c 78b9 8fbc
000000c0: bbca 513c 3846 2ab8 ddd7 133c 5919 96bc
000000d0: d9b7 233b 49ce a9bb 4efd 583c 42aa c4bc
000000e0: c2b4 88bc ffe9 753c fd14 8e3c a331 8bbc
000000f0: 2b89 eebb 7f23 8db9 95e0 2a3b 4178 ba3b
00000100: 2066 d43c aa81 e43a f45d 2ebd 80aa 2cbd
00000110: 7a6c 08bd 81c2 e0bb bbce 27bc 1c34 ef3a
00000120: 57b5 c8bc 5882 ddba 71c5 5f3c 3a20 c8bb
00000130: dd8a 97bc 0c6b e3bb a1ae ad3b d45e 04bd
00000140: 6e65 05bd b718 ba3a 313f e1bc 1f91 4cbc
00000150: 5274 ddbc f917 bfbc a9a2 263c b6c2 26bc
00000160: 0a5d 43bd 168c 573b 18e8 bdbc d9bd b6bb
00000170: 6f07 93bb dd85 1b3d 1059 09bd ac4b f0bb
00000180: c52b 76bc cbda 12bd 8b35 7bbb 0bcc dabc
00000190: 4857 193c e583 09bc dcbc 123d 1ee2 45bc
000001a0: e605 ba3c db8e a73c a92e 35bc 1058 f8bc
000001b0: 043a 60bc c8cc 443d 4434 84bc 8709 1c3c
000001c0: b152 90ba c93e 8ebc ce43 9abc fdab 063c
000001d0: 6e1f d5bc 4451 42b7 e3f5 2b3c c414 b83c
000001e0: 65b4 e4bb 03c3 303d ad71 0f3d 30bc 06bc
000001f0: eb4e 923b 2fb6 f33b 59d4 15bc 0ec1 12bd
00000200: 399e a4bc 4eb2 61bc f7cc 9ebc e656 e1ba
00000210: 70d7 51bc 01a3 083d c94e 0bbc b538 9e3c
00000220: 2cd3 6c3c 159d 1f3d 2401 9d3c ed63 06bd
00000230: dbc0 adbc 0dd3 63bc 8bca a9bb a2e7 083c
00000240: f7ba 4bbc 2d92 7e3a f808 003c 3ce2 90ba
00000250: 81a2 10bc d4e2 563c 9a5a 1c39 2442 183a
00000260: fbb9 253c 1932 103c 8669 ebbc ac07 6138
00000270: 45d8 07bc eca1 cd3c 09c7 b23c 9bc3 093d
00000280: d802 1bbd 08c1 fbbc e7c5 f83c d0cb 3e3c
00000290: 5caa bdbb d82b 68bc 3013 c73c 276a b63c
000002a0: bab9 e5bc fdad bcbc 564e b93c a22d 513a
000002b0: 187e 263d cdd8 80bb e4f6 d8bb 2a7c bbbb
000002c0: 6482 4ebb 59fd b1bc 6e0e c93c b212 91bc
000002d0: 345a 51bc 03a5 8abb a785 5439 6b75 183d
000002e0: 9ceb 2dbd 5367 57bb 9ccb 72bb 8fbf ff3c
000002f0: b34e 06bd 5b0c 9c3c 8753 893c 43cb fabc
00000300: 4634 883c b9ed 12bb 80c1 a7ba 5a38 e0bb
00000310: 3896 5a3c cc3a 1b3c 36eb 47bb 6db2 743b
00000320: d13f b93a 1fdb d3bb d01a f23c 6ee8 f23b
00000330: 7b41 c23c 493f fe3c 7f95 bf3b be6d a6bc
00000340: 23dd 393d c178 9e3c d730 4b3c 952e 413d
00000350: ec6a 16bc 0803 6abc 5e85 2cbb f04d c7bc
00000360: 5f36 26bc 474f 2d3d eb3a 423d e09b 92b9
00000370: 7cee 853c 84de 47bc 0a66 ccbc e4f6 343c
00000380: 9716 bcbb 9adb 3bbd 62c3 7aba ee03 2b3c
00000390: 2f0d d93b 124e 44bc 8074 56bc c5a1 a8bc
000003a0: 01cb cabc 6f65 6f3a 6b3a 1abc 335d 37bc
000003b0: 38e7 ca3b c0b0 293d 233d 6fba c346 6b3b
000003c0: 69cf 533c d2c3 5c3c 00f6 ccbc 09b1 cd3b
000003d0: 423c 6c3c 6370 5cbc 3c6e efbc 3ee7 b23a
000003e0: e094 b7bc 1fa1 b9bb 2add cc3c 45c1 48bc
000003f0: 3a40 853b ef5c da3c a2c0 0e3d cfc7 803c
