checkpoint/perturb/5/NGD/mlp_epoch499_seed18.pt (torch, 67303 bytes, 3 tensors)

fc1.weight f4 [4096, 2]
0	0x3f0d9256	0.55301416
1	0x3e6a16bd	0.22860236
2	0x3f7ae8a8	0.98011255
3	0x3fc96cd7	1.573634
4	0xc00f2c9e	-2.2370982
5	0xbe94be88	-0.29051614
6	0x3f83c376	1.0294025
7	0xbec5cfa8	-0.38634992
8	0x3ff196a4	1.8874097
9	0x3fd9e03d	1.7021557
10	0x3e5fba80	0.21848488
11	0xbf0eff21	-0.55858046
12	0x3ee591f0	0.44837904
13	0x400da5d4	2.2132463
14	0xbf3c6613	-0.7359325
15	0xbf98a077	-1.192397
16	0xbfd94738	-1.6974859
17	0x3f37b515	0.71760684
18	0x40b7bcfe	5.7418203
19	0x408cccb2	4.399987
20	0xbfbef69b	-1.4919008
21	0xbf084c14	-0.53241086
22	0xbf1d4673	-0.6143562
23	0xbedd110e	-0.43177074
24	0x3f0a7236	0.5408052
25	0x3f860797	1.0471066
26	0x3f2aa3c2	0.66656125
27	0xbf6e233d	-0.9302252
28	0xbf34eea7	-0.70676655
29	0xbfd2cf11	-1.6469442
30	0x4175e516	15.368429
31	0x40e755a5	7.2292047
32	0x413351b0	11.207443
33	0x40ab42ce	5.351905
34	0x3e9cbda7	0.30613443
35	0xbf0d7838	-0.55261564
36	0x3e7b661b	0.24550669
37	0xbeecc1c2	-0.46241575
38	0xbf16ed2d	-0.5895565
39	0xbdd8cdb5	-0.105861105
40	0xc08f078a	-4.4696703
41	0xbf960af1	-1.1722089
42	0xc0b4cf70	-5.650322
43	0xc0578c25	-3.3679287
44	0xc0795436	-3.8957648
45	0xc0127518	-2.2883968
46	0x3ee64feb	0.44982848
47	0xbedc832b	-0.43068823
48	0xbf4c363c	-0.79770255
49	0x3f2431f5	0.6413873
50	0xbd52d331	-0.05147094
51	0xbdb1d0e2	-0.08682419
52	0x3d98ab49	0.07454545
53	0x3dfe1a19	0.124073215
54	0x3cb1e4bd	0.021715516
55	0xbef95d71	-0.48704103
56	0x3f34bd58	0.70601416
57	0xbeb31891	-0.3497968
58	0xbeb30a42	-0.34968764
59	0xbfc2a037	-1.5205144
60	0xbf67ee0e	-0.9059762
61	0x3f982a57	1.1887921
62	0x3eac9fb0	0.33715582
63	0xc039d1b8	-2.9034252
64	0x3ef90415	0.48635927
65	0x3f976d84	1.1830297
66	0xbfb33597	-1.4000729
67	0xc00353ac	-2.051982
68	0xbf8bac84	-1.0912023
69	0x3f57fd3c	0.8437078
70	0xbeb1306b	-0.34607252
71	0xbf9d8ce2	-1.2308619
72	0xbf2bfbe8	-0.67181253
73	0xbf2e1192	-0.6799556
74	0xc00e1d03	-2.2205207
75	0xbf2b6731	-0.6695433
76	0xc232128d	-44.518116
77	0xc1cf8cd3	-25.943762
78	0xbe1f0d8f	-0.15532516
79	0xbe6b1e20	-0.2296071
80	0xbf1579d3	-0.58389014
81	0x3f48ee98	0.78489065
82	0xc20ef450	-35.738586
83	0xc1a2ff59	-20.374681
84	0xbf7c3ca0	-0.98530006
85	0x3f4ca39d	0.79937154
86	0x3c95db9c	0.018293194
87	0xbe60af48	-0.21941864
88	0x3d04849e	0.032353036
89	0xbed64b11	-0.41854146
90	0xc29ce51c	-78.44748
91	0xc22ed7d4	-43.71077
92	0x3f6ca62c	0.9244106
93	0x3d54d565	0.05196132
94	0xbf45efa3	-0.7731878
95	0xbfc0353d	-1.5016247
96	0xbfb12529	-1.3839465
97	0x3ec2ccc1	0.3804684
98	0xbed45cde	-0.41477102
99	0xbe2e6a5b	-0.17032759
100	0xc22dafd8	-43.421722
101	0xc1bf669c	-23.925102
102	0xbf1a897e	-0.60366046
103	0x3ec3fb41	0.3827763
104	0xbfc5f6cb	-1.546594
105	0x3eb434d2	0.3519655
106	0xc09c26f4	-4.879755
107	0xc01adcbe	-2.419723
108	0xbf7e4b9e	-0.9933413
109	0xbe1b47f7	-0.15164171
110	0xbff7a46d	-1.9347054
111	0xbfb89876	-1.4421527
112	0x3f710b86	0.9415821
113	0xbfe1c290	-1.7637501
114	0x3efa1aa0	0.48848438
115	0xc02c7cba	-2.6951127
116	0x3c4d515e	0.0125316065
117	0xbd483898	-0.048882097
118	0xc2a44a4d	-82.14512
119	0xc237bbb3	-45.9333
120	0xbf420dbe	-0.7580222
121	0x3e876470	0.26443815
122	0xbfdabfc4	-1.7089772
123	0xbf118c7c	-0.5685499
124	0xbdc884b0	-0.09790933
125	0x3ebab99c	0.36469734
126	0xbfc1682e	-1.5109918
127	0xbf8fe642	-1.1242144
128	0xc0270b15	-2.6100514
129	0xc001583b	-2.0210102
130	0xbee48e56	-0.44639844
131	0x3f440e0e	0.76583946
132	0x3c42c4a2	0.011887701
133	0xbe3875da	-0.18013707
134	0xbf9e33d2	-1.2359564
135	0xbfe17927	-1.7615098
136	0xbe8c7128	-0.2743008
137	0xbff2e283	-1.8975376
138	0xbf9cdd82	-1.2255099
139	0xbf746d58	-0.95479345
140	0xbecfc3ca	-0.40579063
141	0x3f13a3a8	0.57671595
142	0x3f1c8c40	0.61151505
143	0x3f23f201	0.64041144
144	0xbe95aa34	-0.29231417
145	0xbfffbf48	-1.998025
146	0xbf36d084	-0.7141192
147	0x3fca264c	1.5792937
148	0xc018033e	-2.375198
149	0xbffc30c4	-1.9702382
150	0xbd06517b	-0.03279255
151	0xbf3d2bcf	-0.7389497
152	0xc03b822c	-2.92982
153	0x3f03f67c	0.5154798
154	0x3c0fd816	0.008779546
155	0xbf1734d6	-0.59064996
156	0xbf998ae9	-1.1995517
157	0x3f936ece	1.151819
158	0xbfccd514	-1.6002526
159	0x3f7bffff	0.98437494
160	0xbf97b84d	-1.1853119
161	0xbfe061a1	-1.7529794
162	0xc0075ba0	-2.1149673
163	0x40289c6b	2.634547
164	0xc1eea9d0	-29.832916
165	0xc14d70e1	-12.840058
166	0xbfd186a4	-1.6369214
167	0xbe951638	-0.29118514
168	0xc3a7582b	-334.6888
169	0xc33913b0	-185.0769
170	0xbf0f18b6	-0.5589708
171	0x3f489269	0.78348404
172	0x3cfa959f	0.030588923
173	0xbf60beb6	-0.87791
174	0x3d832490	0.06403458
175	0xbf8b5b19	-1.0887176
176	0xc3f510a7	-490.1301
177	0xc3926614	-292.7975
178	0xc2ad490c	-86.64267
179	0xc23c2009	-47.031284
180	0xbea2a0af	-0.31763217
181	0xbf99cd0a	-1.2015698
182	0xc3690b88	-233.04504
183	0xc30a8a69	-138.54066
184	0x3f24b771	0.6434241
185	0xbc32aaea	-0.010905007
186	0xbf4d07f3	-0.80090255
187	0x3f15f0fb	0.5857083
188	0xc0d2f76c	-6.592703
189	0xc0a4299e	-5.13008
190	0xc1e7d5da	-28.97942
191	0xc17ccab1	-15.799485
192	0xbf3a38ba	-0.7274281
193	0xbf2ed117	-0.68287796
194	0xbf00d8c3	-0.5033075
195	0xbf29ef22	-0.6638051
196	0xc485c13c	-1070.0386
197	0xc40f283a	-572.62854
198	0xbcb827bf	-0.02247989
199	0xbe1d36cc	-0.15352935
200	0xbf5140ee	-0.817397
201	0xbe07f5d9	-0.13277377
202	0xc468364d	-928.84845
203	0xc3f80804	-496.06262
204	0xbf97cf2d	-1.18601
205	0xbdc5fbd7	-0.09667175
206	0xbe4a6892	-0.19766453
207	0xbf9843ec	-1.1895728
208	0xc2f23d3d	-121.119606
209	0xc28454c2	-66.16554
210	0xc08ba8ea	-4.3643694
211	0xc033c4a7	-2.8088777
212	0xbf1556ff	-0.5833587
213	0xbf6c391e	-0.92274654
214	0xbf5188f6	-0.8184961
215	0xbf753ab2	-0.95792687
216	0xc3c0d6bf	-385.6777
217	0xc34a5f7f	-202.37303
218	0xc4a95042	-1354.508
219	0xc434d592	-723.33704
220	0xbf180cc0	-0.59394455
221	0xbf9fbdcd	-1.2479798
222	0xc3cbfdad	-407.98184
223	0xc35a7aac	-218.47919
224	0xc110746f	-9.028426
225	0xc09c6f3e	-4.8885794
226	0xc370f3ac	-240.95184
227	0xc302d368	-130.8258
228	0x3eda50c9	0.4263976
229	0xbf9cd1d3	-1.2251533
230	0xc0355564	-2.8333368
231	0x3ece9138	0.40345168
232	0xc4bd81c1	-1516.0548
233	0xc44ad78c	-811.3679
234	0x3f90919f	1.129444
235	0x3f60d7d8	0.8782935
236	0xc1667e33	-14.40581
237	0xc1288971	-10.533555
238	0xbe282e4a	-0.16423908
239	0xbe30486a	-0.17215124
240	0x3f646086	0.89209783
241	0xbe0d58c7	-0.13803397
242	0xc0310fa1	-2.766579
243	0xbe4bb04f	-0.19891475
244	0x3ea800d1	0.32813123
245	0x3fcb048b	1.5860761
246	0xbff708a9	-1.9299518
247	0xbf7f87ca	-0.9981657
248	0xbff723ef	-1.9307841
249	0xbf4161cc	-0.7553985
250	0xbfd3f584	-1.65593
251	0xbffbc08f	-1.9668139
252	0xc00c5273	-2.1925323
253	0xbf6bd0aa	-0.9211527
254	0xbe967956	-0.29389447
255	0x3f1c6366	0.6108917

fc1.bias f4 [4096]
0	0xc00f0bed	-2.235103
1	0xbdb65ff6	-0.08905022
2	0xbf97e0f9	-1.1865531
3	0xbf9282b0	-1.1446133
4	0xbd838c97	-0.064233
5	0xbf9e3d64	-1.2362485
6	0xbf470473	-0.77741164
7	0xbfcac434	-1.5841126
8	0xbfd60c6d	-1.6722542
9	0x3fa02a72	1.2512953
10	0xbf0aabaf	-0.5416822
11	0x3f1db110	0.615983
12	0xbf4b7d13	-0.79487723
13	0xbfffca6a	-1.9983647
14	0xbfedc25d	-1.857494
15	0xbf6124cb	-0.87946767
16	0xbee84df9	-0.45371988
17	0xbf469cd4	-0.7758305
18	0xbf6ec178	-0.9326396
19	0xbf8b39e8	-1.0877047
20	0xbfa05085	-1.2524573
21	0xbefb3ea1	-0.4907122
22	0x3e453a1e	0.19260451
23	0xbf11e9e1	-0.56997496
24	0xbf23644f	-0.63824934
25	0xbe9f1c18	-0.3107612
26	0xbeab7c84	-0.33493435
27	0xbf629f3e	-0.88524234
28	0xbfddc404	-1.7325444
29	0xbfd6a0fc	-1.6767879
30	0xbf01dc08	-0.50726366
31	0xbea81a86	-0.32832736
32	0xc02b431f	-2.6759717
33	0xbf48cc0a	-0.7843634
34	0xbf24d4ba	-0.64387095
35	0xbf8770ca	-1.0581295
36	0xbfe0cb54	-1.7562051
37	0xbe204850	-0.15652585
38	0x3e8a4696	0.27006978
39	0xbfbac04d	-1.4589936
40	0xbfabd253	-1.3423561
41	0xbf60376b	-0.8758456
42	0xbeb7904e	-0.35852283
43	0xc010c36e	-2.261928
44	0xbfb0bbda	-1.3807328
45	0xbf2f0195	-0.6836179
46	0xbf6e0805	-0.92980987
47	0xbeb489b4	-0.3526131
48	0xbfc2f7a3	-1.5231823
49	0x3ebc78b4	0.3681084
50	0xbf5b50ef	-0.8567037
51	0xbf626d45	-0.8844798
52	0xbf87bd64	-1.0604672
53	0x3d77cbe0	0.060497165
54	0x3f2da33c	0.678272
55	0xbe57f8a2	-0.2109094
56	0xbf882bd4	-1.0638375
57	0xbef6d5df	-0.48210046
58	0xbfa89dd0	-1.317316
59	0xbf84b410	-1.0367451
60	0x3d317c56	0.043331467
61	0x3ebf1e49	0.37327793
62	0xbeb56306	-0.3542711
63	0xbf759d93	-0.95943564
64	0x3f30e214	0.6909497
65	0xbf5eb704	-0.8699801
66	0xbe8fc955	-0.28083292
67	0x3e543087	0.20721637
68	0xbf983759	-1.1891891
69	0xbea8a5ae	-0.32938904
70	0xbfe3b941	-1.779091
71	0xbfcf1f3b	-1.6181406
72	0xbf538f96	-0.8264097
73	0xbf74db9c	-0.956476
74	0xbef2e58c	-0.47440755
75	0xbf8a4aa3	-1.0804027
76	0x3f17fb39	0.5936771
77	0xbf92a106	-1.145539
78	0xbeb32793	-0.3499113
79	0xbf30f4c3	-0.69123477
80	0x3f989c6b	1.1922735
81	0xc0168601	-2.351929
82	0x3dc73df4	0.097286135
83	0x3ee8dec2	0.4548245
84	0xbf2143ff	-0.6299438
85	0xbf6f7dc7	-0.93551296
86	0xbe2af082	-0.16693309
87	0xbf21e196	-0.6323484
88	0x3c4ee7f1	0.012628541
89	0xbeaaa549	-0.33329228
90	0xbf62adf0	-0.8854666
91	0xbfa6ca9c	-1.3030581
92	0xbfe118af	-1.7585658
93	0xbee1fe67	-0.44139406
94	0xbfbb2191	-1.4619619
95	0x3f856984	1.0422826
96	0xbf93c350	-1.154398
97	0xbfaa687f	-1.331314
98	0xbe423784	-0.1896649
99	0xbe1c5b8f	-0.15269302
100	0xbf5d1272	-0.8635627
101	0xbf211c80	-0.6293411
102	0x3ea174be	0.3153438
103	0xbf79bb91	-0.9755183
104	0xbfd885b7	-1.6915807
105	0x3d8f072d	0.069837905
106	0xbfaddede	-1.3583639
107	0xbf2a6bbf	-0.6657066
108	0xbf8cf374	-1.1011796
109	0xbb7f3fc0	-0.003894791
110	0x3e6dbd9c	0.23216861
111	0xbf1e788a	-0.6190268
112	0x3e8f7dcf	0.28025672
113	0xbf20af95	-0.62767917
114	0xbf28fe43	-0.6601297
115	0xbef98bd3	-0.4873949
116	0x3f7de3fe	0.99176013
117	0xbfb88673	-1.4416031
118	0x3f04758f	0.5174188
119	0xbe399eae	-0.18126938
120	0xbfa1dbbe	-1.2645185
121	0xbeb2ca07	-0.3491976
122	0xbfe9a433	-1.8253235
123	0xbf8642b5	-1.0489107
124	0x3ee59f39	0.4484804
125	0xbf5c3293	-0.8601467
126	0x3d9151c6	0.07095675
127	0xbfcf6c54	-1.6204934
128	0xbd868be6	-0.06569652
129	0x3e925fbe	0.2858867
130	0xbfbf0868	-1.492444
131	0xbe682660	-0.22670889
132	0xbed6ac5c	-0.41928375
133	0xbe96b303	-0.2943345
134	0xbf329659	-0.6976066
135	0xbf476b81	-0.7789841
136	0xbe942041	-0.28930858
137	0x3efea552	0.49735504
138	0xbe0eba27	-0.13938199
139	0xbf651d57	-0.89497894
140	0xbfc3d9be	-1.5300825
141	0xbe34cdc0	-0.17656612
142	0xbe3534d5	-0.17695935
143	0xbfbd81d7	-1.4805249
144	0xbfc68182	-1.5508273
145	0xbf538eac	-0.82639575
146	0xbe73fda8	-0.23827231
147	0x3e51df28	0.20495284
148	0x3f49afc4	0.7878382
149	0xbfb532f9	-1.4156181
150	0xbf83dafe	-1.0301206
151	0xbf347282	-0.70487225
152	0xbfb7d6cc	-1.4362426
153	0xbf389ff2	-0.7211906
154	0xbea53bfa	-0.3227232
155	0xbe89fe2a	-0.26951724
156	0xbfafc1fa	-1.3731072
157	0xc01917be	-2.392074
158	0xbf836c43	-1.0267414
159	0x3e27746e	0.16353008
160	0xbfe46354	-1.7842813
161	0xbf2e9846	-0.682011
162	0xbefe5c97	-0.49680015
163	0xbf3f8e89	-0.74826866
164	0xbf60a40e	-0.8775033
165	0xbfce9d04	-1.6141667
166	0xbda05c29	-0.07830078
167	0xbe168f8b	-0.14703195
168	0xbf888e1b	-1.0668367
169	0xbf5dd443	-0.8665201
170	0xbeb44186	-0.3520624
171	0xbfc7102a	-1.5551808
172	0xbf47da97	-0.78067917
173	0xbf0239db	-0.5086953
174	0xbdf158e0	-0.1178453
175	0xbf10a6d1	-0.5650454
176	0xbfd65820	-1.6745644
177	0xbf6d6cac	-0.92743945
178	0xbefec867	-0.4976227
179	0xbef0aabc	-0.4700526
180	0xbf4fe034	-0.8120148
181	0xbf8b7378	-1.0894613
182	0xbead508b	-0.33850512
183	0xbf88bb79	-1.0682212
184	0xbfc567fb	-1.5422357
185	0xbf2b2348	-0.6685071
186	0xbfb6d109	-1.4282542
187	0xbf9223d8	-1.1417189
188	0xbf00da92	-0.5033351
189	0xbffc1575	-1.9694048
190	0x3e41ed9b	0.18938296
191	0xbef6707e	-0.481327
192	0xbede632f	-0.43435046
193	0x3ed523c7	0.41628858
194	0x3ee90d2a	0.45517856
195	0xbf4abd1c	-0.7919481
196	0xbf79b7fa	-0.9754635
197	0xc0108f54	-2.258748
198	0xbfa5c2f8	-1.2950125
199	0xbef05e0b	-0.4694675
200	0xbeda0d9b	-0.42588505
201	0xbfa32b3e	-1.2747571
202	0xbe48fa45	-0.1962672
203	0xbf38a914	-0.7213299
204	0xbfa3ea67	-1.2805909
205	0xbfa47d2e	-1.2850702
206	0xbf95f3e7	-1.1715058
207	0xbfdcacb5	-1.7240206
208	0xbf22aa59	-0.6354118
209	0xbefabd65	-0.48972622
210	0xbf1fa8e7	-0.623671
211	0xbfd0890e	-1.6291826
212	0x3fb38880	1.4026031
213	0xbf844754	-1.0334268
214	0x3e970abd	0.2950038
215	0xbfa3392c	-1.2751822
216	0xbf858379	-1.0430747
217	0xbee45e00	-0.44602966
218	0xbfd1b765	-1.6384093
219	0xbfd0c8e1	-1.6311303
220	0x3ef1c624	0.47221482
221	0xbd555b94	-0.05208929
222	0xbe525ec4	-0.20543963
223	0xbeb1d15c	-0.3473004
224	0x3e3f9246	0.18708143
225	0xbf23eb54	-0.6403096
226	0xbffc0bfc	-1.9691157
227	0x3e640a8f	0.22269653
228	0xbf9d2f00	-1.2279968
229	0xbedba9d9	-0.4290302
230	0xbf99ece5	-1.202542
231	0xbf93b68f	-1.1540087
232	0xbf22fe6d	-0.6366947
233	0xc0007215	-2.006963
234	0xbe894ffd	-0.2681884
235	0xbf9bdb6d	-1.2176338
236	0xbed00083	-0.4062539
237	0x3eca3246	0.3949148
238	0xbf86b872	-1.0525038
239	0xbf392b23	-0.72331446
240	0xbf87eb64	-1.061871
241	0xbf1687cc	-0.5880096
242	0xbf8a1caa	-1.0789998
243	0xbfaa7841	-1.3317949
244	0xbf405d1a	-0.7514206
245	0xc01b9799	-2.4311278
246	0x3fa8808f	1.3164233
247	0xbf5d6abc	-0.8649099
248	0xbf17b35a	-0.59258044
249	0x3e63c016	0.22241244
250	0xbfde30da	-1.7358658
251	0x3f18a991	0.5963374
252	0xbf83c391	-1.0294057
253	0x3dc30120	0.09521699
254	0xbed399b3	-0.413282
255	0xbe142332	-0.14466551

fc2.weight f4 [1, 4096]
0	0x3c256d14	0.010096807
1	0xbb22e629	-0.0024856424
2	0x3ca49b54	0.020093597
3	0xbd2059e0	-0.03914821
4	0x3cfc0311	0.03076318
5	0x3cb4aecc	0.022056006
6	0x3c8b3f69	0.01699801
7	0x3c4dee9f	0.012569099
8	0x3b20666b	0.0024475108
9	0x3c818fef	0.015815703
10	0x3be5a4eb	0.007008185
11	0xbcc2ff77	-0.023803456
12	0x3993d491	0.000281964
13	0x3ca1c443	0.019746905
14	0x3cf4bb50	0.029874474
15	0x3c0ff9ee	0.008787615
16	0x3bb7e713	0.005612263
17	0xbb75301c	-0.0037412709
18	0x3d86af79	0.065764375
19	0x3c526066	0.012840366
20	0x3d91a8d9	0.07112283
21	0x3d057b32	0.03258819
22	0x3cc7f0cd	0.024406815
23	0xbbe2ef9b	-0.006925536
24	0x3bd0ea0a	0.006375556
25	0xbcf24ba8	-0.029577091
26	0x3c5afa3b	0.013365324
27	0x3c8a0b9d	0.01685124
28	0xbd0e416f	-0.03473037
29	0xbc8ffc7b	-0.017576447
30	0xbc1bef88	-0.009517558
31	0xbc8ea448	-0.01741232
32	0x3c9e4fcb	0.019325158
33	0x3d591649	0.05299977
34	0x3d2479fb	0.040155392
35	0x3c1f5228	0.009724177
36	0xb9796bb5	-0.00023786614
37	0x3cb30af8	0.021855816
38	0x3d4567c2	0.048194654
39	0x3cad9215	0.021187821
40	0xbccbaa82	-0.024861578
41	0x3d140813	0.036140513
42	0xbc06fc26	-0.008238828
43	0xbc91fd5c	-0.017821006
44	0xbce3c849	-0.027805464
45	0x3d7ded1f	0.061993714
46	0xbca0c322	-0.019624297
47	0xbc0c6850	-0.008569792
48	0xbbb3cfdc	-0.0054874253
49	0xba6d8db6	-0.0009061949
50	0x3ce92138	0.028458223
51	0xbceb5608	-0.028727546
52	0x3c9f3687	0.01943518
53	0x3b51ef3f	0.003203347
54	0xb9032467	-0.00012506694
55	0x3ba9bfc5	0.0051803314
56	0x3d215fa4	0.03939785
57	0xbbf4e606	-0.00747371
58	0xbc3d138f	-0.011540308
59	0x3d1227a4	0.035682335
60	0xbbc43788	-0.005988065
61	0xbc8e22da	-0.017350603
62	0x3bb19076	0.0054188324
63	0xbb1652c1	-0.0022937509
64	0xbcd58be1	-0.026067676
65	0xbc066e34	-0.008204985
66	0xbbb5bfd1	-0.005546548
67	0xbcd418f7	-0.02589081
68	0x3d12bebe	0.035826437
69	0x3c9f88ed	0.019474471
70	0xbc461d7e	-0.012091992
71	0xbd0b118a	-0.033952273
72	0x3d125fdb	0.035735946
73	0xbc06e48f	-0.008233204
74	0xbcd8e2d7	-0.026475353
75	0xbb117347	-0.0022193955
76	0x3c7d83ae	0.015473289
77	0xbc9b0594	-0.018923558
78	0xba9cdcd0	-0.0011967663
79	0xbc857e40	-0.016295552
80	0xb9131f38	-0.00014030642
81	0xbc20ed03	-0.009822133
82	0x3b74eea4	0.0037373686
83	0xbb2db2f9	-0.002650438
84	0x3d0c9417	0.034320917
85	0x3cc7b9c1	0.024380567
86	0x3cb01337	0.021493537
87	0xbc7759c9	-0.01509709
88	0x3d2147c7	0.039375093
89	0x3bc49e13	0.006000289
90	0xbbfe77bf	-0.0077657397
91	0x3c2be1ba	0.010490829
92	0xbd013043	-0.031540167
93	0xbc846fd9	-0.016166614
94	0xbc293772	-0.010328161
95	0xbcc851ad	-0.024453009
96	0xbcaac74e	-0.020846989
97	0x3c73373a	0.01484471
98	0x3d02c3c0	0.031924963
99	0xbd32eb24	-0.04368128
100	0x3994eb6a	0.00028404157
101	0x3ce2fadc	0.02770751
102	0xbc8c62e4	-0.017136998
103	0xbcede07d	-0.029037708
104	0x3b7433c8	0.003726231
105	0xbbd13ee8	-0.006385673
106	0xbc53c6dc	-0.01292583
107	0x3d3c6470	0.045994222
108	0x3c377f1a	0.011199737
109	0x3d253ea8	0.040342957
110	0xbc338a9b	-0.010958339
111	0x3c47b93d	0.01219016
112	0xbc1141b2	-0.008865761
113	0x3be88ff9	0.007097241
114	0xbc71ef1e	-0.014766483
115	0xbc5f3b74	-0.013625015
116	0x3d390812	0.045173712
117	0xbc10fdcd	-0.008849573
118	0xbc7470e2	-0.0149194915
119	0xbc597d6c	-0.013274532
120	0xbb2a5fc2	-0.0025997018
121	0x3c2186fd	0.009858844
122	0xbbaaaee5	-0.0052088373
123	0x3cb45960	0.022015274
124	0xbbe7051b	-0.007050169
125	0xbcc5639b	-0.024095347
126	0xbb0377fb	-0.0020060528
127	0xbcfbde12	-0.03074554
128	0xbcaa1aaa	-0.020764668
129	0x3cbfea1b	0.02342706
130	0x3c9caa74	0.019124247
131	0xbc904f6b	-0.017615994
132	0x3c262161	0.010139794
133	0x3cab4f73	0.020911908
134	0x3cddef7d	0.027091736
135	0xbc8a2d5f	-0.016867338
136	0x3a6fae0d	0.0009143062
137	0xba7dce3d	-0.0009681916
138	0xbc56c8ba	-0.01310938
139	0x3bd32034	0.006443048
140	0xbcd662a6	-0.026170086
141	0xbbd81bcd	-0.006595111
142	0x3c52e099	0.012870931
143	0xbc53011e	-0.012878684
144	0x3d00b892	0.03142602
145	0xbc8d8760	-0.017276466
146	0x3c686fc2	0.014186801
147	0xbc9e9800	-0.019359589
148	0xbb269a6a	-0.0025421628
149	0xbb37289f	-0.0027947796
150	0x3bee2589	0.007267658
151	0x3d675277	0.05647513
152	0xbbbf4365	-0.0058368915
153	0xbc716b8a	-0.014735112
154	0x3c1244b3	0.008927512
155	0xbc2b7fc9	-0.010467478
156	0x3c6f7470	0.014615163
157	0xbcf8aceb	-0.030355891
158	0x3ca3ebbb	0.020009866
159	0x3c4332cb	0.011913965
160	0x3c0b8300	0.00851512
161	0x3bc1fd12	0.005920061
162	0xba457d70	-0.0007533645
163	0x3c03ec16	0.008051893
164	0xbc4ff81b	-0.01269343
165	0x3cb37ac3	0.021909123
166	0xbd0097bf	-0.031394716
167	0xba04c75b	-0.00050651067
168	0x3ca6aa1b	0.020344784
169	0x3bb3783d	0.00547698
170	0xbc894725	-0.016757557
171	0xbbfa4cec	-0.0076385643
172	0xbca8fbc8	-0.020627871
173	0xbd1ff236	-0.03904935
174	0x3d001f2a	0.03127972
175	0xbd04d956	-0.03243383
176	0x3b76af22	0.0037641008
177	0x3c7dbf7f	0.015487551
178	0x3c84ee10	0.016226798
179	0xbcb61979	-0.022228943
180	0x3d27f0df	0.041001197
181	0x3aaf9171	0.0013394785
182	0xbd0fdedc	-0.035124645
183	0x3bba08f5	0.0056773373
184	0x3c9c4329	0.019074993
185	0xbc3d642a	-0.0115595255
186	0xbcb41d7b	-0.021986714
187	0x3cafed1e	0.021475371
188	0xbb9cc370	-0.00478404
189	0x390d83ab	0.00013495858
190	0xbc7d9d54	-0.0154794045
191	0xbcb21489	-0.021738308
192	0x3d283043	0.04106165
193	0x3baa9036	0.0052051796
194	0xbd062779	-0.032752488
195	0xbc79b06b	-0.015239815
196	0xbbd61c3a	-0.0065341266
197	0x3c5678eb	0.0130903525
198	0xbbb30395	-0.0054630735
199	0xbd211a20	-0.039331555
200	0x3d0b153c	0.033955798
201	0x3c974ead	0.018470133
202	0x3a689563	0.0008872358
203	0x3c176aec	0.009241801
204	0x3b0819f6	0.0020767427
205	0x3ca44218	0.020051047
206	0x3ceec037	0.02914439
207	0x3c72d220	0.0148206055
208	0xbcaffa42	-0.021481637
209	0x3d4d300a	0.05009464
210	0xbba79e5b	-0.005115313
211	0x3c45734a	0.012051413
212	0x3c087c0f	0.008330359
213	0xbca5d85b	-0.020244768
214	0x3d064751	0.032782856
215	0x38aaa578	8.137053e-05
216	0x3cc35a6b	0.023846826
217	0xbcea9e2c	-0.028639875
218	0xbc476219	-0.012169384
219	0x3ab9394f	0.0014131459
220	0x3b05f432	0.0020439741
221	0xbb5672b4	-0.0032722177
222	0xbbe1dfd6	-0.0068931384
223	0xbc9a01d8	-0.018799707
224	0xbbb3de2e	-0.0054891324
225	0xbc5ad9d9	-0.013357603
226	0xbba5ad05	-0.005056026
227	0xbb947ce6	-0.0045314906
228	0x3d00deaa	0.03146235
229	0x3c965fd8	0.018356249
230	0xbcdcc7e2	-0.02695078
231	0xbca32c98	-0.019918725
232	0x3c948ee8	0.01813455
233	0x3cbf4618	0.023348853
234	0x3c89d685	0.016825924
235	0x3cf36c01	0.029714586
236	0xbb87b941	-0.004141957
237	0x3d41742e	0.04722994
238	0xbc67a181	-0.014137627
239	0x3c70da4c	0.0147004835
240	0xbc92db89	-0.017926948
241	0xbd4d7fb5	-0.05017062
242	0x3b12951c	0.0022366708
243	0x3d5433ea	0.05180732
244	0xbaa1ace7	-0.0012334854
245	0x3c2c5176	0.010517469
246	0xbc902e42	-0.017600182
247	0x3d106dab	0.035260838
248	0xbd2c1589	-0.042012725
249	0xbb7bb324	-0.0038406337
250	0x3d2d41d9	0.042299125
251	0xbbb1ae51	-0.0054223915
252	0x3c830fd3	0.015998757
253	0xbd520ce1	-0.051281814
254	0x3cff7de4	0.031187959
255	0x3c2a932d	0.010411066
