checkpoint/without_perturb/modified_NGD/mlp_epoch294.pt (torch, 67261 bytes, 3 tensors)

fc1.weight f4 [4096, 2]
-1.5572159 0.8982011 -0.0929295 -1.2204103 2.6387825 -0.80402 -0.42780107 -0.67020816
-0.37228563 0.75250715 -0.5585444 -0.8069731 -1.683519 -0.26836646 1.2419486 -1.4854388
-0.3029803 0.71716654 0.97663367 -0.6595907 -0.5116803 1.5322272 0.77265984 0.92828935
0.1968829 0.07553693 -0.90796113 -1.0192578 -0.9773195 -0.09139233 -0.13797028 -0.15638798
1.1054708 0.36938563 -0.3662849 0.9166387 0.42876434 -1.5059824 -0.57430434 -0.35473725
-0.39653987 2.0129197 -1.1447828 0.8572274 -0.9699979 -1.2380348 -0.9763044 -0.22392534
0.50336224 -0.6818621 0.93701786 0.75756645 -1.0900165 1.4968549 -0.16807723 -0.007205355
1.6337085 1.5317098 -0.21097985 -2.8210976 2.090453 1.7974726 -0.39417535 -0.4457836
0.8311286 0.0935707 1.0695589 -0.15892652 -0.94898313 0.7320609 -0.7812654 -0.73309535
-0.27106372 0.73752135 -0.86018676 0.52843803 -1.0396634 -1.033423 -0.7823735 0.51179093
-0.45623437 0.86929834 -0.4465356 -0.94566935 1.1597153 2.2627027 -0.84182197 -0.87005705
1.2903613 -0.59766436 -0.4893669 0.27192828 -0.60617995 0.93723524 0.102919996 0.91253865
1.3205218 -1.4042436 0.06314867 -0.06546571 0.5669459 -1.3533232 -0.061768677 1.0454085
0.23076215 -0.5159858 -0.22941814 0.48752224 -0.57085085 0.014247644 1.2624078 -1.4885823
0.28359494 -1.6603817 -0.60419464 -0.053298797 -0.03670849 -0.081533976 0.6838157 0.046918802
0.28361917 1.0954806 -0.07929709 0.30980384 -0.49385685 0.0267135 0.6124592 -0.98944783
-0.3230909 1.7861934 -0.49976802 -1.2232407 -0.5995951 -0.65599203 -0.37804535 0.21632728
1.904462 -0.5708382 1.948324 1.6313374 -0.062331453 1.1946846 -2.2913725 1.3199927
0.2387164 0.06793745 0.41743776 -0.81221217 0.010372817 -2.0236187 -0.72643274 0.28581303
0.45115304 -1.3699113 -0.6969128 -1.319232 0.34227458 -0.40636954 -0.75282633 0.6877361
0.30922344 -0.21073033 -1.4337381 -0.8729061 0.6288165 1.5091792 0.029683897 0.7303427
0.1028846 -1.1768601 0.8597421 1.3970487 0.6476117 0.22426973 0.025298066 -0.39735338
2.402361 0.8187985 0.45844957 -0.014105364 0.79346764 -0.6610754 0.5187291 3.1462877
1.334352 0.4905917 -1.405052 -1.2662536 0.0056660026 0.09490762 1.6098351 -0.6811153
-0.026831357 0.63801146 1.4597044 -0.0831919 1.7986615 -1.3925418 1.2227434 -0.4523071
1.1011009 -1.4707526 0.6597887 1.6561418 -0.52231616 1.3161924 1.2199491 -1.488002
0.08077425 0.41827843 0.16314986 -0.8264697 -0.15376717 -0.096358255 -0.84880435 -0.7014414
-0.235774 2.8856611 -0.7761258 0.44666177 -0.39795545 -0.42602924 -0.9572947 -0.10733578
0.038895432 -1.1089242 1.5073998 -0.2210909 -0.23071927 1.0421572 -1.7356526 -0.35699102
0.36533037 0.37053493 -0.028460357 0.23537049 0.6090226 -0.33447307 -0.27749112 -0.22989878
-1.09184 2.81871 0.066104084 -0.13820438 0.14745805 -0.8870789 -0.499873 -1.3947241
-1.9384803 0.026932688 -0.68689543 -0.23467493 -0.096194394 -1.3281825 -0.6162144 -1.0329034
00000000: da52 c7bf 82f0 653f d251 bebd 6836 9cbf
00000010: d0e1 2840 41d4 4dbf be08 dbbe c392 2bbf
00000020: 399c bebe 4fa4 403f c4fc 0ebf ca95 4ebf
00000030: 8d7d d7bf 5467 89be 2cf8 9e3f dc22 bebf
00000040: 3c20 9bbe 3a98 373f aa04 7a3f f0da 28bf
00000050: 7bfd 02bf 0520 c43f 09cd 453f 5fa4 6d3f
00000060: ac9b 493e 1bb3 9a3d 2470 68bf 0a77 82bf
00000070: 9c31 7abf e72b bbbd 1548 0dbe 2c24 20be
00000080: 1180 8d3f 1d20 bd3e b289 bbbe d5a8 6a3f
00000090: 0087 db3e 08c4 c0bf 9c05 13bf 1fa0 b5be
000000a0: 4607 cbbe add3 0040 3e88 92bf 4173 5b3f
000000b0: c851 78bf ed77 9ebf 16ef 79bf af4c 65be
000000c0: 59dc 003f 848e 2ebf 67e0 6f3f e0ef 413f
000000d0: a985 8bbf f198 bf3f 701c 2cbe e61a ecbb
000000e0: 5c1d d13f 110f c43f 1a0b 58be dd8c 34c0
000000f0: fbc9 0540 9513 e63f 5ad1 c9be bf3d e4be
00000100: d8c4 543f ffa1 bf3d 4ee7 883f a2bd 22be
00000110: 8ff0 72bf 5868 3b3f 0201 48bf 23ac 3bbf
00000120: ddc8 8abe 33ce 3c3f 3335 5cbf b747 073f
00000130: b113 85bf 3447 84bf a149 48bf bb04 033f
00000140: 8d97 e9be 568a 5e3f 50a0 e4be 6317 72bf
00000150: 8d71 943f 1fd0 1040 a581 57bf 0fbc 5ebf
00000160: 8f2a a53f 8800 19bf 4c8e fabe 2f3a 8b3e
00000170: 9c2e 1bbf a6ee 6f3f b8c7 d23d 229c 693f
00000180: dc06 a93f 41be b3bf 1754 813d e312 86bd
00000190: 5e23 113f b239 adbf 2701 7dbd f2cf 853f
000001a0: ea4c 6c3e a517 04bf 97ec 6abe 849c f93e
000001b0: 4823 12bf f36e 693c 9496 a13f dd89 bebf
000001c0: 5b33 913e 6387 d4bf 80ac 1abf d74f 5abd
000001d0: a45b 16bd 49fb a6bd 8c0e 2f3f ee2d 403d
000001e0: 8836 913e b538 8c3f 8366 a2bd 9c9e 9e3e
000001f0: ceda fcbe 45d6 da3c 20ca 1c3f 744c 7dbf
00000200: 2c6c a5be fca1 e43f 98e1 ffbe 2793 9cbf
00000210: 117f 19bf 18ef 27bf 298f c1be e684 5d3e
00000220: 69c5 f33f 7422 12bf ae62 f93f aacf d03f
00000230: 444f 7fbd 6deb 983f d9a5 12c0 85f5 a83f
00000240: 1272 743e ca22 8b3d 67ba d53e 23ed 4fbf
00000250: bff2 293c f882 01c0 7ff7 39bf 1656 923e
00000260: 88fd e63e 4159 afbf e168 32bf 98dc a8bf
00000270: 9d3e af3e ab0f d0be 3ab9 40bf 790f 303f
00000280: 8952 9e3e b1c9 57be bb84 b7bf c676 5fbf
00000290: 1efa 203f c92c c13f a52b f33c bdf7 3a3f
000002a0: 29b5 d23d 5aa3 96bf 0f18 5c3f 7ed2 b23f
000002b0: e1c9 253f f7a6 653e e43d cf3c e771 cbbe
000002c0: 48c0 1940 c79c 513f e7b9 ea3e 2f1a 67bc
000002d0: b220 4b3f 3d3c 29bf 6ecb 043f c75c 4940
000002e0: 0ccc aa3f d62e fb3e bed8 b3bf 9914 a2bf
000002f0: e0a9 b93b ed5e c23d 140f ce3f 935d 2ebf
00000300: 6fcd dbbc b854 233f 98d7 ba3f 8460 aabd
00000310: 8a3a e63f cf3e b2bf db82 9c3f cc94 e7be
00000320: e0f0 8c3f 9f41 bcbf eae7 283f 74fc d33f
00000330: 83b6 05bf fe78 a83f 4b27 9c3f d976 bebf
00000340: f86c a53d 9728 d63e c210 273e 8593 53bf
00000350: 2475 1dbe 7a57 c5bd 3e4b 59bf aa91 33bf
00000360: bd6e 71be acae 3840 2eb0 46bf dab0 e43e
00000370: d1c0 cbbe 8120 dabe 4411 75bf ddd2 dbbd
00000380: d150 1f3d 3af1 8dbf 7af2 c03f a765 62be
00000390: ac41 6cbe 6865 853f dd29 debf 87c7 b6be
000003a0: 950c bb3e c1b6 bd3e b225 e9bc f604 713e
000003b0: e8e8 1b3f 0e40 abbe 5113 8ebe 966a 6bbe
000003c0: 6ac1 8bbf bf65 3440 9461 873d 7385 0dbe
000003d0: 3eff 163e 9a17 63bf 5bef ffbe 5286 b2bf
000003e0: 1f20 f8bf f1a1 dc3c 61d8 2fbf a04e 70be
000003f0: 9101 c5bd e201 aabf 3ac0 1dbf 2e36 84bf

fc1.bias f4 [4096]
-0.40836278 -1.7938612 -0.40728056 0.5659709 -0.61433697 -0.57643265 -1.8820982 0.4207273
-0.39023647 -0.959843 -1.0447334 -1.6960262 0.9264451 0.42319778 -1.3303714 -0.6311315
-1.149958 -0.65002275 -1.721088 -0.6478249 0.0160758 0.44458947 -1.5225456 -0.6447682
-1.3471771 -0.96567774 0.035620764 -0.28387487 -0.7457208 -0.18599285 -0.25875875 -0.9958174
0.57417977 -0.606828 -0.8700696 -0.2227356 -0.19509111 0.27923873 -1.1768656 -0.7482465
-0.9755695 0.11912984 -0.8421878 -0.79856557 -0.60479134 -0.3683768 -1.1861634 0.10841067
-0.61537397 0.31632614 -0.67660075 -0.8037416 -0.8149528 -0.98354363 0.21078338 -0.078882456
-0.90898025 -1.8780429 0.03471071 -0.24846545 -1.0296415 -1.189082 0.4756585 -0.14392845
-1.0720551 -0.902963 -1.7694558 0.13282101 -1.5308504 0.2878513 -0.9026531 -0.69195
0.46372223 -0.8602566 -0.8428223 -1.836676 0.80336475 -0.5338767 -0.04176013 -0.7686588
-1.0847824 -0.18349768 -0.8667091 0.08067568 -0.53435445 -1.5197059 -1.047872 -0.8219074
-0.6517699 -1.2997761 -1.3857888 -1.2082635 -0.5700595 -0.8296386 -1.7557817 -0.30373424
-0.60319424 -0.9719189 -0.319059 -1.9438465 -0.10911408 0.13543081 -0.685204 -1.6042775
-0.6627859 -0.85083675 -1.080088 -0.35820442 0.21693958 -0.9175082 -1.5853641 -0.18674847
-0.8044819 -0.40454713 -1.1765773 -1.0756005 0.23493734 -0.50700796 -1.9591149 0.33799347
0.2213081 -1.0788009 -1.5870738 -2.0270402 -1.07312 0.71574914 -0.14487085 -0.2667314
-1.6765611 -2.1471453 -0.15816103 -0.34733453 -0.8030623 -0.6129743 -0.8517119 0.0035597088
-0.55443203 -1.5793463 -0.14374936 -1.4741462 0.22433119 -1.6914748 -1.6453577 -0.22101854
-0.53598803 0.12742947 -1.3289434 -1.7690674 -1.7478698 -1.2173843 -0.91618156 -1.3336961
0.0723496 -0.62542975 -1.7954887 -1.0524288 -1.3764535 -1.6988838 -0.88689935 -1.1315228
-0.89743346 0.35159117 -0.93385386 -1.0357457 0.02567175 -1.3782333 0.65359145 -1.3300712
-1.4506729 -0.094058864 -1.135587 1.5139879 0.6595068 -0.4513133 -0.9033082 -0.5551601
0.51937675 -1.1990699 -0.23936324 -1.1495435 -0.36162284 -0.06731737 -0.0067041805 -1.4325328
-0.84243596 -0.75531584 -1.881653 0.18476637 -0.2804705 -0.76285714 -0.10606264 0.17503333
-1.8663337 -0.967577 -0.23046297 0.3556409 -0.6337165 -0.16042522 -0.43293744 0.24723287
-1.6292436 -1.4403082 -1.1946284 -1.0378782 -2.1560624 0.44581443 0.08535164 -0.25830862
-1.0671791 -0.5026783 -0.07024257 -0.089653425 0.6792211 -0.6599225 -0.84886813 -0.9529882
-0.5460954 -1.3531231 0.70030254 -0.60028243 -1.2536311 -2.2825758 -1.4404361 0.32902658
0.34092206 -0.027620936 -0.26013958 0.0034676776 -1.9717857 -0.9732387 -0.28852886 -0.18981022
0.245485 -0.70834595 -0.8626434 0.127721 0.20033722 -1.9558575 -1.0281346 -1.3643464
-0.76301444 -0.52251005 -1.2507036 0.13846558 -1.188592 -0.02416166 -1.6553746 -0.1797448
-1.3396367 0.010976982 -1.4921603 -0.6986244 -0.67106587 0.16120574 -1.0944681 -0.1743815
00000000: ed14 d1be 3e9d e5bf 1487 d0be 78e3 103f
00000010: 3045 1dbf 1791 13bf 98e8 f0bf 9269 d73e
00000020: 13cd c7be 45b8 75bf d3b9 85bf 6317 d9bf
00000030: 822b 6d3f 61ad d83e 9c49 aabf d591 21bf
00000040: d331 93bf e467 26bf 9d4c dcbf dad7 25bf
00000050: 65b1 833c 3ba1 e33e c6e2 c2bf 870f 25bf
00000060: 4d70 acbf a836 77bf 14e7 113d 0c58 91be
00000070: 8fe7 3ebf e974 3ebe 077c 84be e4ed 7ebf
00000080: 72fd 123f 1459 1bbf e2bc 5ebf cd14 64be
00000090: f7c5 47be 61f8 8e3e 88a3 96bf 158d 3fbf
000000a0: ecbe 79bf 58fa f33d 9f99 57bf cb6e 4cbf
000000b0: 9bd3 1abf e29b bcbe 34d4 97bf 6a06 de3d
000000c0: 2689 1dbf 80f5 a13e b535 2dbf 02c2 4dbf
000000d0: bfa0 50bf 84c9 7bbf 99d7 573e 208d a1bd
000000e0: eeb2 68bf b663 f0bf d12c 0e3d ba6d 7ebe
000000f0: 4bcb 83bf d733 98bf 8389 f33e fb61 13be
00000100: 1a39 89bf 9528 67bf 877d e2bf 3b02 083e
00000110: e8f2 c3bf 3f61 933e 4614 67bf a323 31bf
00000120: 006d ed3e c739 5cbf 34c3 57bf 3318 ebbf
00000130: 50a9 4d3f 25ac 08bf ac0c 2bbd d3c6 44bf
00000140: 26da 8abf d1e6 3bbe a6e0 5dbf 4a39 a53d
00000150: 74cb 08bf b985 c2bf ab20 86bf 8668 52bf
00000160: 64da 26bf 105f a6bf 8761 b1bf 61a8 9abf
00000170: 6bef 11bf 3263 54bf 74bd e0bf 0e83 9bbe
00000180: f06a 1abf adcf 78bf b45b a3be f6cf f8bf
00000190: 3477 dfbd 60ae 0a3e 8869 2fbf f758 cdbf
000001a0: 56ac 29bf 70d0 59bf 5340 8abf 9266 b7be
000001b0: 6925 5e3e d1e1 6abf 36ed cabf fe3a 3fbe
000001c0: 87f2 4dbf cd20 cfbe 169a 96bf 47ad 89bf
000001d0: 6a93 703e 46cb 01bf 47c4 fabf 7b0d ad3e
000001e0: 979e 623e 2616 8abf 3c25 cbbf 07bb 01c0
000001f0: ff5b 89bf 563b 373f 0659 14be 0591 88be
00000200: 8e99 d6bf d46a 09c0 f7f4 21be d5d5 b1be
00000210: 7e95 4dbf e2eb 1cbf cb09 5abf 014a 693b
00000220: 42ef 0dbf 0528 cabf 0833 13be d3b0 bcbf
00000230: 13b7 653e 3f82 d8bf 159b d2bf af52 62be
00000240: 8336 09bf df7c 023e d11a aabf cd70 e2bf
00000250: 33ba dfbf 40d3 9bbf e08a 6abf 8eb6 aabf
00000260: 072c 943d 2a1c 20bf 93d2 e5bf fdb5 86bf
00000270: a12f b0bf 0675 d9bf d60b 63bf bdd5 90bf
00000280: 33be 65bf c203 b43e 0c11 6fbf 5193 84bf
00000290: 904d d23c f369 b0bf c551 273f c63f aabf
000002a0: a6af b9bf efa1 c0bd ea5a 91bf 5bca c13f
000002b0: 70d5 283f 8912 e7be 353f 67bf f91e 0ebf
000002c0: e0f5 043f 1f7b 99bf a31b 75be 3e24 93bf
000002d0: a126 b9be b0dd 89bd beae dbbb 3c5d b7bf
000002e0: e2a9 57bf 615c 41bf 01da f0bf 6533 3d3e
000002f0: d499 8fbe 9b4a 43bf 5f37 d9bd f03b 333e
00000300: 06e4 eebf 20b3 77bf 7cfe 6bbe 9016 b63e
00000310: 3f3b 22bf 8246 24be faa9 ddbe 9d2a 7d3e
00000320: 0e8b d0bf 055c b8bf 95e9 98bf 31d9 84bf
00000330: edfc 09c0 ca41 e43e d7cc ae3d 0741 84be
00000340: 5399 88bf 86af 00bf 56db 8fbd 379c b7bd
00000350: 6fe1 2d3f aef0 28bf 6c4f 59bf 09f7 73bf
00000360: e8cc 0bbf 2333 adbf 0747 333f 1cac 19bf
00000370: fc76 a0bf b915 12c0 3660 b8bf 2c76 a83e
00000380: 568d ae3e 4d45 e2bc 0431 85be fa41 633b
00000390: 7963 fcbf 2c26 79bf 0eba 93be 9c5d 42be
000003a0: 6b60 7b3e 2956 35bf 33d6 5cbf 4bc9 023e
000003b0: 3325 4d3e 8a59 fabf ea99 83bf e7a2 aebf
000003c0: ea54 43bf 38c3 05bf 0e17 a0bf ecc9 0d3e
000003d0: c823 98bf acee c5bc 51e3 d3bf 050f 38be
000003e0: 3779 abbf cdd8 333c 1cff bebf 0cd9 32bf
000003f0: f9ca 2bbf 1e13 253e 8817 8cbf 1091 32be

fc2.weight f4 [1, 4096]
-0.1624082 0.020108096 1.3598335 -0.021060793 -0.028745433 -0.018970624 -0.02105169 -0.21809372
0.00693305 0.16010435 -0.009137244 -0.040799007 0.1422012 -0.023808464 -0.014106488 0.01938348
-0.050760865 -0.002513246 0.0010353238 0.017281653 0.12877342 -0.116039984 -0.0027774011 -0.008263256
0.011877029 -0.0005296604 0.03927165 -0.0036064433 -0.45516077 0.00043668234 -0.039727256 0.012765618
-0.119581096 0.1865222 0.004244525 -0.035305604 0.041144796 0.031574722 -0.0100530675 0.024783468
-0.008884747 -0.012156032 0.10197795 -0.020699026 0.084568076 -0.012288928 0.0039680675 0.24950054
-0.00585831 -0.026273547 -0.023632146 -0.022512697 0.00056306476 -0.012244822 -0.015956769 -0.0053191064
0.005929597 -0.01741315 0.025929678 0.01847349 -0.007865693 -0.008138736 0.082557686 0.025312532
0.006238552 0.026310436 -0.004183236 0.030812772 -0.085229374 -0.9871694 -0.008992763 0.027591482
0.13248038 0.008767038 -0.0006042981 -0.006117443 -0.2885847 0.011186182 -0.0056400667 0.012108991
-0.021654291 -0.0071927328 -0.31450105 0.06493504 -0.011010582 0.066394724 -0.028252536 0.0779074
0.33783367 0.018330613 -0.004032414 -0.17743464 -0.101535834 -0.028795132 0.00992089 -0.24128667
0.019028082 0.26724416 -0.59761876 0.004360399 -0.16686276 -0.24054779 0.11503464 -0.038909413
-0.017039951 -0.0014705178 -0.038573705 0.038858443 0.3694885 0.007127737 0.022039175 0.0006531673
-0.01959375 0.23113309 0.006662931 -0.006743269 0.029970828 -0.0078719575 0.009050998 -0.006200454
0.06311984 -0.00012338975 0.014540125 0.016105995 0.018249428 -0.10415481 -0.0072376938 -0.0019910934
-0.0062598176 -0.003935656 -0.801563 0.011112043 0.0013237074 -0.03628976 -0.10588297 0.260985
-0.17938958 -0.008024855 0.054896437 0.0032408976 0.21737285 -0.015931275 -0.01030811 0.032783516
-0.0030281476 -0.39993602 0.0047718445 0.008026637 -0.017624445 -0.017744256 0.018271439 -0.016982988
-0.031446 -0.043500815 0.0054350034 -0.029852854 -0.020610396 0.024881989 0.007053622 0.0017260262
0.0152883055 0.027436877 0.042409964 -0.02570748 0.113106735 0.012578078 0.02030182 -0.20259179
0.0362374 -0.017301152 -0.13802086 -0.46274158 0.021107277 -0.16632177 -0.01441198 -0.036851656
-0.34660447 0.020401843 0.0023116595 -0.010857435 -0.010517495 -0.20818669 0.06616872 -0.013599056
0.012610329 0.018105322 0.0039164433 0.04832835 0.008811261 0.009338463 0.36096123 -0.014988699
0.024439137 0.03293466 -0.013869397 -0.038043536 0.014891787 -0.24921635 0.12587933 -0.004359795
0.0023339016 -0.0021339136 -0.013356139 -0.02267801 0.015959114 0.007718808 0.14762318 -0.020378126
-0.13820261 0.038135786 -0.03494501 -0.07336934 -0.087083176 0.15745355 0.010037751 0.014300407
0.020967005 0.0008156477 -0.1234309 -0.017670989 0.003868372 0.0035196 -0.0021526979 0.14457269
0.006929978 0.03428906 0.04272255 0.34317842 0.04639132 -0.0077175605 0.027804017 0.35912773
-0.016816447 0.026248364 -0.008829344 0.32477626 0.29011166 0.01465477 0.024132494 0.018951364
-0.15979554 0.0311351 -0.00506102 -0.10384154 0.025798127 0.18854378 -0.051256727 0.066419765
0.006799416 0.3187388 -0.025166683 0.030042186 0.011546112 0.074855514 -0.008895841 -0.06351119
00000000: 564e 26be bcb9 a43c 060f ae3f af87 acbc
00000010: 8b7b ebbc 4868 9bbc 9874 acbc f653 5fbe
00000020: a42e e33b 65f2 233e 61b4 15bc dc1c 27bd
00000030: 319d 113e f809 c3bc e61e 67bc 1bca 9e3c
00000040: a0ea 4fbd 45b5 24bb b4b3 873a 4192 8d3c
00000050: 2edd 033e 5fa6 edbd 0f05 36bb 9c62 07bc
00000060: df97 423c e8d8 0aba 4fdb 203d 145a 6cbb
00000070: d50a e9be 83f2 e439 0cb9 22bd e226 513c
00000080: efe6 f4bd adff 3e3e a815 8b3b 9c9c 10bd
00000090: 7287 283d 7f54 013d 9fb5 24bc b306 cb3c
000000a0: 5491 11bc 182a 47bc d1d9 d03d 0191 a9bc
000000b0: 0732 ad3d 8057 49bc 9006 823b 127d 7f3e
000000c0: 11f7 bfbb 9f3b d7bc 3498 c1bc 8c6c b8bc
000000d0: a39a 133a 829e 48bc c5b7 82bc e64b aebb
000000e0: 114d c23b 06a6 8ebc 7a6a d43c b755 973c
000000f0: 1cdf 00bc 5558 05bc 0114 a93d 3a5c cf3c
00000100: c46c cc3b fc88 d73c 8713 89bb 116b fc3c
00000110: bd8c aebd 22b7 7cbf 6256 13bc 8807 e23c
00000120: f0a8 073e 9fa3 0f3c c269 1eba d574 c8bb
00000130: 60c1 93be 3f46 373c 4fd0 b8bb ca64 463c
00000140: 5764 b1bc 04b1 ebbb 4806 a1be aafc 843d
00000150: ba65 34bc f5f9 873d dd71 e7bc ea8d 9f3d
00000160: 89f8 ac3e 152a 963c 5722 84bb 6db1 35be
00000170: 05f2 cfbd c5e3 ebbc 3b8b 223c da13 77be
00000180: c8e0 9b3c 3ad4 883e 8bfd 18bf aee1 8e3b
00000190: 12de 2abe 2952 76be 4897 eb3d 7a5f 1fbd
000001a0: 5e97 8bbc 64be c0ba 76ff 1dbd 082a 1f3d
000001b0: 992d bd3e cb8f e93b 808b b43c 5139 2b3a
000001c0: 1283 a0bc 27ae 6c3e b754 da3b a4f6 dcbb
000001d0: 6285 f53c 62f9 00bc a34a 143c 2e2d cbbb
000001e0: fa44 813d 2f62 01b9 b439 6e3c b8f0 833c
000001f0: d37f 953c 1e4f d5bd 2d2a edbb 017d 02bb
00000200: 281f cdbb adf6 80bb 3c33 4dbf 490f 363c
00000210: 4080 ad3a 92a4 14bd 2cd9 d8bd d39f 853e
00000220: e7b1 37be ae7a 03bc 16db 603d 3d65 543b
00000230: fd96 5e3e 4e82 82bc 59e3 28bc 0248 063d
00000240: e373 46bb 6ac4 ccbe 225d 9c3b 2882 033c
00000250: 2461 90bc 675c 91bc fcad 953c e81f 8bbc
00000260: 85cd 00bd e92d 32bd 1d18 b23b f98d f4bc
00000270: 22d7 a8bc 50d5 cb3c 1222 e73b d43b e23a
00000280: cd7b 7a3c 4dc3 e03c 12b6 2d3d 7e98 d2bc
00000290: 81a4 e73d 4814 4e3c 0150 a63c 3974 4fbe
000002a0: ab6d 143d 25bb 8dbc 5755 0dbe 77ec ecbe
000002b0: 2be9 ac3c 4150 2abe 3a20 6cbc c3f1 16bd
000002c0: 2476 b1be c421 a73c 367f 173b 62e3 31bc
000002d0: 9251 2cbc e42e 55be 7783 873d 93ce 5ebc
000002e0: 8e9b 4e3c 9d51 943c 8255 803b f3f3 453d
000002f0: 1b5d 103c 5a00 193c e9cf b83e 2993 75bc
00000300: 9634 c83c 7ee6 063d 783c 63bc 8ad3 1bbd
00000310: affc 733c 9232 7fbe 83e6 003e 9cdc 8ebb
00000320: 5ff4 183b 21d9 0bbb b5d3 5abc 3cc7 b9bc
00000330: b0bc 823c 0eee fc3b 882a 173e 07f0 a6bc
00000340: fc84 0dbe 4534 1c3d 8022 0fbd aa42 96bd
00000350: aa58 b2bd 813b 213e 6175 243c 414c 6a3c
00000360: ffc2 ab3c 31d1 553a 57c9 fcbd c0c2 90bc
00000370: 8384 7d3b 17a9 663b 4714 0dbb dd0a 143e
00000380: de14 e33b af72 0c3d d7fd 2e3d 15b5 af3e
00000390: d304 3e3d 97e3 fcbb 40c5 e33c 97df b73e
000003a0: a5c2 89bc cf06 d73c f4a8 10bc 1349 a63e
000003b0: 8489 943e 8f1a 703c 82b1 c53c e43f 9b3c
000003c0: 71a1 23be 0a0f ff3c ead6 a5bb e0aa d4bd
000003d0: 9856 d33c 9f11 413e 93f2 51bd 1607 883d
000003e0: a3cd de3b bb31 a33e 5c2a cebc 081b f63c
000003f0: e72b 3d3c d94d 993d ddbf 11bc 2812 82bd
