checkpoint/without_perturb/modified_NGD/mlp_epoch51.pt (torch, 67255 bytes, 3 tensors)

fc1.weight f4 [4096, 2]
00000000: 2082 87bf c9be a03f bc71 d3bf d981 1640
00000010: ff78 43bf 5ffe 453f 70dc 95be 20e5 983f
00000020: 9052 fabd 9dcf 51bf 5dbd d93d 2da3 9abe
00000030: c782 ab3f e15b 833c fd21 9c3d 0f22 c73d
00000040: f210 3ebe c777 f63f 82d9 14c0 e588 89bc
00000050: 92ae 903f 85f8 f1bd f5da 1cbf 38d0 34be
00000060: e3e7 43bf 3bb2 79bf 21fd 113f 9e7b 873f
00000070: 95b2 5d3e c341 bebf 8637 83bf 469d 693d
00000080: d9d7 a83e 64ec d6be 748c afbf 2a89 603f
00000090: 9fdb f9be b9f7 35bf c81f a3be 0204 d33f
000000a0: 5d9e 8cbe 4f45 b8be 6152 213f e96d de3f
000000b0: ba5c 753f 4b03 34bf 3284 85bf b2d4 3e3e
000000c0: 4ec5 0cbd 3dce 733e d238 083f ff70 8ebf
000000d0: e734 1b40 5bd9 84be 3c21 103f 1c91 4cbf
000000e0: 22ec 383f 7b0d b2bf b7e0 cbbf 49de 8fbe
000000f0: 1306 57bf 9f77 8ebf 5d2c 9e3e 6068 2cbf
00000100: b7f7 6fbf afb5 2fbf 42b4 84bf 0f39 cf3f
00000110: 59f7 63be de0c a43e 29e5 d1be 71de abbf
00000120: 53f7 1340 ff39 4b3f a6db c03e 534c a83f
00000130: c16a fdbc 2f60 8fbf accc 9a3e 13f2 9f3f
00000140: 4f7d 283f 3086 063f 9732 03bf 46b4 81be
00000150: 953b 3dbf 9a88 0240 e4e8 2e3d fe99 1dc0
00000160: 1a90 50bf 74c2 0b3f b4a6 93bf f9b8 993f
00000170: cea1 9e3e 9960 07bf 3f7f 16c0 7ca0 f4be
00000180: 08df ab3f 7e3a 323f fe04 85bd 5ca1 00c0
00000190: 53d3 2240 9a49 783f 12b6 023d 6a47 613f
000001a0: e04d 8ebe 1216 8d3f 99b5 0740 bd8a 843d
000001b0: 4d53 50be 6493 733f b173 093f c7cc 32bf
000001c0: fff5 97bf 6d30 9abe 9fcc f43f 2ba9 cb3f
000001d0: 0203 91be 41cd 03bf 216d 1a40 7682 1cc0
000001e0: 742e 51bf 53e5 bdbf 41ad 413f b06f 7abf
000001f0: d4c6 053f 48ac bc3e 54da bc3e 28ce aabf
00000200: 5797 fd3e ef2a 1b40 a0f4 c33e bc4a b73e
00000210: e940 b3be 4760 d03f da86 813f bc1f 273f
00000220: af34 b7bf 4c63 f0be 2b63 b43f 0ad7 a63f
00000230: b438 88bf 91e2 85bf f364 e03e 5ad8 6b3f
00000240: a053 c7bf 8005 fcbe 7a92 c7bf e231 983e
00000250: 8af3 40bf de0c b0bf bf2b 8fbf 222d 1ebf
00000260: 0201 d63e f4f8 283f 6e23 09bf 32c4 e73f
00000270: 6c34 b73f 4347 6fbf 1714 f4bf daef 363f
00000280: 4cb7 48bf 98ea 563f b103 a63f 31df 22bf
00000290: 942f 403f 6b32 9abd 7ec4 a43e 7cfd 813f
000002a0: f259 24c0 2f64 e8bf 0345 19bf d2f0 d33e
000002b0: a307 113f e33c 96bf 946f 03c0 6749 c4bf
000002c0: 6994 6d3f 0906 abbf ecf8 c6bd 708f 343f
000002d0: 2193 2a3f d2a1 8f3f b4ab 81bc b840 87be
000002e0: 2b47 a2be a9b2 ff3f fbdc 0d3f 7bfc 15bf
000002f0: 0c2b 1ec0 9705 063f 6d7c a4bf 900c 323f
00000300: 3678 91be 6624 a2bf 8c56 66be 447d 65bf
00000310: 1af9 783f 721c a7bf 4e24 0140 f23d e43f
00000320: 82fd 7cbf 3635 7c3f 9718 d3bf 4c23 4ebf
00000330: d713 63be 86f8 c5bd 3465 2ebf 938e efbe
00000340: 136d 96bf 51c6 8bbf 38f7 eebd 763e 863f
00000350: 47a7 33c0 29b1 ffbe 94d9 44be e702 bf3d
00000360: d195 163f bf21 c83f cfd9 ea3e a3c2 ec3e
00000370: 5620 493f 3e1a 8f3d e087 06bf 9e7a a5be
00000380: bdac e4bf a155 cebf 0db7 d8bf 22ad 75bd
00000390: 006d 5e3e c4ce aebe 39b4 e93f 5032 ed3f
000003a0: 4f5b 86bf 70a9 36bf 9941 0d3f 7e68 c0bb
000003b0: f6c0 db3f dcd4 e5bd da0c 2ec0 5f43 7ebf
000003c0: 1372 c4be 49c0 d23e ec23 50bf 8ee8 8bbf
000003d0: a553 2a3e c2f7 bc3e f0d4 1640 89c8 493e
000003e0: 1c0f 2ac0 bd13 0bbf e59d dbbf dc6c 4dbe
000003f0: 7f4c 333e f352 c5be 3bca 84bf 3d0e d9ba
-1.0586586 1.2558223 -1.6519084 2.3516753 -0.763565 0.77341264 -0.29269743 1.1944923
-0.12222779 -0.8195742 0.10631821 -0.30202618 1.3399285 0.016035022 0.0762367 0.09723293
-0.18561152 1.9255303 -2.3257756 -0.01678891 1.1303275 -0.118149795 -0.612716 -0.17657554
-0.76525706 -0.97537583 0.5702687 1.05846 0.21650155 -1.4863819 -1.025132 0.057034753
0.3297718 -0.41977227 -1.3714738 0.87709296 -0.4880037 -0.7108112 -0.31860185 1.6485598
-0.27464572 -0.35990378 0.63016325 1.7377292 0.95844615 -0.70317525 -1.0430968 0.18635824
-0.034367852 0.23809142 0.532117 -1.1128234 2.425104 -0.2594708 0.5630071 -0.7990892
0.7223531 -1.3910364 -1.5927953 -0.28099278 -0.83993644 -1.1130255 0.30893221 -0.67346764
-0.9373736 -0.686366 -1.036751 1.6189288 -0.22262324 0.32041067 -0.40995148 -1.3427259
2.3119705 0.7938537 0.37667578 1.3148292 -0.030934693 -1.1201228 0.30234277 1.249575
0.65816206 0.52548504 -0.5124907 -0.2533285 -0.7391904 2.0395875 0.04270257 -2.462524
-0.8146988 0.54593587 -1.1535249 1.2009574 0.30982822 -0.5288177 -2.3515165 -0.4777869
1.3427439 0.696205 -0.06495093 -2.0098486 2.5441482 0.9698731 0.031911917 0.87999594
-0.2779379 1.102236 2.1204588 0.06471775 -0.20344277 0.95146775 0.53692156 -0.69843715
-1.1871947 -0.3011507 1.9124945 1.5911001 -0.28322607 -0.5148507 2.4129107 -2.4454627
-0.81711507 -1.4835609 0.7565499 -0.9782667 0.5225651 0.3685019 0.3688532 -1.3344164
0.49529526 2.4244955 0.38272572 0.35799205 -0.3501046 1.6279382 1.0119278 0.652828
-1.4312953 -0.46950758 1.4092764 1.3034375 -1.0642304 -1.0459768 0.43827018 0.92127
-1.5572395 -0.49222946 -1.5591576 0.29725558 -0.7537161 -1.3753927 -1.1185225 -0.6178762
0.41797644 0.6600487 -0.53569686 1.8106749 1.4312873 -0.9346811 -1.9068631 0.71459734
-0.7840469 0.8395171 1.2969877 -0.63621813 0.750726 -0.07529148 0.32181162 1.0155482
-2.5679898 -1.8155574 -0.5987093 0.4139467 0.5665228 -1.1737331 -2.0536852 -1.5334901
0.9280458 -1.3361217 -0.09715447 0.7053137 0.6663075 1.1221259 -0.015828945 -0.26416564
-0.31694922 1.9976398 0.55415314 -0.5858838 -2.4713774 0.5235228 -1.2850472 0.6955042
-0.28412026 -1.2667358 -0.22493953 -0.89644265 0.972551 -1.3055556 2.0178409 1.7831404
-0.9882432 0.98518693 -1.6491879 -0.8052261 -0.22175537 -0.09666543 -0.68123174 -0.46788463
-1.1752037 -1.0919896 -0.11668247 1.0487812 -2.8070848 -0.4993985 -0.19223624 0.093267255
0.5882235 1.5635298 0.458693 0.46242246 0.78564966 0.06987427 -0.5255108 -0.32320112
-1.7865216 -1.6119882 -1.6930863 -0.059979565 0.21721268 -0.34142125 1.8258125 1.8530979
-1.0496615 -0.7135229 0.5517822 -0.0058718314 1.7168262 -0.1122224 -2.7195344 -0.9932155
-0.38368282 0.41162327 -0.8130481 -1.0930345 0.1663347 0.36907774 2.3567467 0.19705404
-2.6571722 -0.54326993 -1.715756 -0.20061058 0.1750965 -0.38539848 -1.0374216 -0.001656003

fc1.bias f4 [4096]
00000000: 8eb6 88be ea80 88bf b48a f6be 66af 413f
00000010: 43cf e9bc 005c d1bf 2e3e a23e 1f89 2bbe
00000020: 67b0 133e 31e6 fb3c fdff e0be b16f 023f
00000030: 7b20 b53e 1b57 afbf 03b2 b4bf c23f 3bbf
00000040: fd44 c2be 229f d3bf 90e9 82bf ca12 71bf
00000050: 14f1 80bf f18e afbf bf99 64bf bf55 5fbf
00000060: 4098 17bf d0a2 16bd daa2 2bbf 9a3f 7ebf
00000070: aa2b 26c0 82c2 37bf 9142 2cc0 9fe5 59be
00000080: f171 35bf 86cc b3be 1c65 b0bf 016a 5abf
00000090: 8eb0 92bf 0b25 74bf 97b7 533e 917f 9bbf
000000a0: 9e06 8cbf 9457 c23e 851a dfbf f5bb 8cbf
000000b0: 348b c4bf 203d 7bbf 975e c0bf ceb2 a33e
000000c0: 0fb8 debf 7d05 873e 3aea c8be 7dbc 3fbf
000000d0: b67b 40be c082 4dbf 4637 f6be e6b7 5bbf
000000e0: 594a d83d c7aa 83bf 7f8a 1bbf b986 a2bf
000000f0: 1493 f2bf 28d2 85bf 411d 87bf 23b5 c1bf
00000100: 768a 9bbf 41b1 11c0 53ba 55bf f4c5 233d
00000110: 78cd 093e 4799 543e 24f5 d6be eb78 563e
00000120: a92d cfbf 9e21 8dbf 4dd9 483f f93d 17bf
00000130: b467 02be f7aa 59bf ca80 55be 87fd d53e
00000140: 0b29 dabf 842d 5dbf 2ff4 d1bf 75c6 d83d
00000150: 38db 9ebf ad79 88be a6cf 173e a6ad 483e
00000160: 9b00 98be 347f 2bbf 7547 1dbf 22d5 a3bf
00000170: 69f4 48bf 30df 70bc bbcd 7d3f 254b 3dbf
00000180: 8dd4 ce3d 8c19 b4bf 22dd b4bf 6b77 87bf
00000190: 8cf6 91be 8775 1cbf 6252 d6bf fd01 44bf
000001a0: 5ff9 54bf 2be8 96bf 8da2 0ebf bdfb d3be
000001b0: f64d 0ebf 3edf 52bf 9b0e acbf f2e5 50be
000001c0: 1708 26bf 2bd6 323f eb98 d1be 91fb 51bf
000001d0: ff6c 84bd d502 29bf 3c11 75bf c072 243e
000001e0: 23ff 86be 6bb1 4abf bdf6 fc3d f316 8bbf
000001f0: 2a64 033f 61f5 adbe 7cc5 ad3f 7bda 08c0
00000200: f861 9fbf 5719 35bf 984d 1c3f d9f8 adbf
00000210: 8f62 b6bf f95a 18bf 549a 1abf 6ff3 00c0
00000220: 0eb1 0dc0 5eec 09bf 714f 113f a0fb 17bf
00000230: 327a 0ebf d84c 633f ae68 0abf 9882 33bf
00000240: 8fcd 91bf f137 c6bf e055 92bd 8036 c2bd
00000250: 958e f8bf d595 13bf 57df b9be ff2e 19bf
00000260: 37a5 ef3e 32f9 b0bf 356f 22bf 8ed1 3cbe
00000270: d974 5cbf 6545 893d 6251 a6bf a142 91bf
00000280: 84e5 103e 580c 96be 7866 9abf cd5b 0abf
00000290: 33ab 7cbe f16e 9abf 7fa6 49bf c7a5 273f
000002a0: e03a 2f3f 7b90 22c0 1bb4 02c0 283f 0ebf
000002b0: 9cab b4bf e20e 0d3f 90aa 07bf 4f88 c6bf
000002c0: 942e 8abf 6d30 acbf ad11 23bf f127 2ebf
000002d0: 0e27 7abf 5544 65bf 4cd0 483f deef 22bf
000002e0: d313 a1bf 0eb9 ddbf b175 5a3d 2186 2ebf
000002f0: 1b50 1cbf 2ca1 9bbf eda0 54be b2d4 d3bf
00000300: 403b b43d 5dfe d23e 3150 5ebf b448 4ebf
00000310: 58f6 17bf 2b5b 05bf 7712 edbe bebc d9be
00000320: 08a2 c33e bbec 81bf c8e6 2dbf 991d abbf
00000330: f617 cfbe c62c a1bf 336b c7bf b53a 5c3e
00000340: 823a 3cbe de24 cabf e072 413f 306d 52bf
00000350: c47c 1ec0 432f d3bf c6c6 d93c ec80 3c3e
00000360: de01 f2bf 60dd d7bf a909 de3d d9db b0bf
00000370: 5f5b 62bf 5e5b 92bf 394e b8bf 1040 8ebf
00000380: c57d ebbf e555 0ebf 5f49 28bf 9c5c f6bf
00000390: d2b5 f0bf 2bf7 a0be 1987 81bf 4f46 aabe
000003a0: 6dee 22c0 2bbd 8cbf 8deb fabf e2e4 9cbf
000003b0: d1b2 2ebf cda4 f63e 7ad1 933f a172 f9bf
000003c0: 0a94 cdbf 3eb2 96bf f1ee 69bf a7f4 693e
000003d0: e295 b5bf 598d 42bf b397 133e 24a6 69bf
000003e0: 90ee 84bf 1e84 2dbf d29c c7be fa21 3ebe
000003f0: 73fe 92bf 9d65 99bf 2d1b 69bf 7911 5a3f
-0.26701778 -1.0664341 -0.48152697 0.7565826 -0.028541213 -1.6356201 0.31688064 -0.16751526
0.14422761 0.030749412 -0.43945304 0.5095168 0.35376343 -1.3698457 -1.4116825 -0.7314416
-0.3794326 -1.6532938 -1.0227528 -0.94169295 -1.0073571 -1.3715497 -0.892971 -0.87240213
-0.5921669 -0.036776364 -0.67045367 -0.993158 -2.596415 -0.7178117 -2.691563 -0.21279
-0.70876986 -0.35116976 -1.3780856 -0.85318 -1.146013 -0.95369023 0.20675503 -1.2148305
-1.093952 0.37957442 -1.7429968 -1.099486 -1.5354981 -0.98140144 -1.5028867 0.31972355
-1.739992 0.26371375 -0.392412 -0.74896985 -0.18797192 -0.80277634 -0.48089045 -0.8582748
0.10561056 -1.0286492 -0.60758203 -1.2697364 -1.8951135 -1.045476 -1.0555803 -1.5133404
-1.215163 -2.2764437 -0.83487433 0.039983705 0.13457286 0.20761596 -0.41983902 0.20944564
-1.6185809 -1.1025884 0.78456575 -0.5907894 -0.12734872 -0.85026497 -0.2084991 0.4179499
-1.7043775 -0.86397576 -1.6402644 0.10584728 -1.241065 -0.2665533 0.14825305 0.19597492
-0.29687962 -0.6699097 -0.6143716 -1.2799418 -0.7849794 -0.01470165 0.99142045 -0.73942786
0.100991346 -1.4070296 -1.4129984 -1.0583318 -0.28508413 -0.6111683 -1.6743891 -0.76565534
-0.8319301 -1.1789602 -0.5571678 -0.41403 -0.5558771 -0.8237189 -1.3441957 -0.20400217
-0.64856094 0.69858044 -0.4093698 -0.82024485 -0.06466102 -0.66019946 -0.9572942 0.16059399
-0.2636653 -0.7917697 0.12351749 -1.0866379 0.51324713 -0.33976272 1.3575892 -2.138335
-1.2451773 -0.7074179 0.610559 -1.3591567 -1.4248828 -0.59513813 -0.60391736 -2.014858
-2.2139316 -0.5387629 0.5676184 -0.59368324 -0.55655205 0.8878913 -0.5406598 -0.70121145
-1.1390857 -1.5485822 -0.071452856 -0.09483051 -1.9418513 -0.576505 -0.36303207 -0.59837335
0.46805736 -1.3826048 -0.6345094 -0.18439314 -0.86115795 0.06702689 -1.2993586 -1.1348459
0.14150053 -0.29306293 -1.2062521 -0.54046327 -0.24674682 -1.2065107 -0.7876968 0.6548733
0.6844921 -2.5400684 -2.0422428 -0.5556512 -1.4114871 0.55100834 -0.5299463 -1.5510348
-1.0795465 -1.3452278 -0.63698846 -0.68029696 -0.9771584 -0.8955739 0.78442836 -0.6364726
-1.2584175 -1.7322099 0.053334896 -0.68173414 -0.6105973 -1.2158561 -0.20764513 -1.6549284
0.088003635 0.4120969 -0.8684111 -0.80579686 -0.59360266 -0.52092236 -0.4630315 -0.4252681
0.38209558 -1.015037 -0.6793027 -1.3368407 -0.40447968 -1.2591789 -1.557959 0.2150677
-0.18381694 -1.5792501 0.7556591 -0.82197857 -2.476365 -1.6498798 0.02658404 0.18408555
-1.890682 -1.6864433 0.10841686 -1.3817092 -0.8842067 -1.1434133 -1.4398872 -1.11133
-1.8397757 -0.55599815 -0.65736955 -1.9247012 -1.8805487 -0.31438574 -1.0119354 -0.33256766
-2.5458024 -1.099523 -1.9603134 -1.225735 -0.682416 0.48172608 1.1548302 -1.9488107
-1.6060803 -1.1773145 -0.9138022 0.22847234 -1.4186366 -0.7599693 0.14413337 -0.91269135
-1.0385303 -0.6777972 -0.38986832 -0.18567649 -1.1483902 -1.1984135 -0.9105709 0.8518291

fc2.weight f4 [1, 4096]
00000000: fbac 523c 09bb a8bc 868d 1d3d 3afa 27bc
00000010: a51d c1bb 86b6 343d 89f8 ebbb c49b 5d3c
00000020: 9b89 be3a 9bbf 40bd 6a7e f3bb 0eba 843c
00000030: 00fe 813c 3902 d43c e06a be3b 7384 9c3b
00000040: d0bb f4bc a7d6 3f3a 3f2d ce3a bf5f 0bbd
00000050: 7314 2f3b 3c7b d83c 242d 743c 1298 eb3b
00000060: aa87 74ba 7d9b 213c cc5b 0e3d c149 a73b
00000070: 5fc3 65bc 276a 333d 128a 78bc 9ea4 ee3b
00000080: 447f 6e3c 87cc 2dbb 8b09 803b cfa4 d43b
00000090: 812e 2bbd 15ce 24bd 6eb7 823d 7c46 d1bb
000000a0: bd94 dc3b 9bb6 0d3d 992a abbc 2ab0 cfbc
000000b0: 99be 02bc bc6b 33bd b569 8e3b 2fd2 d3bc
000000c0: 91a7 453c 2ef5 12bb 9589 e13c dbe5 b7bc
000000d0: beb5 ffbc 798d 12bd 3993 b63b 4999 20bc
000000e0: ee18 aa3b 499a 453d 9385 123d bb47 24bc
000000f0: 280d 44bc e1db b3ba 4bdd 6d3a 5960 af3c
00000100: 0775 fe3c db20 093c c965 a5bc 68e2 9bbb
00000110: f292 483c 87c4 ccbc 0560 403c b1ac e9bb
00000120: bfca 37bb 1581 253c 35a8 9b3c f940 99bc
00000130: 2829 783c c45c a1bb c513 f1ba ab92 eb3c
00000140: ffb4 b0bc 7870 eb3b af84 ad3c f2e2 1d3d
00000150: 5efe 773b e2b0 9bbc 4f4f 7dbb 0407 5d3c
00000160: 2d39 babb 469d 5cbb a5ca 1f3c f6cb 773b
00000170: fa19 6bbb c247 b63c 5b5c 143c 7fba 933a
00000180: 95be 8a3c 310b afbc 4a2f acbc bdb6 023b
00000190: b662 2a3d 14e0 693a b0ef 14bb 9366 573c
000001a0: 24e3 c83c 001f 8d3c f85f e43c 2763 7f3c
000001b0: 189e e83b 6106 14bd 0b49 03bc 73cf 903c
000001c0: d3fb 273c 1902 11bd bb7b 6b3d 9007 2d3c
000001d0: 3c11 ea3b ee84 913c 4273 05bd 27b7 4ebc
000001e0: 6fc2 8e3c 4ebe ddbc 3d0e 793c 33e3 fc3b
000001f0: 11f0 813c 4f7b a63a e41e f3bc 2f0e 3d3b
00000200: c4f6 3cbb a543 18bb a501 363c 1df7 a4bc
00000210: 0bc6 d43c 1d1f b83c ece6 e53c 4975 6fbc
00000220: 27cc 2c3a f7fe 6bbc e41a 743b 830c 31bc
00000230: b0b4 443b ab78 893c 1193 d53c 6141 12bd
00000240: 13f2 0c3c 0304 78bb 803e 023d 87d9 69bc
00000250: 2822 6d3c ac18 523c 28c8 95bc 4a87 f63a
00000260: d00f 1dbd f73b 07bc 0ccf 7ebc f2c7 513c
00000270: 4359 bd3b 5ead 803b c875 d7bc 239f b03b
00000280: 9022 71bb efde e0bb c953 23bc 143f a63c
00000290: 8f8f 5f3b 3ba6 b1bc 2782 cc3b cd77 123c
000002a0: f6cd d7ba ede9 acbb 0fd0 c23c da17 173b
000002b0: bdb1 2a3c ec55 a9bc 59f6 8b3c a947 833a
000002c0: 3336 8e3c 80c6 f4b9 c6e4 8eba 3d3e f83c
000002d0: 33b4 7c3c 2c23 5ebc 2293 623b f503 37bd
000002e0: b86a 4a3c 7aa8 0a3c a17f 08bd 509f 02bc
000002f0: 621a dbbb 31bd 24bc 769e 46bd 8f44 023d
00000300: 2bf0 46bb 518d edbb 00aa bd3b 7d77 36bc
00000310: 97bb 43bb 1b3e 563c 0dcf 29bb 79fd 95bb
00000320: df31 d8bc 0704 b83b 542a 65bc 034d 97bb
00000330: f806 2a3c d9e9 74bd 0912 19bb f451 b43c
00000340: c283 953b 1e17 89bc 0246 1a3c 5b6e 2fbc
00000350: 1bb4 28bd 36a5 d1bc 8c41 963c 6189 f3bc
00000360: b081 1b3d 4e5c 30bb 4c71 63bc 26e2 d7bb
00000370: e9f8 8cbb 0fb7 2c3d b52f ab3c 4aa4 663b
00000380: d57e 143c 9ccf 9a3c 5ed0 9c3c 5a9e 853c
00000390: c995 adbb adbc 113c 9c50 24bd 8943 973b
000003a0: 8f9c 803c c938 9d3c fa17 203b 34c2 3bbd
000003b0: 4913 5c3b 16bb bc3b de2a 213d c81c 51bc
000003c0: 18e3 c3bb 2216 f9bc 86f4 9d3b 9321 42bc
000003d0: e918 b1bc c152 7b3b 1fa8 8d3c 9241 1f3c
000003e0: c50c 30bd f393 acbc 21f0 08bd 7a4f d63c
000003f0: b5e8 883c db1f 023d 20fb 73bc 6441 733c
0.012858625 -0.020596998 0.038465045 -0.01025253 -0.0058934265 0.04411938 -0.0072012586 0.013525907
0.0014536859 -0.04705773 -0.007430841 0.016201999 0.015868187 0.025879966 0.0058110803 0.0047765314
-0.029874712 0.00073180575 0.0015730037 -0.034026857 0.002671507 0.02642595 0.0149033405 0.007189759
-0.0009328077 0.009863731 0.034755513 0.0051052277 -0.014023631 0.043802407 -0.015169637 0.0072828075
0.01455671 -0.0026519613 0.0039073876 0.0064893733 -0.041792396 -0.040235598 0.06382643 -0.006386576
0.006731598 0.034597974 -0.020894336 -0.025352556 -0.007980012 -0.043803915 0.0043460974 -0.02585706
0.012063877 -0.002242397 0.027531425 -0.02244847 -0.031214591 -0.03577945 0.0055717495 -0.009802171
0.00519096 0.04824284 0.035771918 -0.0100268675 -0.011966027 -0.0013722145 0.0009073808 0.021408247
0.031061662 0.00836965 -0.020190137 -0.0047572143 0.012242066 -0.024996055 0.011741643 -0.007131182
-0.002804443 0.010101576 0.019001106 -0.01870774 0.015146531 -0.0049243886 -0.0018392733 0.02875646
-0.02157068 0.007185038 0.021181433 0.03854651 0.0037840824 -0.019005243 -0.0038652008 0.013490442
-0.0056830854 -0.0033663078 0.009752904 0.003781078 -0.0035873638 0.022251014 0.009055222 0.001127079
0.01693658 -0.021367641 -0.021018643 0.0019945346 0.041598044 0.0008921635 -0.0022725873 0.013147014
0.024522372 0.017226696 0.027877793 0.015587605 0.0070989244 -0.036138896 -0.00801302 0.017677044
0.010252911 -0.03540239 0.057491045 0.010560885 0.007143168 0.017763581 -0.03258062 -0.012616909
0.017426698 -0.027068283 0.015201149 0.007717514 0.015861543 0.0012701544 -0.029677816 0.0028847565
-0.0028833607 -0.0023233679 0.0111087905 -0.020137364 0.02597334 0.022475773 0.028064214 -0.014615365
0.00065917004 -0.01440405 0.0037247473 -0.010806206 0.0030014925 0.016781172 0.026071103 -0.03570688
0.008602637 -0.0037844188 0.031797886 -0.014273054 0.0144734755 0.012823265 -0.018283918 0.001880863
-0.038345158 -0.008254043 -0.0155522935 0.012804018 0.005778463 0.003926917 -0.02630128 0.0053900643
-0.0036794282 -0.0068625133 -0.009968706 0.02029375 0.0034112667 -0.02168571 0.0062411013 0.008939696
-0.0016464579 -0.0052769096 0.02378085 0.0023054988 0.010418353 -0.020670854 0.017085241 0.0010015863
0.017359829 -0.000466872 -0.001090192 0.030303115 0.015423822 -0.01355819 0.0034572561 -0.044681508
0.012354545 0.0084630195 -0.03332484 -0.007972553 -0.0066864947 -0.010054872 -0.048490964 0.031803664
-0.0030355554 -0.0072495122 0.005788088 -0.011136887 -0.002986645 0.013076331 -0.0025910765 -0.0045773354
-0.026390968 0.0056157145 -0.013987143 -0.004617335 0.010377638 -0.059793327 -0.0023356697 0.022011735
0.004562826 -0.016734656 0.009416105 -0.010707463 -0.041187387 -0.025591474 0.018341802 -0.029728593
0.037965477 -0.0026910487 -0.013881993 -0.0065882383 -0.0043021333 0.042166766 0.020896772 0.0035193139
0.009063442 0.018897824 0.019142326 0.01631086 -0.005297397 0.0088950815 -0.040115938 0.004616205
0.015699653 0.019192116 0.0024428354 -0.045839503 0.003358083 0.005759607 0.039347522 -0.01276321
-0.0059779994 -0.030406062 0.004820409 -0.011848825 -0.021618323 0.0038348886 0.01729208 0.009720223
-0.042980928 -0.021066641 -0.03343213 0.026160944 0.016712526 0.03176866 -0.014891416 0.014847133
