checkpoint/without_perturb/modified_NGD/mlp_epoch173.pt (torch, 67261 bytes, 3 tensors)

fc1.weight f4 [4096, 2]
0	0xbfbc67ad	-1.4719139
1	0x3f80ff1c	1.0077853
2	0xbc9e953f	-0.019358275
3	0xbfa5e598	-1.2960691
4	0x402835c8	2.6282825
5	0xbf4f1325	-0.8088859
6	0xbecf7b8e	-0.40523952
7	0xbf26b195	-0.6511472
8	0xbec0d36f	-0.3766131
9	0x3f3d633c	0.73979545
10	0xbf0ad0a7	-0.5422463
11	0xbf4f510a	-0.8098303
12	0xbfd7f5a4	-1.6871839
13	0xbe81d442	-0.25357252
14	0x3f9b59e7	1.2136811
15	0xbfbdbabe	-1.4822614
16	0xbea12a76	-0.31477708
17	0x3f39333b	0.72343796
18	0x3f7cbfe5	0.9873031
19	0xbf1f8169	-0.6230684
20	0xbf00f793	-0.5037777
21	0x3fc44030	1.5332088
22	0x3f40e5a3	0.753504
23	0x3f6e8c1f	0.9318256
24	0x3e476a16	0.19474062
25	0x3d853b1d	0.065054156
26	0xbf6a99a4	-0.91640687
27	0xbf842d32	-1.0326293
28	0xbf7ba5c5	-0.9829982
29	0xbdd1fdd4	-0.10253492
30	0xbe092a91	-0.13395144
31	0xbe25b394	-0.16181785
32	0x3f8d7bdd	1.1053425
33	0x3ebce802	0.36895758
34	0xbebb88a4	-0.36627686
35	0x3f6aa8d5	0.9166387
36	0x3edc1c99	0.42990568
37	0xbfc0c850	-1.506113
38	0xbf130a9e	-0.57438076
39	0xbeb5f19e	-0.35535902
40	0xbecd1917	-0.40058205
41	0x4000d2ae	2.0128589
42	0xbf929231	-1.1450864
43	0x3f5b6d06	0.8571323
44	0xbf783a8a	-0.96964324
45	0xbf9e76f7	-1.2380055
46	0xbf79eebe	-0.97629917
47	0xbe654caf	-0.22392534
48	0x3f00dc59	0.50336224
49	0xbf2e7609	-0.6814886
50	0x3f6fdb4e	0.9369401
51	0x3f41fcb0	0.75776196
52	0xbf8b8724	-1.0900617
53	0x3fbf9a32	1.4968932
54	0xbe2c13a4	-0.16804367
55	0xbbef40bc	-0.007301418
56	0x3fd11b7e	1.6336515
57	0x3fc40ba8	1.5316057
58	0xbe581304	-0.21101004
59	0xc03492fc	-2.8214712
60	0x4005cb4e	2.0905337
61	0x3fe613db	1.797481
62	0xbec9d4fd	-0.3942031
63	0xbee45ede	-0.44603628
64	0x3f54b6c5	0.83091384
65	0x3dbfa26d	0.09357152
66	0x3f88e504	1.069489
67	0xbe2313b3	-0.15925483
68	0xbf72ee26	-0.94894636
69	0x3f3b6858	0.7320609
70	0xbf480103	-0.78126544
71	0xbf3ba815	-0.7330335
72	0xbe8ad112	-0.27112633
73	0x3f3ccfc9	0.73754555
74	0xbf5c366b	-0.86020535
75	0x3f074737	0.5284304
76	0xbf851613	-1.0397362
77	0xbf84444e	-1.0333345
78	0xbf484cfd	-0.78242475
79	0x3f030534	0.51179814
80	0xbee98526	-0.45609397
81	0x3f5e89dd	0.8692911
82	0xbee49e58	-0.44652057
83	0xbf7216c7	-0.94566005
84	0x3f946c84	1.1595616
85	0x4010d111	2.2627604
86	0xbf578245	-0.8418315
87	0xbf5ebb52	-0.8700458
88	0x3fa504a0	1.2892036
89	0xbf19062b	-0.59775037
90	0xbefa8cb8	-0.48935485
91	0x3e8b3752	0.27190644
92	0xbf1b2aba	-0.6061207
93	0x3f6fed5a	0.93721545
94	0x3dd346f3	0.10316267
95	0x3f69a58f	0.9126825
96	0x3fa914a3	1.3209423
97	0xbfb3b13b	-1.4038461
98	0x3d7e615a	0.06210456
99	0xbd85e6b4	-0.06538144
100	0x3f1115c6	0.5667385
101	0xbfad39b2	-1.3533232
102	0xbd79f6e1	-0.061026458
103	0x3f85ec8a	1.0462811
104	0x3e6c4bac	0.23075742
105	0xbf041315	-0.51591617
106	0xbe6aed97	-0.22942196
107	0x3ef99b05	0.48751083
108	0xbf122348	-0.57085085
109	0x3c69647e	0.014245151
110	0x3fa18dee	1.2621439
111	0xbfbf130d	-1.4927689
112	0x3e913114	0.28357756
113	0xbfd48763	-1.6603817
114	0xbf1a6ee0	-0.6032543
115	0xbd5a53c3	-0.053302538
116	0xbd165d2d	-0.036709953
117	0xbda70688	-0.081555426
118	0x3f2f3346	0.6843761
119	0x3d401e53	0.04690392
120	0x3e911fb9	0.28344515
121	0x3f8c2d8d	1.0951401
122	0xbda27328	-0.079321206
123	0x3e9ea266	0.30983275
124	0xbefc8cfd	-0.49326316
125	0x3cda4ed6	0.02664892
126	0x3f1d0727	0.6133904
127	0xbf7d59d9	-0.9896522
128	0xbea56a31	-0.3230758
129	0x3fe4a2b2	1.7862151
130	0xbeffe212	-0.49977165
131	0xbf9c9327	-1.2232407
132	0xbf1980d6	-0.59962213
133	0xbf27eea3	-0.65598506
134	0xbec175ea	-0.37785274
135	0x3e5dc378	0.21656597
136	0x3ff3be61	1.9042474
137	0xbf122b3a	-0.5709721
138	0x3ff94d26	1.9476669
139	0x3fd0cf9d	1.6313359
140	0xbd793781	-0.06084395
141	0x3f992ee0	1.196743
142	0xc012a652	-2.2914014
143	0x3fa8f585	1.3199927
144	0x3e741fea	0.23840299
145	0x3d8aabc6	0.067710444
146	0x3ed5bae0	0.41744137
147	0xbf4fed23	-0.81221217
148	0x3c2a0078	0.010376088
149	0xc00182f8	-2.0236187
150	0xbf39f7a9	-0.72643524
151	0x3e925616	0.28581303
152	0x3ee7c44b	0.45266947
153	0xbfaf5b2b	-1.3699697
154	0xbf326943	-0.69691867
155	0xbfa8f132	-1.3198607
156	0x3eaf0652	0.3418451
157	0xbecff12a	-0.4061368
158	0xbf40ba09	-0.7528387
159	0x3f300f79	0.6877361
160	0x3e9e4c19	0.30917433
161	0xbe57c9b1	-0.21073033
162	0xbfb784bb	-1.4337381
163	0xbf5fb2ed	-0.87382394
164	0x3f20df45	0.6284068
165	0x3fc12985	1.5090796
166	0x3cdf3687	0.02724768
167	0x3f3b0905	0.7306064
168	0x3dd2affa	0.10287471
169	0xbf96a35a	-1.1768601
170	0x3f5ba177	0.8579325
171	0x3fb2ca95	1.3968073
172	0x3f25c9e1	0.6476117
173	0x3e65a6f7	0.22426973
174	0x3ccf3de4	0.025298066
175	0xbecb71e7	-0.39735338
176	0x4019bfd5	2.4023335
177	0x3f51997f	0.8187484
178	0x3eeab9e7	0.45844957
179	0xbc6719d7	-0.014105282
180	0x3f4b20b2	0.79346764
181	0xbf293c3d	-0.6610754
182	0x3f04cd77	0.51876014
183	0x40495bb6	3.1462226
184	0x3faabf6d	1.3339669
185	0x3efb21af	0.49049136
186	0xbfb3d8be	-1.405052
187	0xbfa21499	-1.2662536
188	0x3bb9a991	0.005665966
189	0x3dc25eed	0.09490762
190	0x3fce0881	1.6096345
191	0xbf2e647e	-0.6812209
192	0xbcdbcd6f	-0.026831357
193	0x3f2354b8	0.63801146
194	0x3fba6cd2	1.4564459
195	0xbda945e5	-0.082652844
196	0x3fe5ffd2	1.7968695
197	0xbfb276a1	-1.3942453
198	0x3f9c82db	1.2227434
199	0xbee794cc	-0.4523071
200	0x3f8ceaa4	1.1009107
201	0xbfbc39ec	-1.4705176
202	0x3f28f497	0.65998214
203	0x3fd3f7ef	1.6560038
204	0xbf05b649	-0.5223127
205	0x3fa87c15	1.3162867
206	0x3f9c274b	1.2199491
207	0xbfbe76d9	-1.488002
208	0x3da56cf8	0.08077425
209	0x3ed62897	0.41827843
210	0x3e2710c2	0.16314986
211	0xbf539385	-0.8264697
212	0xbe1d7524	-0.15376717
213	0xbdc5577a	-0.096358255
214	0xbf594b3e	-0.84880435
215	0xbf3391aa	-0.7014414
216	0xbe7189f6	-0.23587784
217	0x4038b007	2.8857439
218	0xbf46b02e	-0.7761258
219	0x3ee4b0da	0.44666177
220	0xbecbc0d1	-0.39795545
221	0xbeda2081	-0.42602924
222	0xbf751144	-0.9572947
223	0xbddbd2dd	-0.10733578
224	0x3d1f50d1	0.038895432
225	0xbf8df13a	-1.1089242
226	0x3fc0ea0b	1.5071424
227	0xbe627db1	-0.2211826
228	0xbe6c41ac	-0.23071927
229	0x3f856568	1.0421572
230	0xbfde29dd	-1.7356526
231	0xbeb6c787	-0.35699102
232	0x3ebb3f35	0.3657166
233	0x3ebda7c0	0.37042046
234	0xbce925b2	-0.028460357
235	0x3e7104f6	0.23537049
236	0x3f1be8e8	0.6090226
237	0xbeab400e	-0.33447307
238	0xbe8dde6d	-0.2770876
239	0xbe6b6294	-0.22986823
240	0xbf8bf4e1	-1.0934106
241	0x40345d80	2.8182068
242	0x3d876194	0.066104084
243	0xbe0d8573	-0.13820438
244	0x3e16ff3e	0.14745805
245	0xbf63179a	-0.8870789
246	0xbeffef5b	-0.499873
247	0xbfb28652	-1.3947241
248	0xbff8201f	-1.9384803
249	0x3cdca1f1	0.026932688
250	0xbf2ffcaa	-0.6874491
251	0xbe70680a	-0.23477188
252	0xbdc50191	-0.096194394
253	0xbfaa01e2	-1.3281825
254	0xbf1dc03a	-0.6162144
255	0xbf84362e	-1.0329034

fc1.bias f4 [4096]
0	0xbed2db6a	-0.41183025
1	0xbfe59d3e	-1.7938612
2	0xbed0af8e	-0.40758938
3	0x3f10e42c	0.5659816
4	0xbf1d4530	-0.61433697
5	0xbf139117	-0.57643265
6	0xbff0e898	-1.8820982
7	0x3ed9b1cf	0.4251847
8	0xbec7b90f	-0.39008376
9	0xbf7616d9	-0.9612861
10	0xbf85b9d3	-1.0447334
11	0xbfd91763	-1.6960262
12	0x3f6d3bec	0.9266956
13	0x3ed8ad61	0.42319778
14	0xbfaa499c	-1.3303714
15	0xbf2191d5	-0.6311315
16	0xbf933cb4	-1.15029
17	0xbf2667e4	-0.65002275
18	0xbfdc4c9d	-1.721088
19	0xbf25d7da	-0.6478249
20	0x3c607b65	0.013701295
21	0x3ee36995	0.4441649
22	0xbfc2e2c6	-1.5225456
23	0xbf250f87	-0.6447682
24	0xbfac704d	-1.3471771
25	0xbf773aa9	-0.96573883
26	0x3d12a4b2	0.035801597
27	0xbe91580c	-0.28387487
28	0xbf3f1945	-0.74647933
29	0xbe3e74e9	-0.18599285
30	0xbe848bd5	-0.25887933
31	0xbf7eede4	-0.9958174
32	0x3f130689	0.57431847
33	0xbf1b56cd	-0.6067932
34	0xbf5ebce2	-0.8700696
35	0xbe6414cd	-0.2227356
36	0xbe47d128	-0.1951338
37	0x3e8ef52c	0.27921426
38	0xbf96a388	-1.1768656
39	0xbf3f8d15	-0.7482465
40	0xbf79beec	-0.9755695
41	0x3df3fa58	0.11912984
42	0xbf5797e3	-0.84216136
43	0xbf4c6ecb	-0.79856557
44	0xbf1ad544	-0.6048167
45	0xbebc9be2	-0.3683768
46	0xbf97d434	-1.1861634
47	0x3dde673e	0.10859536
48	0xbf1dedea	-0.61691153
49	0x3ea1fedd	0.31639758
50	0xbf2d35b5	-0.67660075
51	0xbf4d524c	-0.802037
52	0xbf50a0bf	-0.8149528
53	0xbf7bc984	-0.98354363
54	0x3e57d799	0.21078338
55	0xbd9fa85b	-0.07795783
56	0xbf68b2ee	-0.90898025
57	0xbff063b6	-1.8780429
58	0x3d0e2cd1	0.03471071
59	0xbe7e9e86	-0.2486516
60	0xbf83ce8f	-1.0297412
61	0xbf9833d7	-1.189082
62	0x3ef3ed54	0.47642004
63	0xbe11525e	-0.14191577
64	0xbf893843	-1.0720295
65	0xbf672895	-0.902963
66	0xbfe27d87	-1.7694558
67	0x3e087d13	0.13328962
68	0xbfc404b5	-1.5313936
69	0x3e930dde	0.28721517
70	0xbf668a90	-0.9005518
71	0xbf3123a3	-0.69195
72	0x3eed7d71	0.46384767
73	0xbf5c39c7	-0.8602566
74	0xbf57c334	-0.8428223
75	0xbfeb1833	-1.836676
76	0x3f4d2d07	0.8014683
77	0xbf08ac25	-0.5338767
78	0xbd2968b5	-0.041359622
79	0xbf44c6d3	-0.7686588
80	0xbf8ada26	-1.0847824
81	0xbe3be6d1	-0.18349768
82	0xbf5e0cef	-0.86738485
83	0x3da2b076	0.079438135
84	0xbf08cb74	-0.53435445
85	0xbfc25bc7	-1.5184258
86	0xbf8620ab	-1.047872
87	0xbf526886	-0.8219074
88	0xbf271ad6	-0.65275323
89	0xbfa65f10	-1.2997761
90	0xbfb16187	-1.3857888
91	0xbf9aab46	-1.2083519
92	0xbf11f13c	-0.5700872
93	0xbf546332	-0.8296386
94	0xbfe0bd74	-1.7557817
95	0xbe9b8e56	-0.3038203
96	0xbf1a6af0	-0.60319424
97	0xbf78409f	-0.96973604
98	0xbea49f8f	-0.32152984
99	0xbff8cff6	-1.9438465
100	0xbde07fa4	-0.109618455
101	0x3e097855	0.1342481
102	0xbf2f6186	-0.68508184
103	0xbfcd58f7	-1.6042775
104	0xbf29ac56	-0.6627859
105	0xbf59d070	-0.85083675
106	0xbf8a4053	-1.080088
107	0xbeb76692	-0.35820442
108	0x3e5dc900	0.21658707
109	0xbf6ae1d1	-0.9175082
110	0xbfcaed36	-1.5853641
111	0xbe3f3afe	-0.18674847
112	0xbf4df287	-0.8044819
113	0xbecffe10	-0.40623522
114	0xbf969a16	-1.1765773
115	0xbf89ad47	-1.0756005
116	0x3e70ac52	0.23503235
117	0xbf01cb46	-0.50700796
118	0xbffac447	-1.9591149
119	0x3ead475f	0.33843514
120	0x3e611ccb	0.2198364
121	0xbf8a1626	-1.0788009
122	0xbfcb253c	-1.5870738
123	0xc001bb07	-2.0270402
124	0xbf895bff	-1.07312
125	0x3f3709d8	0.71499395
126	0xbe145906	-0.14487085
127	0xbe889105	-0.2667314
128	0xbfd6998e	-1.6765611
129	0xc0096ad4	-2.1471453
130	0xbe21d1a6	-0.15802631
131	0xbeb1d5d5	-0.34733453
132	0xbf4d957e	-0.8030623
133	0xbf1cebe2	-0.6129743
134	0xbf5a0a6c	-0.8517215
135	0x3b329de7	0.0027254762
136	0xbf0e03a2	-0.55474293
137	0xbfca2805	-1.5793463
138	0xbe12ccde	-0.14335963
139	0xbfbcb0d3	-1.4741462
140	0x3e66a008	0.22521985
141	0xbfd8823f	-1.6914748
142	0xbfd29b15	-1.6453577
143	0xbe6252af	-0.22101854
144	0xbf093683	-0.53598803
145	0x3e0299cd	0.12753983
146	0xbfaa1ad1	-1.3289434
147	0xbfe270cd	-1.7690674
148	0xbfdfba33	-1.7478698
149	0xbf9bd340	-1.2173843
150	0xbf6a8ae0	-0.91618156
151	0xbfaab68e	-1.3336961
152	0x3d9447cf	0.07240259
153	0xbf201c2a	-0.62542975
154	0xbfe5d293	-1.7954887
155	0xbf86b5fd	-1.0524288
156	0xbfb02fa1	-1.3764535
157	0xbfd97506	-1.6988838
158	0xbf630bd6	-0.88689935
159	0xbf90d5bd	-1.1315228
160	0xbf65be33	-0.89743346
161	0x3eb43028	0.3519299
162	0xbf6f110c	-0.93385386
163	0xbf849351	-1.0357457
164	0x3cd0d240	0.02549088
165	0xbfb069f3	-1.3782333
166	0x3f275753	0.6536762
167	0xbfaa3fca	-1.3300717
168	0xbfb9afa6	-1.4506729
169	0xbdc0a1ef	-0.094058864
170	0xbf9164df	-1.1358908
171	0x3fc1d048	1.5141687
172	0x3f28d570	0.6595068
173	0xbee77023	-0.4520274
174	0xbf673f35	-0.9033082
175	0xbf0e1ef9	-0.5551601
176	0x3f04fa1a	0.51944125
177	0xbf997b1f	-1.1990699
178	0xbe751ba3	-0.23936324
179	0xbf93243e	-1.1495435
180	0xbeb926a1	-0.36162284
181	0xbd8a63be	-0.067573056
182	0xbbdf2062	-0.0068092803
183	0xbfb75d3c	-1.4325328
184	0xbf57a9e2	-0.84243596
185	0xbf4182ce	-0.7559022
186	0xbff0da01	-1.881653
187	0x3e3d7346	0.18501005
188	0xbe8f83ea	-0.2803033
189	0xbf434a9b	-0.76285714
190	0xbdd8a4e2	-0.10578324
191	0x3e333bf0	0.17503333
192	0xbfeee406	-1.8663337
193	0xbf77b46e	-0.9675969
194	0xbe6be2c2	-0.2303572
195	0x3eb65f4a	0.35619575
196	0xbf223b3f	-0.6337165
197	0xbe2431b2	-0.16034582
198	0xbedcd37d	-0.43130103
199	0x3e7d4ce0	0.24736357
200	0xbfd08b0e	-1.6292436
201	0xbfb85c05	-1.4403082
202	0xbf990342	-1.1954119
203	0xbf84d931	-1.0378782
204	0xc009fced	-2.1560624
205	0x3ee441ca	0.44581443
206	0x3dae93f2	0.08524312
207	0xbe844107	-0.25830862
208	0xbf889763	-1.06712
209	0xbf00af86	-0.5026783
210	0xbd8fdb56	-0.07024257
211	0xbdb80ec1	-0.08987189
212	0x3f2d1d8f	0.6762323
213	0xbf290d12	-0.6603557
214	0xbf594f6c	-0.84886813
215	0xbf73f709	-0.9529882
216	0xbf0bcce8	-0.5460954
217	0xbfad3323	-1.3531231
218	0x3f334a20	0.7003498
219	0xbf19ac1c	-0.60028243
220	0xbfa076fc	-1.2536311
221	0xc01215b9	-2.2825758
222	0xbfb86036	-1.4404361
223	0x3ea72fb9	0.32653597
224	0x3eae8d56	0.34092206
225	0xbce2454d	-0.027620936
226	0xbe861082	-0.2618447
227	0x3b738d05	0.0037162912
228	0xbffc6379	-1.9717857
229	0xbf79262c	-0.9732387
230	0xbe93ba0e	-0.28852886
231	0xbe426495	-0.18983681
232	0x3e7b606b	0.245485
233	0xbf355629	-0.70834595
234	0xbf5cd6b3	-0.86265105
235	0x3e02987f	0.12753485
236	0x3e4cb9a8	0.19992697
237	0xbffa598a	-1.9558575
238	0xbf8399ea	-1.0281346
239	0xbfaea2e7	-1.3643464
240	0xbf435b6b	-0.7631137
241	0xbf05c338	-0.52251005
242	0xbfa02e4d	-1.251413
243	0x3e0cde6c	0.13756722
244	0xbf9823c8	-1.188592
245	0xbcc5d3d7	-0.024148865
246	0xbfd3e351	-1.6553746
247	0xbe380f05	-0.1797448
248	0xbfab7937	-1.3396367
249	0x3c33de26	0.010978257
250	0xbfbeff1c	-1.4921603
251	0xbf32d90c	-0.6986244
252	0xbf2bc4f9	-0.6709743
253	0x3e24c6db	0.16091482
254	0xbf8c1788	-1.0944681
255	0xbe31284d	-0.1730053

fc2.weight f4 [1, 4096]
0	0xbe1ee424	-0.15516716
1	0x3ca4b9bc	0.020108096
2	0x3faf3db4	1.3690705
3	0xbcc444f2	-0.023958657
4	0xbceb7b8b	-0.028745433
5	0xbc9b6848	-0.018970624
6	0xbcac7498	-0.02105169
7	0xbe809339	-0.25112322
8	0x3bd7174f	0.006564058
9	0x3e25c516	0.16188464
10	0xbc15b461	-0.009137244
11	0xbd271cdc	-0.040799007
12	0x3dc8cd6c	0.09804806
13	0xbcc309f8	-0.023808464
14	0xbc671ee6	-0.014106488
15	0x3c9eca1b	0.01938348
16	0xbd46cc3f	-0.048534628
17	0xbb24b545	-0.002513246
18	0x3a87b3b4	0.0010353238
19	0x3c8d9241	0.017281653
20	0x3e242c52	0.16032532
21	0xbe005897	-0.12533794
22	0xbb36050f	-0.0027774011
23	0xbc07629c	-0.008263256
24	0x3c4297df	0.011877029
25	0xbc012127	-0.007881439
26	0x3cc43eb2	0.023955677
27	0xbb6c5a14	-0.0036064433
28	0xbee67e52	-0.4501825
29	0x39e4f283	0.00043668234
30	0x3bfada1f	0.0076553966
31	0x3c5126e2	0.012765618
32	0xbe020f7e	-0.12701222
33	0x3e2737d7	0.16329895
34	0x3b8b15a8	0.004244525
35	0xbd109c9c	-0.035305604
36	0x3d23ab54	0.039958313
37	0x3d0f7542	0.035023935
38	0xbc24b59f	-0.0100530675
39	0x3ccb06b3	0.024783468
40	0xbc119154	-0.008884747
41	0xbc472a18	-0.012156032
42	0x3dfff18e	0.12497245
43	0xbca99101	-0.020699026
44	0x3d928f42	0.071562305
45	0xbc495780	-0.012288928
46	0x3b820690	0.0039680675
47	0x3e847945	0.2587377
48	0x3c78c042	0.015182557
49	0xbcf02757	-0.029315634
50	0xbcc19834	-0.023632146
51	0xbcc9bc2c	-0.02462586
52	0x3a139aa3	0.00056306476
53	0xbc489e82	-0.012244822
54	0xbc82b7c5	-0.015956769
55	0x3b73cbcb	0.0037200327
56	0x3bc24d11	0.005929597
57	0xbc8ea606	-0.01741315
58	0x3cd46a7a	0.025929678
59	0x3c79765e	0.015225975
60	0xbbc80f41	-0.006105334
61	0xbc055855	-0.008138736
62	0x3d9eaacd	0.077474214
63	0x3d3a31b7	0.045457568
64	0x3c3eadfa	0.011638159
65	0x3cd788fc	0.026310436
66	0xbb891387	-0.004183236
67	0x3cd985b6	0.026553016
68	0xbd9aead1	-0.07564319
69	0xbf6ea3df	-0.932188
70	0xbc264f37	-0.010150722
71	0x3ce20788	0.027591482
72	0x3e02fcc3	0.12791733
73	0x3c0fa39f	0.008767038
74	0xba1e69c2	-0.0006042981
75	0xbbc874d5	-0.006117443
76	0xbe7d63d8	-0.24745119
77	0x3c37463f	0.011186182
78	0xbb85771d	-0.0040730373
79	0x3c4664ca	0.012108991
80	0xbcb16457	-0.021654291
81	0xbbebb104	-0.0071927328
82	0xbe9e9411	-0.3097234
83	0x3d8e5907	0.06950574
84	0xbc3465ba	-0.011010582
85	0x3da2893a	0.0793633
86	0xbce771dd	-0.028252536
87	0x3d9f8dea	0.0779074
88	0x3e972c37	0.2952592
89	0x3c962a15	0.018330613
90	0xbb842257	-0.004032414
91	0xbe479492	-0.19490269
92	0xbcef42a4	-0.029206581
93	0xbcebe3c5	-0.028795132
94	0x3c228b3b	0.00992089
95	0xbe56a356	-0.20960745
96	0x3c9be0c8	0.019028082
97	0x3e868626	0.26274222
98	0xbf0ca562	-0.54939854
99	0x3b8ee1ae	0.004360399
100	0xbe198018	-0.1499027
101	0xbe34eeb3	-0.17669182
102	0x3de45e8e	0.111508474
103	0xbd1f5f7a	-0.038909413
104	0xbc8b975e	-0.017039951
105	0xbac0be64	-0.0014705178
106	0xbd1dff76	-0.038573705
107	0x3d1f2a08	0.038858443
108	0x3ebefe9b	0.37303624
109	0x3be98fcb	0.007127737
110	0x3cb48b80	0.022039175
111	0x3a2b3951	0.0006531673
112	0xbca08312	-0.01959375
113	0x3e67b05e	0.22625872
114	0x3bda54b7	0.006662931
115	0xbbdcf6a4	-0.006743269
116	0x3d02fe88	0.03198102
117	0xbc00f962	-0.0078719575
118	0x3c144aa3	0.009050998
119	0xbc1b6698	-0.0094849095
120	0x3d73ad17	0.059491243
121	0xb901622f	-0.00012338975
122	0x3c6e39b4	0.014540125
123	0x3c83f0b8	0.016105995
124	0x3c957fd3	0.018249428
125	0xbde7f4f1	-0.11326016
126	0xbbed2a2d	-0.0072376938
127	0xbb027d01	-0.0019910934
128	0xbbcd1f28	-0.0062598176
129	0xbb80f6ad	-0.003935656
130	0xbf3f81dc	-0.74807525
131	0x3c360f49	0.011112043
132	0x3aad8040	0.0013237074
133	0xbd14a492	-0.03628976
134	0xbdc753e8	-0.09732801
135	0x3e6cb336	0.23115239
136	0xbe5eb9aa	-0.21750513
137	0xbc037aae	-0.008024855
138	0x3cd3344f	0.025781779
139	0x3b54653d	0.0032408976
140	0x3e57c360	0.21070623
141	0xbc82824e	-0.015931275
142	0xbc28e359	-0.01030811
143	0x3d064802	0.032783516
144	0xbb4673e3	-0.0030281476
145	0xbeba6491	-0.3640485
146	0x3b9c5d22	0.0047718445
147	0x3c038228	0.008026637
148	0xbc906124	-0.017624445
149	0xbc915c67	-0.017744256
150	0x3c95adfc	0.018271439
151	0xbc8b1fe8	-0.016982988
152	0xbcd92871	-0.026508542
153	0xbd322de9	-0.043500815
154	0x3bb2181d	0.0054350034
155	0xbcf48df9	-0.029852854
156	0xbca8d722	-0.020610396
157	0x3ccbd550	0.024881989
158	0x3be72212	0.007053622
159	0x3ae23bd4	0.0017260262
160	0x3c7a7bcd	0.0152883055
161	0x3c30f778	0.010801189
162	0x3d2db612	0.042409964
163	0xbcd2987e	-0.02570748
164	0x3dd76f85	0.105193175
165	0x3c4e1448	0.012578078
166	0x3cc8c4bd	0.024507875
167	0xbe586d37	-0.21135412
168	0x3d146dab	0.0362374
169	0xbc8dbb25	-0.017301152
170	0xbe13722d	-0.14399023
171	0xbf0dfa40	-0.55459976
172	0x3cace92b	0.021107277
173	0xbe2d4703	-0.1692162
174	0xbc6c203a	-0.01441198
175	0xbd16f1c3	-0.036851656
176	0xbea8ce4d	-0.32969895
177	0x3ca721c4	0.020401843
178	0x3b177f36	0.0023116595
179	0xbc31e362	-0.010857435
180	0xbc2c5192	-0.010517495
181	0xbe897e56	-0.268542
182	0x3c95dc2d	0.018293465
183	0xbc5ece93	-0.013599056
184	0x3c4e9b8e	0.012610329
185	0x3cd982ad	0.026551569
186	0x3b805582	0.0039164433
187	0x3c0bbb2c	0.008528512
188	0x3c4beaaa	0.012446085
189	0x3c19005a	0.009338463
190	0x3e9eac89	0.3099101
191	0xbc759329	-0.014988699
192	0x3cc83496	0.024439137
193	0x3d7fa341	0.06241155
194	0xbc485314	-0.012226839
195	0x3c06bff3	0.008224475
196	0x3c73fcaf	0.014891787
197	0xbe804bdf	-0.25057885
198	0x3e175d90	0.14781785
199	0x3de5fb06	0.112295195
200	0x3b18f45f	0.0023339016
201	0xbb0bd921	-0.0021339136
202	0x3c36fd62	0.01116881
203	0xbcb9c73c	-0.02267801
204	0x3c82bcb0	0.015959114
205	0x3bfcee0e	0.007718808
206	0x3e2117c2	0.15731719
207	0xbca6f007	-0.020378126
208	0xbe0f44a3	-0.13991027
209	0x3d1c3445	0.038135786
210	0xbd0f2280	-0.03494501
211	0xbd40a885	-0.047035713
212	0xbdbe91df	-0.093051665
213	0x3e229b76	0.15879616
214	0x3c247561	0.010037751
215	0x3c6a4c41	0.014300407
216	0x3cabc2ff	0.020967005
217	0x3a55d131	0.0008156477
218	0xbdea8455	-0.114510216
219	0xbc90c2c0	-0.017670989
220	0x3b7d8483	0.003868372
221	0x3b66a917	0.0035196
222	0xbb0d1447	-0.0021526979
223	0x3e41ae55	0.18914159
224	0x3be314de	0.006929978
225	0x3d0c72af	0.03428906
226	0x3d52cacb	0.05146293
227	0x3ea29914	0.31757414
228	0x3d3e04d3	0.04639132
229	0xbbfce397	-0.0077175605
230	0x3ce3c540	0.027804017
231	0x3ea1353a	0.3148592
232	0xbc89c2a5	-0.016816447
233	0x3cd706cf	0.026248364
234	0xbc0f7cb5	-0.00875776
235	0x3ea2df1e	0.3181085
236	0x3e6b6413	0.22987394
237	0x3c701a8f	0.01465477
238	0x3cc5b182	0.024132494
239	0x3c9b3fe4	0.018951364
240	0xbe109a51	-0.14121367
241	0x3cff0f0a	0.0311351
242	0x3c6c4bb2	0.014422344
243	0xbd4fc456	-0.05072435
244	0x3cd35698	0.025798127
245	0x3e0f640a	0.14003006
246	0xbd51f293	-0.051256727
247	0x3d880716	0.066419765
248	0x3bdecda3	0.006799416
249	0x3ea5cc09	0.3238223
250	0xbcce2a5c	-0.025166683
251	0x3cf61b08	0.030042186
252	0x3c50bdbe	0.012740551
253	0xbbf1ea3d	-0.0073826597
254	0xbc11bfdd	-0.008895841
255	0xbd511803	-0.05104829
