checkpoint/without_perturb/modified_NGD/mlp_epoch176.pt (torch, 67261 bytes, 3 tensors)

fc1.weight f4 [4096, 2]
000000 af c7 bc bf 61 7a 80 3f 3b 13 b3 bc e3 8a a5 bf
       -1.4748439 1.0037347 -0.021859756 -1.293301
000010 53 3b 28 40 da 07 4f bf a1 f2 cf be 3f db 26 bf
       2.6286209 -0.80871356 -0.406148 -0.65178293
000020 34 c4 c0 be 04 7c 3d 3f 8f fa 0a bf c2 47 4f bf
       -0.3764969 0.7401736 -0.5428857 -0.8096887
000030 d0 f0 d7 bf a8 15 82 be 85 7a 9b 3f 8e be bd bf
       -1.6870365 -0.25407147 1.2146765 -1.4823778
000040 14 f5 a0 be 0c 28 39 3f b9 a4 7c 3f 7d d4 1f bf
       -0.3143698 0.7232673 0.98688847 -0.62433606
000050 d5 0b 01 bf 50 3f c4 3f ae 0a 41 3f af 81 6e 3f
       -0.5040868 1.5331821 0.7540692 0.9316663
000060 7f 82 47 3e fd f4 85 3d 68 86 6a bf 23 1d 84 bf
       0.19483374 0.065408684 -0.9161134 -1.0321392
000070 f4 96 7b bf 23 17 d1 bd e7 51 09 be 6c 80 25 be
       -0.9827721 -0.10209491 -0.1341015 -0.1616227
000080 07 7c 8d 3f 0b ea bc 3e ad 88 bb be d5 a8 6a 3f
       1.1053475 0.3689731 -0.36627713 0.9166387
000090 48 17 dc 3e 2c c8 c0 bf 76 0a 13 bf cd ee b5 be
       0.42986512 -1.5061088 -0.5743784 -0.35533753
0000a0 47 08 cd be b5 d2 00 40 f3 91 92 bf 12 6d 5b 3f
       -0.40045378 2.0128605 -1.145079 0.85713303
0000b0 5d 3b 78 bf 00 77 9e bf c1 ee 79 bf af 4c 65 be
       -0.9696558 -1.2380066 -0.97629935 -0.22392534
0000c0 59 dc 00 3f d4 76 2e bf 77 db 6f 3f 41 fc 41 3f
       0.50336224 -0.6815007 0.9369425 0.75775534
0000d0 ff 86 8b bf 30 9a bf 3f f8 13 2c be 53 24 ef bb
       -1.0900573 1.4968929 -0.16804492 -0.0072980314
0000e0 92 1b d1 3f c9 0b c4 3f bd 12 58 be c6 92 34 c0
       1.6336539 1.5316097 -0.21100898 -2.8214583
0000f0 41 cb 05 40 d9 13 e6 3f de d4 c9 be c0 5d e4 be
       2.0905306 1.7974807 -0.39420217 -0.44602776
000100 41 b7 54 3f 79 a2 bf 3d e9 e4 88 3f 3c 12 23 be
       0.83092123 0.09357161 1.0694858 -0.15924925
000110 39 ee 72 bf 58 68 3b 3f 02 01 48 bf 39 a8 3b bf
       -0.9489475 0.7320609 -0.7812654 -0.7330356
000120 c8 d0 8a be be cf 3c 3f 61 36 5c bf 3b 47 07 3f
       -0.27112412 0.7375449 -0.86020476 0.52843064
000130 00 16 85 bf 68 44 84 bf e1 4c 48 bf 31 05 03 3f
       -1.0397339 -1.0333376 -0.7824231 0.51179796
000140 ea 85 e9 be e0 89 5e 3f 6b 9e e4 be cd 16 72 bf
       -0.4560998 0.8692913 -0.44652113 -0.9456604
000150 b1 6c 94 3f 0b d1 10 40 3f 82 57 bf 58 bb 5e bf
       1.159567 2.262759 -0.84183115 -0.87004614
000160 0f 06 a5 3f ca 05 19 bf ca 8c fa be 69 37 8b 3e
       1.2892474 -0.5977446 -0.4893554 0.27190712
000170 db 2a 1b bf 66 ed 6f 3f b7 44 d3 3d 26 a5 69 3f
       -0.6061227 0.93721616 0.10315841 0.9126762
000180 0c 14 a9 3f bf b1 b3 bf 29 87 7e 3d 26 e8 85 bd
       1.3209243 -1.4038619 0.062140618 -0.065384194
000190 3c 16 11 3f b2 39 ad bf bf 0e 7a bd b2 eb 85 3f
       0.5667455 -1.3533232 -0.06104922 1.0462554
0001a0 b6 4b 6c 3e 37 13 04 bf 8e ed 6a be 11 9b f9 3e
       0.23075756 -0.5159182 -0.22942182 0.4875112
0001b0 48 23 12 bf dd 64 69 3c a7 8e a1 3f 21 0e bf bf
       -0.57085085 0.014245239 1.2621659 -1.4926187
0001c0 1a 31 91 3e 63 87 d4 bf 15 71 1a bf 9d 53 5a bd
       0.28357774 -1.6603817 -0.603288 -0.053302396
0001d0 1e 5d 16 bd 24 06 a7 bd d4 31 2f 3f 5b 1f 40 3d
       -0.036709897 -0.08155468 0.68435407 0.046904903
0001e0 9c 20 91 3e f5 2d 8c 3f b8 72 a2 bd 47 a2 9e 3e
       0.2834519 1.0951525 -0.07932037 0.30983183
0001f0 bd 8f fc be 9f 56 da 3c 21 05 1d 3f 76 59 7d bf
       -0.49328414 0.026652632 0.6133595 -0.9896463
000200 46 6a a5 be ab a2 e4 3f 0e e2 ff be 27 93 9c bf
       -0.32307643 1.7862142 -0.49977154 -1.2232407
000210 c6 80 19 bf a6 ee 27 bf f2 76 c1 be f6 c0 5d 3e
       -0.5996212 -0.65598524 -0.3778606 0.2165564
000220 b5 be f3 3f ca 2a 12 bf ea 4d f9 3f 97 cf d0 3f
       1.9042574 -0.5709654 1.9476902 1.6313351
000230 0d 64 79 bd dc 2c 99 3f 4f a6 12 c0 85 f5 a8 3f
       -0.06088643 1.1966815 -2.2914007 1.3199927
000240 19 23 74 3e 2a b0 8a 3d dd ba d5 3e 23 ed 4f bf
       0.23841514 0.06771882 0.41744128 -0.81221217
000250 fd ff 29 3c f8 82 01 c0 a6 f7 39 bf 16 56 92 3e
       0.010375974 -2.0236187 -0.72643507 0.28581303
000260 02 bd e7 3e 26 5b af bf 40 69 32 bf 7c f0 a8 bf
       0.4526139 -1.3699691 -0.6969185 -1.319839
000270 c9 08 af 3e 8f f2 cf be 01 ba 40 bf 79 0f 30 3f
       0.3418639 -0.40614745 -0.7528382 0.6877361
000280 53 4c 9e 3e b1 c9 57 be bb 84 b7 bf d5 b0 5f bf
       0.30917606 -0.21073033 -1.4337381 -0.873792
000290 37 e0 20 3f a4 29 c1 3f fb e3 df 3c 45 08 3b 3f
       0.62842125 1.5090833 0.02733039 0.73059493
0002a0 28 b0 d2 3d 5a a3 96 bf 12 a5 5b 3f c3 ca b2 3f
       0.102875054 -1.1768601 0.8579875 1.3968128
0002b0 e1 c9 25 3f f7 a6 65 3e e4 3d cf 3c e7 71 cb be
       0.6476117 0.22426973 0.025298066 -0.39735338
0002c0 d5 bf 19 40 9b 99 51 3f e7 b9 ea 3e da 19 67 bc
       2.4023335 0.8187501 0.45844957 -0.014105285
0002d0 b2 20 4b 3f 3d 3c 29 bf 71 cd 04 3f bf 5b 49 40
       0.79346764 -0.6610754 0.5187598 3.1462247
0002e0 e0 bf aa 3f 1c 22 fb 3e be d8 b3 bf 99 14 a2 bf
       1.3339806 0.4904946 -1.405052 -1.2662536
0002f0 94 a9 b9 3b ed 5e c2 3d bf 08 ce 3f 3e 64 2e bf
       0.0056659672 0.09490762 1.6096419 -0.6812171
000300 6f cd db bc b8 54 23 3f 88 70 ba 3f 60 52 a9 bd
       -0.026831357 0.63801146 1.4565592 -0.08267665
000310 89 01 e6 3f ff 74 b2 bf db 82 9c 3f cc 94 e7 be
       1.7969218 -1.3941954 1.2227434 -0.4523071
000320 ff ea 8c 3f 1c 3a bc bf 2c f4 28 3f 1a f8 d3 3f
       1.1009215 -1.4705234 0.65997577 1.656009
000330 4b b6 05 bf fa 7b a8 3f 4b 27 9c 3f d9 76 be bf
       -0.5223128 1.3162835 1.2199491 -1.488002
000340 f8 6c a5 3d 97 28 d6 3e c2 10 27 3e 85 93 53 bf
       0.08077425 0.41827843 0.16314986 -0.8264697
000350 24 75 1d be 7a 57 c5 bd 3e 4b 59 bf aa 91 33 bf
       -0.15376717 -0.096358255 -0.84880435 -0.7014414
000360 bd 88 71 be fb af 38 40 2e b0 46 bf da b0 e4 3e
       -0.23587318 2.885741 -0.7761258 0.44666177
000370 d1 c0 cb be 81 20 da be 44 11 75 bf dd d2 db bd
       -0.39795545 -0.42602924 -0.9572947 -0.10733578
000380 d1 50 1f 3d 3a f1 8d bf 52 ea c0 3f 20 7d 62 be
       0.038895432 -1.1089242 1.5071509 -0.22118044
000390 ac 41 6c be 68 65 85 3f dd 29 de bf 87 c7 b6 be
       -0.23071927 1.0421572 -1.7356526 -0.35699102
0003a0 60 3d bb 3e 46 a8 bd 3e b2 25 e9 bc f6 04 71 3e
       0.36570263 0.37042445 -0.028460357 0.23537049
0003b0 e8 e8 1b 3f 0e 40 ab be 27 e0 8d be c3 62 6b be
       0.6090226 -0.33447307 -0.27710077 -0.22986893
0003c0 bc f2 8b bf d8 5d 34 40 94 61 87 3d 73 85 0d be
       -1.0933452 2.8182278 0.066104084 -0.13820438
0003d0 3e ff 16 3e 9a 17 63 bf 5b ef ff be 52 86 b2 bf
       0.14745805 -0.8870789 -0.499873 -1.3947241
0003e0 1f 20 f8 bf f1 a1 dc 3c 71 fb 2f bf f2 67 70 be
       -1.9384803 0.026932688 -0.68743044 -0.23477152
0003f0 91 01 c5 bd e2 01 aa bf 3a c0 1d bf 2e 36 84 bf
       -0.096194394 -1.3281825 -0.6162144 -1.0329034

fc1.bias f4 [4096]
000000 0d cb d2 be 3e 9d e5 bf 28 ae d0 be 26 e4 10 3f
       -0.4117054 -1.7938612 -0.4075787 0.56598127
000010 30 45 1d bf 17 91 13 bf 98 e8 f0 bf 45 9d d9 3e
       -0.61433697 -0.57643265 -1.8820982 0.425028
000020 5e b9 c7 be 6a 13 76 bf d3 b9 85 bf 63 17 d9 bf
       -0.3900861 -0.96123374 -1.0447334 -1.6960262
000030 53 3b 6d 3f 61 ad d8 3e 9c 49 aa bf d5 91 21 bf
       0.92668647 0.42319778 -1.3303714 -0.6311315
000040 4e 3c 93 bf e4 67 26 bf 9d 4c dc bf da d7 25 bf
       -1.1502779 -0.65002275 -1.721088 -0.6478249
000050 69 be 61 3c 24 6b e3 3e c6 e2 c2 bf 87 0f 25 bf
       0.0137783075 0.4441768 -1.5225456 -0.6447682
000060 4d 70 ac bf 7c 3a 77 bf 4b a0 12 3d 0c 58 91 be
       -1.3471771 -0.96573615 0.0357974 -0.28387487
000070 76 17 3f bf e9 74 3e be 45 8b 84 be e4 ed 7e bf
       -0.74645174 -0.18599285 -0.25887504 -0.9958174
000080 f7 05 13 3f a4 57 1b bf e2 bc 5e bf cd 14 64 be
       0.57430977 -0.60680604 -0.8700696 -0.2227356
000090 2a d1 47 be 46 f5 8e 3e 88 a3 96 bf 15 8d 3f bf
       -0.19513384 0.27921504 -1.1768656 -0.7482465
0000a0 ec be 79 bf 58 fa f3 3d f9 97 57 bf cb 6e 4c bf
       -0.9755695 0.11912984 -0.84216267 -0.79856557
0000b0 3c d5 1a bf e2 9b bc be 34 d4 97 bf 74 64 de 3d
       -0.6048162 -0.3683768 -1.1861634 0.10859004
0000c0 81 ea 1d bf 98 fe a1 3e b5 35 2d bf d7 55 4d bf
       -0.6168595 0.31639552 -0.67660075 -0.80209106
0000d0 bf a0 50 bf 84 c9 7b bf 99 d7 57 3e f2 ae 9f bd
       -0.8149528 -0.98354363 0.21078338 -0.0779704
0000e0 ee b2 68 bf b6 63 f0 bf d1 2c 0e 3d aa 9c 7e be
       -0.90898025 -1.8780429 0.03471071 -0.2486445
0000f0 69 ce 83 bf d7 33 98 bf e6 e9 f3 3e a8 64 11 be
       -1.0297366 -1.189082 0.47639388 -0.14198554
000100 4c 38 89 bf 95 28 67 bf 87 7d e2 bf fe 77 08 3e
       -1.0720305 -0.902963 -1.7694558 0.13327023
000110 2e 04 c4 bf cc 10 93 3e 71 8e 66 bf a3 23 31 bf
       -1.5313776 0.28723752 -0.900611 -0.69195
000120 9e 7c ed 3e c7 39 5c bf 34 c3 57 bf 33 18 eb bf
       0.46384138 -0.8602566 -0.8428223 -1.836676
000130 9b 31 4d 3f 25 ac 08 bf aa 72 29 bd d3 c6 44 bf
       0.80153817 -0.5338767 -0.041369118 -0.7686588
000140 26 da 8a bf d1 e6 3b be 69 0b 5e bf 14 c6 a2 3d
       -1.0847824 -0.18349768 -0.8673616 0.07947937
000150 74 cb 08 bf 5a 5d c2 bf ab 20 86 bf 86 68 52 bf
       -0.53435445 -1.5184739 -1.047872 -0.8219074
000160 97 18 27 bf 10 5f a6 bf 87 61 b1 bf 29 ab 9a bf
       -0.65271896 -1.2997761 -1.3857888 -1.2083484
000170 1a f1 11 bf 32 63 54 bf 74 bd e0 bf ee 8d 9b be
       -0.57008517 -0.8296386 -1.7557817 -0.3038172
000180 f0 6a 1a bf 28 46 78 bf 15 96 a4 be f6 cf f8 bf
       -0.60319424 -0.9698205 -0.32145754 -1.9438465
000190 9c 76 e0 bd 0d 84 09 3e cc 61 2f bf f7 58 cd bf
       -0.10960123 0.1342928 -0.685086 -1.6042775
0001a0 56 ac 29 bf 70 d0 59 bf 53 40 8a bf 92 66 b7 be
       -0.6627859 -0.85083675 -1.080088 -0.35820442
0001b0 65 cc 5d 3e d1 e1 6a bf 36 ed ca bf fe 3a 3f be
       0.21660002 -0.9175082 -1.5853641 -0.18674847
0001c0 87 f2 4d bf 40 f6 cf be 16 9a 96 bf 47 ad 89 bf
       -0.8044819 -0.4061756 -1.1765773 -1.0756005
0001d0 8e ab 70 3e 46 cb 01 bf 47 c4 fa bf ad 45 ad 3e
       0.23502943 -0.50700796 -1.9591149 0.3384222
0001e0 d6 2c 61 3e 26 16 8a bf 3c 25 cb bf 07 bb 01 c0
       0.2198976 -1.0788009 -1.5870738 -2.0270402
0001f0 ff 5b 89 bf 90 0b 37 3f 06 59 14 be 05 91 88 be
       -1.07312 0.7150202 -0.14487085 -0.2667314
000200 8e 99 d6 bf d4 6a 09 c0 d9 d2 21 be d5 d5 b1 be
       -1.6765611 -2.1471453 -0.15803088 -0.34733453
000210 7e 95 4d bf e2 eb 1c bf 56 0a 5a bf 22 77 34 3b
       -0.8030623 -0.6129743 -0.8517202 0.002753683
000220 fb 02 0e bf 05 28 ca bf 96 d0 12 be d3 b0 bc bf
       -0.554733 -1.5793463 -0.14337382 -1.4741462
000230 6c 97 66 3e 3f 82 d8 bf 15 9b d2 bf af 52 62 be
       0.225187 -1.6914748 -1.6453577 -0.22101854
000240 83 36 09 bf 25 99 02 3e d1 1a aa bf cd 70 e2 bf
       -0.53598803 0.12753733 -1.3289434 -1.7690674
000250 33 ba df bf 40 d3 9b bf e0 8a 6a bf 8e b6 aa bf
       -1.7478698 -1.2173843 -0.91618156 -1.3336961
000260 d1 46 94 3d 2a 1c 20 bf 93 d2 e5 bf fd b5 86 bf
       0.0724007 -0.62542975 -1.7954887 -1.0524288
000270 a1 2f b0 bf 06 75 d9 bf d6 0b 63 bf bd d5 90 bf
       -1.3764535 -1.6988838 -0.88689935 -1.1315228
000280 33 be 65 bf 97 2e b4 3e 0c 11 6f bf 51 93 84 bf
       -0.89743346 0.35191795 -0.93385386 -1.0357457
000290 86 df d0 3c f3 69 b0 bf 22 57 27 3f c7 3f aa bf
       0.02549721 -1.3782333 0.6536733 -1.3300713
0002a0 a6 af b9 bf ef a1 c0 bd 84 64 91 bf 10 d0 c1 3f
       -1.4506729 -0.094058864 -1.13588 1.5141621
0002b0 70 d5 28 3f c3 6c e7 be 35 3f 67 bf f9 1e 0e bf
       0.6595068 -0.45200166 -0.9033082 -0.5551601
0002c0 d3 f9 04 3f 1f 7b 99 bf a3 1b 75 be 3e 24 93 bf
       0.519437 -1.1990699 -0.23936324 -1.1495435
0002d0 a1 26 b9 be 15 62 8a bd 68 ff de bb 3c 5d b7 bf
       -0.36162284 -0.06756989 -0.006805349 -1.4325328
0002e0 e2 a9 57 bf 76 81 41 bf 01 da f0 bf 07 71 3d 3e
       -0.84243596 -0.75588167 -1.881653 0.18500148
0002f0 9d 84 8f be 9b 4a 43 bf 0b ac d8 bd f0 3b 33 3e
       -0.28030863 -0.76285714 -0.105796896 0.17503333
000300 06 e4 ee bf 65 b4 77 bf bd e3 6b be a7 5c b6 3e
       -1.8663337 -0.96759635 -0.23036094 0.35617563
000310 3f 3b 22 bf a2 32 24 be ea db dc be 70 4b 7d 3e
       -0.6337165 -0.1603494 -0.4313653 0.24735808
000320 0e 8b d0 bf 05 5c b8 bf 54 02 99 bf 31 d9 84 bf
       -1.6292436 -1.4403082 -1.1953835 -1.0378782
000330 ed fc 09 c0 ca 41 e4 3e eb 95 ae 3d 07 41 84 be
       -2.1560624 0.44581443 0.08524688 -0.25830862
000340 76 97 88 bf 86 af 00 bf 56 db 8f bd 9c 0a b8 bd
       -1.0671222 -0.5026783 -0.07024257 -0.089863986
000350 6f 24 2d 3f 21 0c 29 bf 6c 4f 59 bf 09 f7 73 bf
       0.6763372 -0.6603413 -0.84886813 -0.9529882
000360 e8 cc 0b bf 23 33 ad bf fd 49 33 3f 1c ac 19 bf
       -0.5460954 -1.3531231 0.7003477 -0.60028243
000370 fc 76 a0 bf b9 15 12 c0 36 60 b8 bf 89 3a a7 3e
       -1.2536311 -2.2825758 -1.4404361 0.32661846
000380 56 8d ae 3e 4d 45 e2 bc da 08 86 be 27 fc 72 3b
       0.34092206 -0.027620936 -0.26178628 0.0037076564
000390 79 63 fc bf 2c 26 79 bf 0e ba 93 be 7a 64 42 be
       -1.9717857 -0.9732387 -0.28852886 -0.18983641
0003a0 6b 60 7b 3e 29 56 35 bf b0 d6 5c bf 13 9a 02 3e
       0.245485 -0.70834595 -0.8626509 0.12754087
0003b0 1e bd 4c 3e 8a 59 fa bf ea 99 83 bf e7 a2 ae bf
       0.19994017 -1.9558575 -1.0281346 -1.3643464
0003c0 32 5b 43 bf 38 c3 05 bf 3c 2d a0 bf f8 e6 0c 3e
       -0.7631103 -0.52251005 -1.2513804 0.13759983
0003d0 c8 23 98 bf e3 d4 c5 bc 51 e3 d3 bf 05 0f 38 be
       -1.188592 -0.024149364 -1.6553746 -0.1797448
0003e0 37 79 ab bf 99 dd 33 3c 1c ff be bf 0c d9 32 bf
       -1.3396367 0.010978126 -1.4921603 -0.6986244
0003f0 34 c5 2b bf 12 ca 24 3e 88 17 8c bf 17 35 31 be
       -0.67097783 0.16092709 -1.0944681 -0.17305408

fc2.weight f4 [1, 4096]
000000 9b 16 1f be bc b9 a4 3c 54 3e af 3f c4 76 c3 bc
       -0.15535967 0.020108096 1.3690896 -0.023860343
000010 8b 7b eb bc 48 68 9b bc 98 74 ac bc 5d 13 80 be
       -0.028745433 -0.018970624 -0.02105169 -0.25014773
000020 4b ad d7 3b d7 ac 25 3e 61 b4 15 bc dc 1c 27 bd
       0.0065819374 0.16179214 -0.009137244 -0.040799007
000030 ac d3 cb 3d f8 09 c3 bc e6 1e 67 bc 1b ca 9e 3c
       0.099524826 -0.023808464 -0.014106488 0.01938348
000040 4b 59 47 bd 45 b5 24 bb b4 b3 87 3a 41 92 8d 3c
       -0.04866914 -0.002513246 0.0010353238 0.017281653
000050 d5 f1 22 3e 97 12 00 be 0f 05 36 bb 9c 62 07 bc
       0.15912564 -0.12507091 -0.0027774011 -0.008263256
000060 df 97 42 3c 88 50 fb bb 73 7d c8 3c 14 5a 6c bb
       0.011877029 -0.007669512 0.024473881 -0.0036064433
000070 79 8d e6 be 83 f2 e4 39 3c e3 c1 3b e2 26 51 3c
       -0.4502981 0.00043668234 0.005916981 0.012765618
000080 29 dd 01 be ed fb 27 3e a8 15 8b 3b 9c 9c 10 bd
       -0.12682022 0.16404696 0.004244525 -0.035305604
000090 0f e5 23 3d 2c cf 0e 3d 9f b5 24 bc b3 06 cb 3c
       0.04001337 0.034865543 -0.0100530675 0.024783468
0000a0 54 91 11 bc 18 2a 47 bc c0 36 fe 3d 01 91 a9 bc
       -0.008884747 -0.012156032 0.124127865 -0.020699026
0000b0 8c 82 93 3d 80 57 49 bc 90 06 82 3b 21 4c 84 3e
       0.07202634 -0.012288928 0.0039680675 0.25839332
0000c0 20 31 6d 3c 3d 01 ef bc 34 98 c1 bc c9 18 c9 bc
       0.014477044 -0.029175395 -0.023632146 -0.024547951
0000d0 a3 9a 13 3a 82 9e 48 bc c5 b7 82 bc 72 37 5f 3b
       0.00056306476 -0.012244822 -0.015956769 0.0034060148
0000e0 11 4d c2 3b 06 a6 8e bc 7a 6a d4 3c 5a 38 7b 3c
       0.005929597 -0.01741315 0.025929678 0.0153332595
0000f0 cd f5 c9 bb 55 58 05 bc 6d 11 9f 3d 50 58 37 3d
       -0.006163335 -0.008138736 0.077669956 0.044761956
000100 cd 66 3e 3c fc 88 d7 3c 87 13 89 bb 70 95 da 3c
       0.011621189 0.026310436 -0.004183236 0.026682585
000110 38 c9 9b bd c4 3a 6f bf 93 88 25 bc 88 07 e2 3c
       -0.07606739 -0.93449044 -0.010103363 0.027591482
000120 98 1d 03 3e 9f a3 0f 3c c2 69 1e ba d5 74 c8 bb
       0.12804258 0.008767038 -0.0006042981 -0.006117443
000130 16 dc 7e be 3f 46 37 3c fa 2f 87 bb ca 64 46 3c
       -0.24888644 0.011186182 -0.0041255923 0.012108991
000140 57 64 b1 bc 04 b1 eb bb 69 ad 9e be 6d 18 8e 3d
       -0.021654291 -0.0071927328 -0.30991676 0.069382526
000150 ba 65 34 bc 33 fa a1 3d dd 71 e7 bc ea 8d 9f 3d
       -0.011010582 0.0790905 -0.028252536 0.0779074
000160 d8 eb 97 3e 15 2a 96 3c 57 22 84 bb ce cf 46 be
       0.29672122 0.018330613 -0.004032414 -0.19415209
000170 9c e1 01 bd c5 e3 eb bc 3b 8b 22 3c 02 c9 57 be
       -0.0317093 -0.028795132 0.00992089 -0.21072772
000180 c8 e0 9b 3c 55 97 86 3e 53 22 0d bf ae e1 8e 3b
       0.019028082 0.26287332 -0.551305 0.004360399
000190 76 1a 1a be aa 3b 37 be 53 b6 e4 3d 7a 5f 1f bd
       -0.15049157 -0.17893854 0.11167588 -0.038909413
0001a0 5e 97 8b bc 64 be c0 ba 76 ff 1d bd 08 2a 1f 3d
       -0.017039951 -0.0014705178 -0.038573705 0.038858443
0001b0 93 ee be 3e cb 8f e9 3b 80 8b b4 3c 51 39 2b 3a
       0.37291393 0.007127737 0.022039175 0.0006531673
0001c0 12 83 a0 bc 5b f8 67 3e b7 54 da 3b a4 f6 dc bb
       -0.01959375 0.22653334 0.006662931 -0.006743269
0001d0 de 07 03 3d 62 f9 00 bc a3 4a 14 3c 8c 2b 19 bc
       0.031989925 -0.0078719575 0.009050998 -0.009348761
0001e0 bd 1e 74 3d 2f 62 01 b9 b4 39 6e 3c b8 f0 83 3c
       0.059599627 -0.00012338975 0.014540125 0.016105995
0001f0 d3 7f 95 3c 49 79 e7 bd 2d 2a ed bb 01 7d 02 bb
       0.018249428 -0.1130243 -0.0072376938 -0.0019910934
000200 28 1f cd bb ad f6 80 bb 21 0f 40 bf 49 0f 36 3c
       -0.0062598176 -0.003935656 -0.75023085 0.011112043
000210 40 80 ad 3a 92 a4 14 bd 4a b2 c7 bd f5 c2 6d 3e
       0.0013237074 -0.03628976 -0.09750803 0.23218901
000220 bc 64 5d be ae 7a 03 bc 98 93 db 3c 3d 65 54 3b
       -0.21620458 -0.008024855 0.026803777 0.0032408976
000230 6f 29 58 3e 4e 82 82 bc 59 e3 28 bc 02 48 06 3d
       0.21109556 -0.015931275 -0.01030811 0.032783516
000240 e3 73 46 bb e8 07 bb be 22 5d 9c 3b 28 82 03 3c
       -0.0030281476 -0.3652947 0.0047718445 0.008026637
000250 24 61 90 bc 67 5c 91 bc fc ad 95 3c e8 1f 8b bc
       -0.017624445 -0.017744256 0.018271439 -0.016982988
000260 c8 72 da bc e9 2d 32 bd 1d 18 b2 3b f9 8d f4 bc
       -0.02666606 -0.043500815 0.0054350034 -0.029852854
000270 22 d7 a8 bc 50 d5 cb 3c 12 22 e7 3b d4 3b e2 3a
       -0.020610396 0.024881989 0.007053622 0.0017260262
000280 cd 7b 7a 3c 1b 15 3a 3c 12 b6 2d 3d 7e 98 d2 bc
       0.0152883055 0.011357571 0.042409964 -0.02570748
000290 aa 06 d8 3d 48 14 4e 3c ec ff c7 3c 9c 25 58 be
       0.10548146 0.012578078 0.024414025 -0.21108097
0002a0 ab 6d 14 3d 25 bb 8d bc d6 43 13 be 01 38 0d bf
       0.0362374 -0.017301152 -0.14381346 -0.5516358
0002b0 2b e9 ac 3c 6c 4a 2d be 3a 20 6c bc c3 f1 16 bd
       0.021107277 -0.16922921 -0.01441198 -0.036851656
0002c0 55 29 a9 be c4 21 a7 3c 36 7f 17 3b 62 e3 31 bc
       -0.33039346 0.020401843 0.0023116595 -0.010857435
0002d0 92 51 2c bc 27 69 88 be 7c b2 a4 3c 93 ce 5e bc
       -0.010517495 -0.26642725 0.02010464 -0.013599056
0002e0 8e 9b 4e 3c 00 05 d7 3c 82 55 80 3b b8 03 23 3c
       0.012610329 0.026247501 0.0039164433 0.009949617
0002f0 68 4b 49 3c 5a 00 19 3c 7a 99 9f 3e 29 93 75 bc
       0.012286045 0.009338463 0.3117178 -0.014988699
000300 96 34 c8 3c 6a e0 7b 3d 8a aa 49 bc 63 fb d8 3b
       0.024439137 0.061493315 -0.012308726 0.0066217645
000310 af fc 73 3c dd 5c 80 be 0e 98 16 3e 8b 0b de 3d
       0.014891787 -0.2507085 0.14706442 0.108420454
000320 5f f4 18 3b 21 d9 0b bb 44 0a 28 3c 3c c7 b9 bc
       0.0023339016 -0.0021339136 0.010256354 -0.02267801
000330 b0 bc 82 3c 0e ee fc 3b fa c9 20 3e 07 f0 a6 bc
       0.015959114 0.007718808 0.15702048 -0.020378126
000340 d8 18 0f be 45 34 1c 3d 80 22 0f bd 39 4c 44 bd
       -0.13974321 0.038135786 -0.03494501 -0.047924254
000350 51 d8 bd bd 09 98 22 3e 61 75 24 3c 41 4c 6a 3c
       -0.09269775 0.1587831 0.010037751 0.014300407
000360 ff c2 ab 3c 31 d1 55 3a 3c 23 eb bd c0 c2 90 bc
       0.020967005 0.0008156477 -0.1148133 -0.017670989
000370 83 84 7d 3b 17 a9 66 3b 47 14 0d bb 97 1b 40 3e
       0.003868372 0.0035196 -0.0021526979 0.18760525
000380 de 14 e3 3b af 72 0c 3d 25 75 51 3d fd 0f a3 3e
       0.006929978 0.03428906 0.05113711 0.31848136
000390 d3 04 3e 3d 97 e3 fc bb 40 c5 e3 3c e6 fd a1 3e
       0.04639132 -0.0077175605 0.027804017 0.31639022
0003a0 a5 c2 89 bc cf 06 d7 3c 20 90 0e bc 50 0b a3 3e
       -0.016816447 0.026248364 -0.008701354 0.31844568
0003b0 c6 9f 6d 3e 8f 1a 70 3c 82 b1 c5 3c e4 3f 9b 3c
       0.2320548 0.01465477 0.024132494 0.018951364
0003c0 b1 4b 11 be 0a 0f ff 3c a5 02 60 3c e7 dd 56 bd
       -0.1418903 0.0311351 0.0136725055 -0.052457716
0003d0 98 56 d3 3c 89 2a 11 3e 93 f2 51 bd 16 07 88 3d
       0.025798127 0.14176382 -0.051256727 0.066419765
0003e0 a3 cd de 3b cc bd a5 3e 5c 2a ce bc 08 1b f6 3c
       0.006799416 0.32371366 -0.025166683 0.030042186
0003f0 ee 8f 4f 3c 43 1e 95 bb dd bf 11 bc a8 f2 52 bd
       0.012668593 -0.0045507266 -0.008895841 -0.051500946
