checkpoint/without_perturb/modified_NGD/mlp_epoch97.pt (torch, 67255 bytes, 3 tensors)

fc1.weight f4 [4096, 2]
00000000: aa80 aebf d7a9 953f 895b 873d d86f b2bf
00000010: de63 2740 8cc8 50bf daf4 bebe 6920 21bf
00000020: 81c3 c2be d305 3a3f 5b1f 05bf 8dc2 50bf
00000030: 90ac d8bf df6a 72be d4c1 963f d81f bdbf
00000040: 3380 a8be d197 3a3f 4853 803f 07d8 13bf
00000050: 59f8 fbbe a05e c43f ea96 3c3f da12 703f
00000060: 7387 433e 4d1a 563d b868 6dbf af56 86bf
00000070: 77c5 7dbf b0b8 f5bd f1c3 03be 0e60 2bbe
00000080: 2576 8d3f 899f bc3e 6887 bbbe c0a8 6a3f
00000090: cfd9 dc3e 3acd c0bf 880f 13bf da53 b6be
000000a0: db47 cfbe 7fd1 0040 3f98 92bf d66f 5b3f
000000b0: 3d1d 78bf d875 9ebf 61ee 79bf 814c 65be
000000c0: 49dc 003f 1b5a 2ebf 56d5 6f3f ad0c 423f
000000d0: 7f8e 8bbf 8899 bf3f 0108 2cbe 5b28 f3bb
000000e0: 2818 d13f a206 c43f 8d1c 58be 739a 34c0
000000f0: 0bcd 0540 2f14 e63f 53d9 c9be 8f85 e4be
00000100: 54a6 543f 6f99 bf3d acf2 883f 1af9 22be
00000110: cceb 72bf 5968 3b3f 4501 48bf 33a3 3bbf
00000120: acdc 8abe bdd0 3c3f ce37 5cbf a446 073f
00000130: c818 85bf c640 84bf b050 48bf 8d05 033f
00000140: 8f6a e9be 7f89 5e3f c29b e4be 1416 72bf
00000150: 0e66 943f dad1 1040 1883 57bf 77ba 5ebf
00000160: edd1 a43f 9516 19bf 9d89 fabe 3d34 8b3e
00000170: 2526 1bbf caeb 6f3f 656a d33d 04b6 693f
00000180: 3a2b a93f 9c9d b3bf ba3e 793d a1b5 85bd
00000190: c005 113f b239 adbf 9c08 77bd 7606 863f
000001a0: 314a 6c3e af0e 04bf dfee 6abe 3d99 f93e
000001b0: 4823 12bf 3357 693c 5d6e a13f f9c3 bfbf
000001c0: f931 913e 5887 d4bf d11f 1abf b058 5abd
000001d0: 405f 16bd 7b14 a7bd 2068 2f3f 61f1 3f3d
000001e0: 5afd 903e 781e 8c3f 6d82 a2bd c0a6 9e3e
000001f0: 082a fcbe e712 d93c 9e4f 1d3f d165 7dbf
00000200: 3e67 a5be bba3 e43f a8e2 ffbe 3393 9cbf
00000210: fb82 19bf 27ee 27bf c548 c1be 0c2e 5e3e
00000220: dfae f33f 683e 12bf 6231 f93f 67d1 d03f
00000230: b7bc 73bd 706f 993f e5a6 12c0 85f5 a83f
00000240: baab 733e 330d 8a3d 54bb d53e 26ed 4fbf
00000250: c611 2a3c 0e83 01c0 f6f7 39bf 1556 923e
00000260: c5c5 e83e 2d5b afbf a569 32bf cb0a a9bf
00000270: 05a3 ae3e 41bf cfbe 24bb 40bf 750f 303f
00000280: 5144 9e3e b1c9 57be bb84 b7bf defb 5fbf
00000290: efbc 203f d524 c13f a891 c73c fd26 3b3f
000002a0: aea9 d23d 5aa3 96bf bb2f 5b3f 37c6 b23f
000002b0: edc9 253f efa6 653e e43d cf3c dd71 cbbe
000002c0: aec0 1940 6d96 513f e9b9 ea3e 7d19 67bc
000002d0: b220 4b3f 3d3c 29bf 82cc 043f 535a 4940
000002e0: 14b0 aa3f b614 fb3e bed8 b3bf 9914 a2bf
000002f0: 41a9 b93b c65e c23d d0ff cd3f 616d 2ebf
00000300: 6fcd dbbc b854 233f 4deb b93f c475 a7bd
00000310: d1cc e53f 55a7 b2bf db82 9c3f cc94 e7be
00000320: 0cdc 8c3f 4b35 bcbf 0104 293f 0bf2 d33f
00000330: 12b6 05bf f17f a83f 4b27 9c3f d976 bebf
00000340: f86c a53d 9728 d63e c210 273e 8593 53bf
00000350: 2475 1dbe 7a57 c5bd 3e4b 59bf aa91 33bf
00000360: 74b9 71be 8db1 3840 2eb0 46bf dab0 e43e
00000370: d1c0 cbbe 8120 dabe 4411 75bf ddd2 dbbd
00000380: d150 1f3d 3af1 8dbf ecdf c03f 6d8c 62be
00000390: ac41 6cbe 6865 853f dd29 debf 87c7 b6be
000003a0: 0180 bb3e c795 bd3e b225 e9bc f604 713e
000003b0: e8e8 1b3f 0e40 abbe f3a5 8dbe 325f 6bbe
000003c0: 6748 8cbf 6950 3440 9461 873d 7385 0dbe
000003d0: 3eff 163e 9a17 63bf 5bef ffbe 5286 b2bf
000003e0: 1f20 f8bf f1a1 dc3c ad23 30bf f55c 70be
000003f0: 9101 c5bd e201 aabf 3ac0 1dbf 2e36 84bf
-1.3633015 1.1692456 0.06609256 -1.3940382 2.6154704 -0.8155601 -0.37296182 -0.6294008
-0.38039783 0.7266514 -0.5200097 -0.8154686 -1.6927662 -0.2367358 1.1777902 -1.4775343
-0.32910308 0.72887903 1.0025415 -0.57751507 -0.49212912 1.5341377 0.73667777 0.93778765
0.19094639 0.052271176 -0.92737913 -1.0495204 -0.9912943 -0.11998117 -0.12867714 -0.1673586
1.105168 0.36840466 -0.36626744 0.9166374 0.43134925 -1.506263 -0.57445574 -0.3561085
-0.4048451 2.0127866 -1.1452712 0.85717523 -0.96919614 -1.2379713 -0.9762936 -0.22392465
0.5033613 -0.6810624 0.936849 0.7580059 -1.0902861 1.4968729 -0.16799928 -0.007420582
1.6335497 1.5314524 -0.21104641 -2.8219268 2.0906398 1.797491 -0.39423618 -0.44633147
0.83066297 0.09355437 1.0699058 -0.15915337 -0.9489105 0.73206097 -0.7812694 -0.732959
-0.27121484 0.7375601 -0.8602265 0.52842164 -1.0398188 -1.0332267 -0.7824812 0.51180345
-0.4558911 0.8692855 -0.44650084 -0.9456494 1.1593645 2.2628083 -0.8418441 -0.8700327
1.2876564 -0.5980008 -0.48933116 0.27188292 -0.6060508 0.9371916 0.103230275 0.9129336
1.3216317 -1.4032474 0.060850836 -0.065287836 0.566494 -1.3533232 -0.060310945 1.0470722
0.23075177 -0.51584905 -0.22942685 0.48749724 -0.57085085 0.014241981 1.2611805 -1.4981681
0.2835844 -1.6603804 -0.602048 -0.053307235 -0.03671193 -0.08158203 0.6851826 0.046861056
0.28318292 1.0946798 -0.07935033 0.30986595 -0.49250817 0.026498271 0.6144961 -0.98983485
-0.3230533 1.7862467 -0.49977612 -1.2232422 -0.59965485 -0.65597767 -0.3775083 0.21697253
1.9037741 -0.57126474 1.9468195 1.6313905 -0.059506144 1.1987133 -2.2914364 1.3199927
0.23795977 0.06740799 0.41744483 -0.81221235 0.010380214 -2.023624 -0.72643983 0.285813
0.45463386 -1.36997 -0.6969245 -1.3206419 0.3410875 -0.40575603 -0.75285554 0.68773586
0.30911496 -0.21073033 -1.4337381 -0.87493694 0.6278829 1.5089365 0.024361446 0.73106366
0.1028627 -1.1768601 0.85619706 1.396674 0.6476124 0.22426961 0.025298066 -0.39735308
2.4023852 0.81870157 0.45844963 -0.014105198 0.79346764 -0.6610754 0.51874554 3.146138
1.3334985 0.4903924 -1.405052 -1.2662536 0.0056659286 0.09490733 1.6093693 -0.6813565
-0.026831357 0.63801146 1.4524933 -0.08176759 1.795313 -1.3957316 1.2227434 -0.4523071
1.1004653 -1.4703764 0.66021734 1.6558241 -0.5223094 1.3164045 1.2199491 -1.488002
0.08077425 0.41827843 0.16314986 -0.8264697 -0.15376717 -0.096358255 -0.84880435 -0.7014414
-0.23605901 2.8858368 -0.7761258 0.44666177 -0.39795545 -0.42602924 -0.9572947 -0.10733578
0.038895432 -1.1089242 1.5068336 -0.2212388 -0.23071927 1.0421572 -1.7356526 -0.35699102
0.36621097 0.37028334 -0.028460357 0.23537049 0.6090226 -0.33447307 -0.27665672 -0.22985533
-1.0959595 2.8174078 0.066104084 -0.13820438 0.14745805 -0.8870789 -0.499873 -1.3947241
-1.9384803 0.026932688 -0.68804437 -0.2347296 -0.096194394 -1.3281825 -0.6162144 -1.0329034

fc1.bias f4 [4096]
00000000: 695b d5be 3e9d e5bf 32de d0be 1ce5 103f
00000010: 3045 1dbf 1791 13bf 98e8 f0bf ac84 dc3e
00000020: 22b9 c7be c896 76bf d3b9 85bf 6317 d9bf
00000030: fa50 6d3f 61ad d83e 9c49 aabf d591 21bf
00000040: fb49 93bf e467 26bf 9d4c dcbf dad7 25bf
00000050: f4aa 363c 573b e33e c6e2 c2bf 870f 25bf
00000060: 4d70 acbf b940 77bf 4214 133d 0c58 91be
00000070: b459 3fbf e974 3ebe 889f 84be e4ed 7ebf
00000080: cd1b 133f 9e19 1bbf e2bc 5ebf cd14 64be
00000090: 76c8 47be 30f2 8e3e 88a3 96bf 158d 3fbf
000000a0: ecbe 79bf 58fa f33d 2a95 57bf cb6e 4cbf
000000b0: d0d4 1abf e29b bcbe 34d4 97bf 0fc5 de3d
000000c0: 7361 1ebf be07 a23e b535 2dbf 88de 4cbf
000000d0: bfa0 50bf 84c9 7bbf 99d7 573e 077d 9fbd
000000e0: eeb2 68bf b663 f0bf d12c 0e3d d0e3 7ebe
000000f0: c3d4 83bf d733 98bf 3461 f43e 09d1 0ebe
00000100: 1137 89bf 9528 67bf 877d e2bf be53 093e
00000110: 1019 c4bf c1a6 923e c911 66bf a323 31bf
00000120: 1c9e ed3e c739 5cbf 34c3 57bf 3318 ebbf
00000130: b28d 4c3f 25ac 08bf 6691 28bd d3c6 44bf
00000140: 26da 8abf d1e6 3bbe 5043 5ebf babc 9f3d
00000150: 74cb 08bf 1e22 c2bf ab20 86bf 8668 52bf
00000160: 9b67 27bf 105f a6bf 8761 b1bf 93b0 9abf
00000170: 0af7 11bf 3263 54bf 74bd e0bf b79c 9bbe
00000180: f06a 1abf 507d 77bf 4cba a5be f6cf f8bf
00000190: 07c9 e1bd c5d1 073e dd57 2fbf f758 cdbf
000001a0: 56ac 29bf 70d0 59bf 5340 8abf 9266 b7be
000001b0: a750 5d3e d1e1 6abf 36ed cabf fe3a 3fbe
000001c0: 87f2 4dbf fa14 d1be 169a 96bf 47ad 89bf
000001d0: 1ac7 703e 46cb 01bf 47c4 fabf 3181 ad3e
000001e0: 06ad 5e3e 2616 8abf 3c25 cbbf 07bb 01c0
000001f0: ff5b 89bf 2ccf 363f 0659 14be 0591 88be
00000200: 8e99 d6bf d46a 09c0 55a8 21be d5d5 b1be
00000210: 7e95 4dbf e2eb 1cbf fa0e 5abf 4a76 e53a
00000220: b518 0ebf 0528 cabf 2c46 12be d3b0 bcbf
00000230: 1cce 673e 3f82 d8bf 159b d2bf af52 62be
00000240: 8336 09bf 57af 023e d11a aabf cd70 e2bf
00000250: 33ba dfbf 40d3 9bbf e08a 6abf 8eb6 aabf
00000260: 4e6d 943d 2a1c 20bf 93d2 e5bf fdb5 86bf
00000270: a12f b0bf 0675 d9bf d60b 63bf bdd5 90bf
00000280: 33be 65bf 3a67 b43e 0c11 6fbf 5193 84bf
00000290: 9df8 ce3c f369 b0bf fe5d 273f 1640 aabf
000002a0: a6af b9bf efa1 c0bd 8171 91bf 17d8 c13f
000002b0: 70d5 283f 57e6 e7be 353f 67bf f91e 0ebf
000002c0: 9d03 053f 1f7b 99bf a31b 75be 3e24 93bf
000002d0: a126 b9be d76a 8abd 847e e3bb 3c5d b7bf
000002e0: e2a9 57bf 13b2 41bf 01da f0bf 77be 3d3e
000002f0: 496c 8fbe 9b4a 43bf c595 d7bd f03b 333e
00000300: 06e4 eebf 7bb5 77bf 73c0 6bbe edbc b63e
00000310: 3f3b 22bf f90f 24be e18a dbbe 0380 7d3e
00000320: 0e8b d0bf 055c b8bf 4324 99bf 31d9 84bf
00000330: edfc 09c0 ca41 e43e 0355 ae3d 0741 84be
00000340: 3494 88bf 86af 00bf 56db 8fbd 0ca1 b8bd
00000350: c72c 2c3f 352c 29bf 6c4f 59bf 09f7 73bf
00000360: e8cc 0bbf 2333 adbf 774f 333f 1cac 19bf
00000370: fc76 a0bf b915 12c0 3660 b8bf 52be a53e
00000380: 568d ae3e 4d45 e2bc da11 87be 3693 833b
00000390: 7963 fcbf 2c26 79bf 0eba 93be 2f67 42be
000003a0: 6b60 7b3e 2956 35bf 02d7 5cbf 995d 023e
000003b0: 1850 4c3e 8a59 fabf ea99 83bf e7a2 aebf
000003c0: 6b63 43bf 38c3 05bf 8958 a0bf b8b3 0b3e
000003d0: c823 98bf 3ead c5bc 51e3 d3bf 050f 38be
000003e0: 3779 abbf 2ef0 333c 1cff bebf 0cd9 32bf
000003f0: 03bd 2bbf 824d 243e 8817 8cbf dc77 2fbe
-0.41671303 -1.7938612 -0.40794522 0.56599593 -0.61433697 -0.57643265 -1.8820982 0.4306997
-0.39008433 -0.96323824 -1.0447334 -1.6960262 0.92701685 0.42319778 -1.3303714 -0.6311315
-1.1506952 -0.65002275 -1.721088 -0.6478249 0.011149157 0.4438121 -1.5225456 -0.6447682
-1.3471771 -0.96583134 0.03590799 -0.28387487 -0.7474625 -0.18599285 -0.25902963 -0.9958174
0.57464296 -0.60585964 -0.8700696 -0.2227356 -0.19510064 0.2791915 -1.1768656 -0.7482465
-0.9755695 0.11912984 -0.8421198 -0.79856557 -0.60480976 -0.3683768 -1.1861634 0.1087743
-0.61867446 0.31646532 -0.67660075 -0.80027056 -0.8149528 -0.98354363 0.21078338 -0.07787519
-0.90898025 -1.8780429 0.03471071 -0.24891591 -1.0299305 -1.189082 0.4773041 -0.13946928
-1.071993 -0.902963 -1.7694558 0.13410851 -1.5320148 0.28642848 -0.8987089 -0.69195
0.4640969 -0.8602566 -0.8428223 -1.836676 0.7990371 -0.5338767 -0.041154288 -0.7686588
-1.0847824 -0.18349768 -0.8682146 0.077996686 -0.53435445 -1.5166662 -1.047872 -0.8219074
-0.65392464 -1.2997761 -1.3857888 -1.2085136 -0.57017577 -0.8296386 -1.7557817 -0.30393
-0.60319424 -0.96675587 -0.32368696 -1.9438465 -0.11024671 0.13263614 -0.68493444 -1.6042775
-0.6627859 -0.85083675 -1.080088 -0.35820442 0.21612798 -0.9175082 -1.5853641 -0.18674847
-0.8044819 -0.40836316 -1.1765773 -1.0756005 0.23513451 -0.50700796 -1.9591149 0.33887628
0.2174569 -1.0788009 -1.5870738 -2.0270402 -1.07312 0.7140987 -0.14487085 -0.2667314
-1.6765611 -2.1471453 -0.1578687 -0.34733453 -0.8030623 -0.6129743 -0.851791 0.0017506566
-0.5550645 -1.5793463 -0.14284581 -1.4741462 0.22637218 -1.6914748 -1.6453577 -0.22101854
-0.53598803 0.127622 -1.3289434 -1.7690674 -1.7478698 -1.2173843 -0.91618156 -1.3336961
0.07247411 -0.62542975 -1.7954887 -1.0524288 -1.3764535 -1.6988838 -0.88689935 -1.1315228
-0.89743346 0.35235006 -0.93385386 -1.0357457 0.025265032 -1.3782333 0.65377796 -1.3300807
-1.4506729 -0.094058864 -1.1362764 1.514407 0.6595068 -0.45292923 -0.9033082 -0.5551601
0.5195864 -1.1990699 -0.23936324 -1.1495435 -0.36162284 -0.06758659 -0.006942572 -1.4325328
-0.84243596 -0.75662345 -1.881653 0.18529688 -0.28012303 -0.76285714 -0.10526613 0.17503333
-1.8663337 -0.9676129 -0.23022632 0.35691014 -0.6337165 -0.16021718 -0.42879394 0.24755864
-1.6292436 -1.4403082 -1.1964191 -1.0378782 -2.1560624 0.44581443 0.085123084 -0.25830862
-1.0670228 -0.5026783 -0.07024257 -0.09015092 0.67255825 -0.6608308 -0.84886813 -0.9529882
-0.5460954 -1.3531231 0.7004313 -0.60028243 -1.2536311 -2.2825758 -1.4404361 0.32371765
0.34092206 -0.027620936 -0.26380807 0.0040153516 -1.9717857 -0.9732387 -0.28852886 -0.18984674
0.245485 -0.70834595 -0.86265576 0.12731017 0.19952428 -1.9558575 -1.0281346 -1.3643464
-0.76323575 -0.52251005 -1.2527019 0.13642776 -1.188592 -0.02413046 -1.6553746 -0.1797448
-1.3396367 0.010982556 -1.4921603 -0.6986244 -0.67085284 0.16045192 -1.0944681 -0.17135566

fc2.weight f4 [1, 4096]
00000000: c926 1abe bcb9 a43c 0dee ae3f c3e3 e2bc
00000010: 8b7b ebbc 4868 9bbc 9874 acbc 76df 90be
00000020: 2c7f c23b 64a6 2b3e 61b4 15bc dc1c 27bd
00000030: 43c4 3f3d f809 c3bc e61e 67bc 1bca 9e3c
00000040: a64d 2bbd 45b5 24bb b4b3 873a 4192 8d3c
00000050: d06e 533e 8fed 08be 0f05 36bb 9c62 07bc
00000060: df97 423c fb74 6cbc 790a ca3b 145a 6cbb
00000070: b59a e4be 83f2 e439 fec1 8f3d e226 513c
00000080: 9927 07be 8bf5 0e3e a815 8b3b 9c9c 10bd
00000090: 268a 1a3d 650b 2b3d 9fb5 24bc b306 cb3c
000000a0: 5491 11bc 182a 47bc ede5 1f3e 0191 a9bc
000000b0: 9f1e 653d 8057 49bc 9006 823b 3c44 8b3e
000000c0: 7cf8 263d 6185 0ebd 3498 c1bc 634c e0bc
000000d0: a39a 133a 829e 48bc c5b7 82bc 680a 743c
000000e0: 114d c23b 06a6 8ebc 7a6a d43c 1cc1 3b3c
000000f0: ea78 86bb 5558 05bc bd37 903d 523d 8f3d
00000100: ddb3 023c fc88 d73c 8713 89bb 1a04 b93c
00000110: a04e 6dbd cb28 59bf a53d 42bc 8807 e23c
00000120: 8e81 fe3d 9fa3 0f3c c269 1eba d574 c8bb
00000130: 239a 4abe 3f46 373c 574e 18bb ca64 463c
00000140: 5764 b1bc 04b1 ebbb a82c 9bbe 9eea 973d
00000150: ba65 34bc 2762 ad3d dd71 e7bc ea8d 9f3d
00000160: 5da4 7c3e 152a 963c 5722 84bb 2836 66be
00000170: b0f0 6f3d c5e3 ebbc 3b8b 223c a63c 2fbe
00000180: c8e0 9b3c 52d0 843e e5df f5be aee1 8e3b
00000190: ebf5 04be fb93 c5bd a43f d73d 7a5f 1fbd
000001a0: 5e97 8bbc 64be c0ba 76ff 1dbd 082a 1f3d
000001b0: f598 c23e cb8f e93b 808b b43c 5139 2b3a
000001c0: 1283 a0bc e111 5d3e b754 da3b a4f6 dcbb
000001d0: 48cb f63c 62f9 00bc a34a 143c dde9 75bc
000001e0: 27f2 683d 2f62 01b9 b439 6e3c b8f0 833c
000001f0: d37f 953c d635 f5bd 2d2a edbb 017d 02bb
00000200: 281f cdbb adf6 80bb 962d 2cbf 490f 363c
00000210: 4080 ad3a 92a4 14bd 25c2 c1bd 3717 483e
00000220: 0d23 87be ae7a 03bc db03 39bc 3d65 543b
00000230: 73db 473e 4e82 82bc 59e3 28bc 0248 063d
00000240: e373 46bb 896e a4be 225d 9c3b 2882 033c
00000250: 2461 90bc 675c 91bc fcad 953c e81f 8bbc
00000260: f234 afbc e92d 32bd 1d18 b23b f98d f4bc
00000270: 22d7 a8bc 50d5 cb3c 1222 e73b d43b e23a
00000280: cd7b 7a3c 876f 0dbc 12b6 2d3d 7e98 d2bc
00000290: f24f c23d 4814 4e3c 2eff d83c b764 62be
000002a0: ab6d 143d 25bb 8dbc ef1b 19be efe8 28bf
000002b0: 2be9 ac3c 023f 2cbe 3a20 6cbc c3f1 16bd
000002c0: b5b4 9bbe c421 a73c 367f 173b 62e3 31bc
000002d0: 9251 2cbc b6db afbe d7a4 44bd 93ce 5ebc
000002e0: 8e9b 4e3c bf76 1d3d 8255 803b 63d5 2fbd
000002f0: df40 963c 5a00 193c adf4 7b3e 2993 75bc
00000300: 9634 c83c 3afe bb3d 4c3a 0bbc ac70 843d
00000310: affc 733c 7fb7 79be a131 333e c285 7c3e
00000320: 5ff4 183b 21d9 0bbb 724c 3a3d 3cc7 b9bc
00000330: b0bc 823c 0eee fc3b 9286 2b3e 07f0 a6bc
00000340: 3d08 19be 4534 1c3d 8022 0fbd d29b 87bc
00000350: 4e92 ddbd 1bec 223e 6175 243c 414c 6a3c
00000360: ffc2 ab3c 31d1 553a 667e d5bd c0c2 90bc
00000370: 8384 7d3b 17a9 663b 4714 0dbb 06c3 793e
00000380: de14 e33b af72 0c3d 0263 813d 5c65 933e
00000390: d304 3e3d 97e3 fcbb 40c5 e33c 9815 863e
000003a0: a5c2 89bc cf06 d73c 372d 35bc 4122 9c3e
000003b0: 01fd 1c3e 8f1a 703c 82b1 c53c e43f 9b3c
000003c0: d358 f2bd 0a0f ff3c cbc8 323d b014 0f3c
000003d0: 9856 d33c 8567 a23d 93f2 51bd 1607 883d
000003e0: a3cd de3b 06b5 a73e 5c2a cebc 081b f63c
000003f0: b675 843c e12c d9bd ddbf 11bc 766f 0ebd
-0.15053858 0.020108096 1.3666397 -0.027696496 -0.028745433 -0.018970624 -0.02105169 -0.28295487
0.00593557 0.16762692 -0.009137244 -0.040799007 0.04681803 -0.023808464 -0.014106488 0.01938348
-0.0418221 -0.002513246 0.0010353238 0.017281653 0.2064774 -0.13371871 -0.0027774011 -0.008263256
0.011877029 -0.014432187 0.006165799 -0.0036064433 -0.44649282 0.00043668234 0.07019423 0.012765618
-0.13198699 0.13960855 0.004244525 -0.035305604 0.037729405 0.041758914 -0.0100530675 0.024783468
-0.008884747 -0.012156032 0.15615053 -0.020699026 0.055937406 -0.012288928 0.0039680675 0.27200496
0.040764317 -0.03479517 -0.023632146 -0.027380174 0.00056306476 -0.012244822 -0.015956769 0.014895059
0.005929597 -0.01741315 0.025929678 0.011459615 -0.0041037695 -0.008138736 0.07041881 0.06994118
0.007977453 0.026310436 -0.004183236 0.022584964 -0.05793631 -0.8482787 -0.0118555175 0.027591482
0.12427054 0.008767038 -0.0006042981 -0.006117443 -0.19785361 0.011186182 -0.0023240054 0.012108991
-0.021654291 -0.0071927328 -0.30307508 0.074177966 -0.011010582 0.08465987 -0.028252536 0.0779074
0.24672075 0.018330613 -0.004032414 -0.22481596 0.058579147 -0.028795132 0.00992089 -0.1711298
0.019028082 0.25940186 -0.4802238 0.004360399 -0.12984435 -0.09647366 0.10510185 -0.038909413
-0.017039951 -0.0014705178 -0.038573705 0.038858443 0.38007322 0.007127737 0.022039175 0.0006531673
-0.01959375 0.21588852 0.006662931 -0.006743269 0.030126229 -0.0078719575 0.009050998 -0.015009371
0.05687156 -0.00012338975 0.014540125 0.016105995 0.018249428 -0.11973159 -0.0072376938 -0.0019910934
-0.0062598176 -0.003935656 -0.6725706 0.011112043 0.0013237074 -0.03628976 -0.09460858 0.19540106
-0.2639393 -0.008024855 -0.011292423 0.0032408976 0.19517307 -0.015931275 -0.01030811 0.032783516
-0.0030281476 -0.32115582 0.0047718445 0.008026637 -0.017624445 -0.017744256 0.018271439 -0.016982988
-0.021387551 -0.043500815 0.0054350034 -0.029852854 -0.020610396 0.024881989 0.007053622 0.0017260262
0.0152883055 -0.008632547 0.042409964 -0.02570748 0.094879046 0.012578078 0.026488867 -0.22108732
0.0362374 -0.017301152 -0.14952062 -0.6598043 0.021107277 -0.1682091 -0.01441198 -0.036851656
-0.30411306 0.020401843 0.0023116595 -0.010857435 -0.010517495 -0.34347314 -0.048008766 -0.013599056
0.012610329 0.038443323 0.0039164433 -0.04292811 0.01834148 0.009338463 0.24605055 -0.014988699
0.024439137 0.09179349 -0.008497786 0.06466803 0.014891787 -0.24386404 0.174994 0.246604
0.0023339016 -0.0021339136 0.04548306 -0.02267801 0.015959114 0.007718808 0.16750553 -0.020378126
-0.14944549 0.038135786 -0.03494501 -0.016553793 -0.10818921 0.1591038 0.010037751 0.014300407
0.020967005 0.0008156477 -0.10424499 -0.017670989 0.003868372 0.0035196 -0.0021526979 0.24390802
0.006929978 0.03428906 0.06317712 0.2878827 0.04639132 -0.0077175605 0.027804017 0.2618835
-0.016816447 0.026248364 -0.011058143 0.30494884 0.15330888 0.01465477 0.024132494 0.018951364
-0.11833348 0.0311351 0.043648522 0.00873296 0.025798127 0.07929901 -0.051256727 0.066419765
0.006799416 0.32755297 -0.025166683 0.030042186 0.01616941 -0.10604263 -0.008895841 -0.034774266
