checkpoint/without_perturb/SGD/mlp_epoch285.pt (torch, 67261 bytes, 3 tensors)

fc1.weight f4 [4096, 2]
000000 92 dd c7 bf 23 99 79 3f bf 04 dc be 99 af 88 bf
       -1.5614493 0.97499293 -0.4297237 -1.0678588
000010 6f 99 84 3d 62 58 08 3e 45 7f d0 3e c7 5b 4e bf
       0.06474578 0.13314965 0.407221 -0.8060879
000020 9f 71 3b bf 93 ad 31 3e 9b 16 30 40 84 42 9f bf
       -0.7322025 0.1735137 2.7513797 -1.2442174
000030 32 13 4f bf cc 49 c0 3f a2 2a 1a bf 4b 06 57 be
       -0.80888665 1.5022521 -0.602213 -0.20998494
000040 8f 61 93 3e eb 22 09 c0 c9 6b 85 bf 23 20 cf bc
       0.2878537 -2.1427562 -1.0423518 -0.025283879
000050 4d 37 b4 bf 78 ef 04 bf 45 02 00 bf 90 d9 cd be
       -1.4079376 -0.519279 -0.50003463 -0.4020505
000060 bd 0f 55 3e 8c 9b 97 bf 24 87 21 bd e6 3b 60 bf
       0.20806785 -1.1844344 -0.03943552 -0.875914
000070 26 99 cb bf 1e f0 9c 3f 13 38 2f bf 4b 14 43 bf
       -1.5906112 1.2260778 -0.6844494 -0.7620284
000080 21 8e 46 be 18 5b 14 be 76 bc 85 3f 75 f7 b1 bf
       -0.19390155 -0.14487875 1.0448139 -1.3903643
000090 59 fa 36 3f 04 80 19 3f 36 fd 5e 3e ac be 05 be
       0.7147575 0.5996096 0.2177628 -0.13061017
0000a0 cf 32 90 3f fd eb 01 c0 f0 69 e6 3e f1 bb 59 3f
       1.1265506 -2.0300286 0.450027 0.850524
0000b0 5f b7 55 bd 0a dc 31 3f 96 97 9b bf c7 e4 08 3f
       -0.05217683 0.6947638 -1.2155635 0.53474087
0000c0 aa 2f be bd c7 5a 26 3e 82 38 72 3d b7 68 43 3f
       -0.09286435 0.16245566 0.05913592 0.7633166
0000d0 b8 d3 83 3f 0e aa 86 3f 43 62 c3 3d ca 96 c0 3d
       1.0298986 1.0520647 0.09540226 0.09403761
0000e0 66 e1 c2 3e c8 f6 2c 3f a1 31 29 3e 27 4b 2d be
       0.3806259 0.6756406 0.16522838 -0.169232
0000f0 3e cd 98 3f e7 2a ca 3e 08 9c 4a 3f 7f 6f 0f bf
       1.1937635 0.39485857 0.79144335 -0.56029505
000100 1d e5 62 3e 20 bf 72 bf 62 da 51 bf 5b 91 f9 be
       0.22157712 -0.94822884 -0.8197385 -0.4874371
000110 44 54 a1 bf fc 0d 1a 3f 0c db bc bf d3 9a ea bd
       -1.2603841 0.6017759 -1.4754348 -0.114553116
000120 f5 95 9f 3e 79 3f 32 bf 73 19 85 3e d8 3b 37 bf
       0.31169096 -0.696281 0.2599598 -0.7157569
000130 0f a6 e7 3d 26 ad 91 bf 03 1b a0 3f 15 6f 30 bf
       0.1131097 -1.1380966 1.2508243 -0.689195
000140 09 9d f9 3d f9 7f 11 3d 8c 4c f2 be 1a 3f ce 3f
       0.12188155 0.035522435 -0.47324026 1.6113007
000150 08 6e d8 bf 1c ce 8b 3f f3 0e a2 3d 99 a0 e8 be
       -1.6908579 1.0922275 0.079130076 -0.45435026
000160 a4 44 19 bf ce b4 1b 3f 97 e9 bd be 8c 7e 15 3f
       -0.5987036 0.6082276 -0.37092277 0.5839622
000170 a1 29 c7 3f 81 1c 9f 3f a6 dc b1 3f 16 bd 9b bf
       1.5559579 1.2430574 1.3895462 -1.216708
000180 3e 3a 4a bf 2d e2 da bf 09 a1 08 40 f0 10 8b bf
       -0.7899512 -1.7100273 2.1348288 -1.0864544
000190 cc c4 4c bf 47 b5 ca 3d 9e e4 5d bf a3 ad f3 3f
       -0.7998779 0.09897857 -0.8667697 1.9037365
0001a0 5a 25 7e 3f e1 c3 ca bf 7d 2d 1e bf 65 cf 0e 3f
       0.99275744 -1.5841027 -0.6178816 0.5578521
0001b0 4f 8d 9f 3f a3 70 82 be 39 cb 5b be 58 bf db 3e
       1.2464999 -0.2547656 -0.21464242 0.4291942
0001c0 74 a7 4f bd f5 0d 22 40 53 eb 4b 3d 4e d0 4f 3f
       -0.050696805 2.5321019 0.04978497 0.8117722
0001d0 07 48 93 3e 73 0d bd 3c d2 4f ea 3e 0b c6 5e 3f
       0.2876589 0.023077702 0.45764023 0.8702094
0001e0 4e 37 38 3d 1b 98 b1 bf d4 c2 8b 3e af 1d ab 3f
       0.044974618 -1.3874544 0.2729708 1.3368434
0001f0 c4 da 8c be 93 07 f9 3e 27 53 4e bf 3b f5 8c 3f
       -0.27510655 0.4863859 -0.8059563 1.1012338
000200 69 10 eb 3f e6 ff c6 be b0 4e a6 bf 4e 7c 48 bf
       1.8364383 -0.3886711 -1.2992764 -0.78314674
000210 03 be 40 bf 0f 81 a8 bf 80 3e 00 3f ba ad ea bf
       -0.75289935 -1.3164386 0.5009537 -1.8334267
000220 f9 94 26 3f f4 96 fe bd 8a 23 48 3c 73 2f 98 3e
       0.65071064 -0.12431136 0.012215504 0.297237
000230 0f 49 99 be 12 a6 10 40 3b 59 ca bf eb 84 df 3e
       -0.29938552 2.2601361 -1.5808481 0.43656096
000240 2f 59 52 bf 19 14 bf bf d7 3f 87 3f 90 55 f2 3c
       -0.82167333 -1.4928008 1.0566357 0.029581815
000250 e7 a1 6a bf d8 04 0a c0 e8 73 33 3f 0e 19 ea bc
       -0.91653293 -2.1565456 0.70098734 -0.0285764
000260 f4 66 43 3f ae f9 0d bf 34 66 cc bc 27 14 38 bf
       0.7632897 -0.55459106 -0.024951078 -0.7190575
000270 d5 c5 91 bf 91 18 d9 be ad f3 97 bf f7 07 55 be
       -1.1388499 -0.42401555 -1.1871239 -0.2080382
000280 18 76 c0 be a0 81 48 3e 8d 26 d6 3e 2f 53 a1 bf
       -0.37590098 0.19580698 0.41826287 -1.2603511
000290 36 c9 03 3e 4b 6d c2 3f e7 bd ac be c4 c4 90 3f
       0.12869725 1.5189604 -0.33738634 1.1310048
0002a0 ba 76 e6 3f 2d ad 5c 3e 71 87 d3 3f 25 d9 66 3f
       1.8004982 0.21550436 1.6525708 0.90175086
0002b0 52 3a 49 be ee 88 de bf d6 1e 8c 3e b8 ce 19 c0
       -0.19651154 -1.7385538 0.27367276 -2.403242
0002c0 ff 31 08 be 17 c1 5b bf 42 70 72 be 25 63 f5 3f
       -0.13300322 -0.85841507 -0.23675635 1.9170882
0002d0 a8 32 57 3e 16 fd 1b 40 4d de 49 bf 18 bc 8d 3f
       0.21015418 2.4373221 -0.7885483 1.1073027
0002e0 08 58 53 3f 69 02 db be ee 2b 64 bf 6e 42 0a be
       0.825562 -0.42775276 -0.8912953 -0.13501903
0002f0 26 1b c4 be e8 91 13 3f e8 6d e3 3f 40 20 61 bf
       -0.38301963 0.5764451 1.7767916 -0.87939835
000300 fc b5 8b be c5 05 71 bf d2 91 86 3f 42 3f eb 3e
       -0.2728728 -0.9414943 1.0513251 0.459467
000310 3a 25 bf be 5f b4 b4 bf 8c a4 f0 bf 4b 03 d6 bd
       -0.3733309 -1.4117545 -1.8800216 -0.10449847
000320 29 13 00 40 35 cb 2c bf d9 e1 d6 3f 4b 7b af bf
       2.0011694 -0.6749757 1.6787673 -1.3709501
000330 94 40 cd bd 40 e8 23 3f 68 d1 90 bf 5f 48 96 3f
       -0.10022083 0.6402626 -1.1313906 1.1740836
000340 10 2c 8f 3f b5 79 18 40 43 74 9a 3f 0e 7b 3c 40
       1.1185322 2.3824284 1.206673 2.9450107
000350 81 8c 84 bf 97 ca e0 be 61 51 9b bf f5 76 ed bf
       -1.0355378 -0.43904564 -1.213421 -1.8551928
000360 e8 34 b5 be c8 e1 20 3f f8 04 b3 3f f1 d1 40 3f
       -0.35391927 0.62844515 1.3985891 0.75320345
000370 d0 f6 65 bf 8c 6c 56 be 33 66 48 bd 2f 2b 52 3f
       -0.8982973 -0.20939845 -0.04892559 0.8209714
000380 f3 b3 fe bd ae 46 d5 bf ad 49 fa be 69 4b e1 bc
       -0.12436666 -1.6662195 -0.48884335 -0.027501779
000390 25 e7 2f 3f 7d cf 98 bf cf 78 ae 3e 52 a4 a4 3f
       0.68712074 -1.193832 0.34076545 1.2862647
0003a0 20 3c af 3f fd 2d b4 3e f8 a4 0c 3f 6d ff 0a 3f
       1.3690224 0.35191336 0.5493922 0.54296
0003b0 4d 98 fe bd 82 47 ff 3e fa ec 3f 3e 0a c8 82 3f
       -0.12431393 0.49859244 0.18742743 1.0217297
0003c0 67 8f 55 3f b0 bf 63 bf 80 c3 ef be 1f 46 c0 3d
       0.8342194 -0.88964367 -0.46828842 0.093883745
0003d0 11 a4 ad 3f cb 61 ab be 89 f5 b6 3f c7 02 28 3e
       1.3565694 -0.33473048 1.4293681 0.1640731
0003e0 b9 42 28 bf 30 1e 0f bf 30 86 e9 bf cd 3e cb 3f
       -0.6572681 -0.5590544 -1.8244076 1.587854
0003f0 be c5 79 be 7a 79 13 c0 d2 8b 48 be c5 27 61 bd
       -0.24391839 -2.3042893 -0.19584587 -0.054969568

fc1.bias f4 [4096]
000000 c8 ad b1 be 2a 9f fd bf 1d d1 95 bf 98 0d 37 bf
       -0.34702897 -1.9814198 -1.1704441 -0.7150512
000010 b1 61 2d bf da 8b b6 3e 15 91 f7 3d 3b ab 2a be
       -0.6772719 0.35653573 0.12088219 -0.16666882
000020 0d e2 6c 3c c1 62 03 3f e6 72 06 3f 8f f4 22 be
       0.014458192 0.5132256 0.5251907 -0.15913604
000030 c5 d8 aa be 4c ff b0 bf f2 a9 b9 bf 31 3a 8f bf
       -0.33368507 -1.382791 -1.4504988 -1.1189634
000040 3d a7 b3 3e 9e 4d 44 bf 88 75 8b bf c0 38 1f 3d
       0.3508853 -0.76680934 -1.0895243 0.03887248
000050 8c 20 ec be c0 2b a6 bf 69 e1 21 bf 80 09 58 bf
       -0.4611858 -1.2982101 -0.63234574 -0.84389496
000060 9d c7 f6 bf 18 c2 81 bf 25 8d 2f bf c3 85 92 3e
       -1.9279667 -1.0137358 -0.68574744 0.28617677
000070 53 36 b5 bf 9d 6f a0 bf 5d 06 52 bf 31 b8 ae bf
       -1.4157203 -1.2534062 -0.8204096 -1.3649961
000080 52 43 ba bf 3e 64 8b be 1f 61 47 bf 5d 42 89 be
       -1.4551795 -0.27224916 -0.7788257 -0.26808444
000090 f7 8c 11 3f 87 b5 fb be 44 35 02 bf 8b 7a e9 bf
       0.5685572 -0.49161932 -0.50862527 -1.8240522
0000a0 36 60 63 bf 0d ae 17 3e 6b 44 b6 be 74 74 81 bf
       -0.8881868 0.14812489 -0.35599074 -1.0113664
0000b0 67 44 22 bf d6 b0 5c bf bd 06 55 bf 7d e8 8d bf
       -0.63385624 -0.8620733 -0.83213407 -1.1086575
0000c0 2f 3a 85 bf 3f 65 29 bf 4b 35 fb be 6c 30 99 bf
       -1.0408381 -0.66170114 -0.49064097 -1.1967902
0000d0 93 ec 23 bf 2b a5 99 3e 13 48 44 3c 01 84 8f bf
       -0.6403286 0.30008826 0.011980074 -1.1212159
0000e0 96 b9 40 3f f6 0d 3b bf 9a c7 ac bf 3d 67 c6 be
       0.7528318 -0.7306818 -1.3498414 -0.3875064
0000f0 b8 e6 08 be fd 22 27 c0 b5 28 0d c0 a0 ad 0c bf
       -0.13369262 -2.6115105 -2.2056096 -0.5495243
000100 38 9a a9 be 90 17 49 bf 03 5c df bf 9f 7a 65 bf
       -0.33125472 -0.7855158 -1.7449955 -0.8964023
000110 49 db 1d bf 0e 30 dc 3e 1d be 79 bf 71 76 a9 be
       -0.6166273 0.43005413 -0.97555715 -0.33098176
000120 a3 af 25 bf 62 c9 8c 3e c4 fb ba bf e5 a7 26 bf
       -0.64721125 0.27497393 -1.4608083 -0.65099937
000130 d3 9e 79 3d b1 a8 73 bf 4b 6c d3 be f5 34 d2 bf
       0.060942482 -0.9517928 -0.41293558 -1.6422411
000140 0b b1 c9 bf 4d 72 10 bf 8a 18 e5 be 54 07 86 be
       -1.5757154 -0.5642441 -0.44745284 -0.26177466
000150 49 17 c9 bf 14 91 0a bf b9 e5 da bf 57 1f 96 bf
       -1.5710231 -0.5412762 -1.7101356 -1.1728314
000160 b3 26 9c bf b6 f2 3d be 92 db ad bf 1e 4b e6 bf
       -1.219931 -0.18549618 -1.3582633 -1.7991674
000170 95 04 41 be b8 e8 88 bc 55 72 a6 bf ee d2 73 bf
       -0.18849404 -0.016712531 -1.3003641 -0.9524373
000180 2d 91 f7 bf 10 e1 0f bd 49 ca 09 c0 6a 71 f3 bf
       -1.9341179 -0.035126746 -2.1529715 -1.9018986
000190 8c 0e 10 be 28 f9 b9 be d7 51 97 bf b7 3f b4 3e
       -0.14068049 -0.36322904 -1.182185 0.3520486
0001a0 e3 a3 52 be 71 a1 90 bf 95 1c e3 3e ca e3 0a c0
       -0.2057033 -1.1299268 0.44357744 -2.1701531
0001b0 b4 ee 82 3d f8 b0 28 3f e1 48 e4 be 6e fc 6b bf
       0.06393185 0.6589503 -0.44586852 -0.9218205
0001c0 03 7a a6 be 65 c7 50 3e 23 82 dd bf 9c 36 58 be
       -0.32514963 0.20388563 -1.730534 -0.21114582
0001d0 90 80 88 3e 28 6f 95 bf 59 86 03 bf c6 8e 94 be
       0.26660585 -1.1674547 -0.51376873 -0.29015177
0001e0 86 ff c0 be fc 25 ce bf 5f fa 95 bf f2 06 af bf
       -0.3769495 -1.6105342 -1.1717032 -1.3673995
0001f0 b4 3c 86 bf e1 ac b2 bf 01 a9 80 3e 1b bb ab bf
       -1.0487275 -1.3959008 0.2512894 -1.3416475
000200 69 04 5b bf cc 56 ef be 9f a8 ec 3e 16 7e 9c be
       -0.85553604 -0.46745908 0.46222398 -0.30564946
000210 00 27 6d bf 1b fb 86 bf 59 3d 80 bf 6b 3a f3 be
       -0.92637634 -1.0545381 -1.0018722 -0.47505507
000220 18 03 a8 bf 85 96 9e bf 37 58 85 bf c3 f4 b5 be
       -1.3125944 -1.2389685 -1.0417546 -0.355383
000230 34 c6 89 bf 6d ba 77 bf d5 e8 57 bf d8 7b 65 be
       -1.0763612 -0.9676884 -0.8433965 -0.22410524
000240 f3 62 9c be 68 b2 f0 bf f8 2e e3 bf a9 c6 16 3f
       -0.30544242 -1.8804445 -1.7748709 0.5889688
000250 c6 ad 8d bf 54 cf 5c 3e a6 24 1f bf e9 dd ef bd
       -1.1068656 0.21563464 -0.62165296 -0.11712248
000260 46 7b 8a bf b6 02 56 bf 55 76 3e 3f 42 7a 88 bd
       -1.081887 -0.83597887 0.7439931 -0.06663944
000270 64 ab e4 bf 18 64 c1 bf 0a 69 0c bf 3d 29 43 bf
       -1.7864804 -1.5108671 -0.54847777 -0.762348
000280 99 46 f0 be 99 cf 18 c0 91 1b 6c bf 55 3d a7 bf
       -0.46928862 -2.3876708 -0.92229563 -1.3065592
000290 4b 68 b7 be 14 b7 1a 3e c3 42 35 bf 91 e4 02 bf
       -0.35821757 0.15108901 -0.70804995 -0.51130015
0002a0 b8 0d 48 3d 1d 65 a3 bf 31 a3 82 bf 7a 97 4c bf
       0.04884121 -1.2765232 -1.0206052 -0.79918635
0002b0 bc e4 f2 bf 3e b0 39 bf f5 24 f8 be 16 09 18 c0
       -1.8976054 -0.7253455 -0.48465696 -2.3755546
0002c0 09 d2 8c be ac 48 f9 bb 4a 46 88 bf ec 3d 85 bf
       -0.27503994 -0.00760754 -1.064645 -1.0409522
0002d0 e1 6c c1 bf 0c c0 88 bf ee a8 91 bf d2 d2 f9 bf
       -1.5111352 -1.0683608 -1.1379678 -1.9517462
0002e0 9c d9 06 c0 e6 07 39 bf 46 b6 3c 3f 2c 6f b1 bd
       -2.1070318 -0.7227768 0.7371563 -0.086637825
0002f0 0e 03 f0 bf 2e 5a ec bf 74 11 84 3f 7f 5a 9f 3d
       -1.8750932 -1.8465021 1.0317826 0.07780933
000300 3d 77 45 3e a9 5d 70 bf 26 78 01 bf 2f f1 ba bf
       0.19283767 -0.93892914 -0.50573957 -1.4604853
000310 b3 88 94 bf 46 a3 04 3f 6b e1 62 be 39 b0 04 bc
       -1.1604217 0.51811635 -0.22156303 -0.008098655
000320 ec 0e 1c bf 57 35 ef bf b6 ec a2 bf ce 2a 80 be
       -0.6096027 -1.8688153 -1.2728488 -0.25032657
000330 db 8e 7d bd 20 2f a8 bf c7 b2 f5 be 3a 42 07 c0
       -0.061903816 -1.3139381 -0.4798796 -2.1134171
000340 ca e3 ce bf 63 73 00 c0 6d 43 77 bf c8 7f 6c bf
       -1.6163266 -2.0070426 -0.9658726 -0.9238248
000350 25 b3 8b bf 11 cf 11 bf f8 11 cb be 2b 44 1c bf
       -1.0914046 -0.56956583 -0.39662147 -0.61041516
000360 ee 3f 03 c0 8e 51 44 bf 84 a4 60 bf 31 bd 1a c0
       -2.050777 -0.7668694 -0.8775103 -2.4177973
000370 68 cd 8d bf 60 7d cc bf 0f 87 41 bf 5a 0e 4e bf
       -1.107831 -1.5975761 -0.7559671 -0.8049065
000380 3b 88 2c bf 3f 38 e0 bf 71 10 a9 bf e4 ae 8b bf
       -0.6739537 -1.7517165 -1.3208143 -1.0912747
000390 99 b0 e6 be c8 f1 36 bf c4 79 30 bf 56 75 54 3e
       -0.45056608 -0.7146268 -0.689358 0.20747885
0003a0 43 a8 71 bf f0 bb 31 bf e2 52 9d be 39 52 58 bf
       -0.9439737 -0.69427395 -0.30727297 -0.8450046
0003b0 ca 4c 8b bf 45 58 2a bf b9 2f 9d bf 9d 84 1e bf
       -1.0882809 -0.6654094 -1.2280189 -0.619211
0003c0 bc 1d 5c bf b9 08 e3 bf d9 58 85 bf 38 3b 4c bf
       -0.8598287 -1.7737037 -1.0417739 -0.7977786
0003d0 1b 30 f1 bf c7 9b 03 bf 44 ab 9b bf 2b a5 91 bf
       -1.8842806 -0.5140957 -1.2161641 -1.137853
0003e0 e7 7d ee be 46 b4 93 bf 0e 27 6d bf 26 a3 d1 be
       -0.4658043 -1.153939 -0.9263772 -0.40944785
0003f0 36 8a 01 c0 ff e8 8a bf 9c cf 4c bf d7 5b b7 bf
       -2.0240607 -1.0852355 -0.80004287 -1.4324902

fc2.weight f4 [1, 4096]
000000 a6 73 1b 3b cf 2e d5 ba e8 2e 48 3c a6 fe 3e bd
       0.0023720055 -0.001626456 0.012218215 -0.04662957
000010 18 a3 e1 bc 1f ad 17 bc b8 70 dd 3c 4f b2 a2 bc
       -0.02754359 -0.009257584 0.027031288 -0.019860415
000020 90 67 85 bc 80 09 c6 bc 69 1a 05 bd 4a ca fb 3b
       -0.016284734 -0.024174452 -0.03249589 0.007684027
000030 db a8 e3 bb 0f 01 b5 3c ca 32 2b bd 2e 24 7b 3b
       -0.0069476194 0.022095231 -0.041796483 0.0038321125
000040 13 74 92 3c b6 88 9d b9 c5 00 78 bc 4a 6c b5 3b
       0.017877614 -0.0003004723 -0.015136902 0.0055365907
000050 cf ae cb bb 5f 34 8c bc b1 3b 00 bc c0 1c 30 3c
       -0.006215907 -0.017114816 -0.007826732 0.010749042
000060 9b 0d 85 3c 8e e1 c5 3b e2 a0 8d bb 47 15 a0 3c
       0.01624184 0.006038851 -0.0043221572 0.019541396
000070 a4 80 bf 3c 6d d6 12 3d 4e fa 3f bc af f6 fd bc
       0.02337677 0.035849024 -0.011717392 -0.031001417
000080 81 f2 f0 3c b1 bb 25 3c 39 e8 25 3c c5 5a c9 bc
       0.02941251 0.01011555 0.010126167 -0.024579415
000090 a0 3e e0 3c 1d 09 8c b9 b2 95 73 bc 73 e9 6b bc
       0.027373612 -0.0002670967 -0.014867233 -0.01439892
0000a0 de 4c 91 bc 51 1e e2 bb 7d f9 a1 bc 68 ba 8b bc
       -0.017736848 -0.0069005867 -0.019772286 -0.017056659
0000b0 dc 01 53 3c 44 7f d9 bc 36 3b 9d 3c 48 f1 89 3c
       0.012878861 -0.026549943 0.019193273 0.016838685
0000c0 a9 a4 02 3b a7 3b 38 bc 49 9f 23 bc 43 2e 2e bc
       0.001993457 -0.011244691 -0.009986707 -0.010631147
0000d0 e5 b5 a1 39 42 01 88 bc c7 07 6e bc fa 61 7e 3b
       0.00030843835 -0.016602162 -0.014528221 0.0038815723
0000e0 ae 92 88 bc 7e 64 0a bd 24 b1 4d 3d 4d 4b 89 3c
       -0.016671505 -0.033787243 0.050217763 0.016759539
0000f0 b6 01 b2 3c 1d 39 be 3c 0f 3c 55 3c 22 83 8e bc
       0.021729331 0.023220593 0.013014807 -0.017396513
000100 ef c9 18 bc 54 3d 7f bc f7 a0 10 38 65 90 89 3c
       -0.0093254885 -0.015578587 3.4482186e-05 0.016792485
000110 d3 dc 5a 3c 46 80 d9 ba f8 a2 0c bc 36 61 7c bc
       0.013358313 -0.0016594015 -0.008583777 -0.015404036
000120 be 6e 68 3c 23 20 b6 3c f9 d0 86 3a 8b e9 f0 bc
       0.014186559 0.02223212 0.0010285667 -0.029408237
000130 e8 67 30 bc 3b 7a 80 3c 5f f4 4a 3c 0d 3c 7f bc
       -0.010766961 0.015683284 0.012387364 -0.015578282
000140 f4 76 01 bd 63 a4 e4 bc ca b0 ee bc 5e cd 0a 3c
       -0.031607583 -0.027910417 -0.029137034 0.008471815
000150 e8 a3 70 3c fe c9 d4 3b 25 90 72 bc 0b 86 3d bb
       0.014687516 0.006493806 -0.014804875 -0.0028919007
000160 95 7a 48 bc d8 4b 1d 3c b0 ff a4 bb 11 62 00 bc
       -0.012236257 0.009600602 -0.005035363 -0.007835881
000170 53 23 2e ba 6e 48 18 3c 8f 09 a2 bb f4 f2 55 3c
       -0.0006642837 0.009294612 -0.004944987 0.013058413
000180 c0 2e a0 3c 1a 47 e7 3c d2 74 18 bd c4 51 e8 3b
       0.019553542 0.028232146 -0.037220784 0.0070898253
000190 9c 52 2d bc 01 0f 6b 3b 84 38 28 bc 79 56 09 3c
       -0.010578778 0.0035867097 -0.010267381 0.008382433
0001a0 33 22 0d 3d 9f 59 dc 3b eb 3a f5 bc b1 5a c6 bc
       0.034456443 0.006724551 -0.02993532 -0.024213167
0001b0 38 ab a5 bc da 9e 5e bc 4e 0e 50 bc 93 19 f8 3c
       -0.020223245 -0.013587678 -0.012698723 0.030285632
0001c0 9b d1 b3 3c 6b 76 6e 3c 75 5b 14 3d a4 71 39 bc
       0.021950534 0.0145546 0.036220033 -0.011318598
0001d0 29 a3 55 3b 20 04 38 3a 0a 29 8e 3c 3c d3 b1 3c
       0.0032598472 0.00070196576 0.017353553 0.02170717
0001e0 96 2f 13 3d 12 e8 d6 bc 09 d6 ed 3c c9 d3 9f 3c
       0.035934053 -0.026233707 0.029032724 0.019510167
0001f0 df ed 3d bc 25 fe 50 3b fc 87 38 3d cb 06 03 3d
       -0.011592357 0.0031889763 0.04505156 0.0319889
000200 ee 82 4d 3a 4e ea 36 3c 77 81 5b bc ba a1 07 3d
       0.00078396394 0.011164261 -0.013397566 0.03311322
000210 fd 33 e1 3c 79 95 f8 bc f5 4f c5 3a 69 b7 02 3d
       0.02749061 -0.030344712 0.0015053736 0.031913195
000220 6e c6 56 3c 23 f8 14 3d 80 31 d3 3c 8a 85 e1 3c
       0.013108833 0.036369454 0.02578044 0.027529497
000230 2e 83 00 bd a1 f8 bd 3b ae c5 f4 3c f7 8d 34 3d
       -0.031375103 0.005797461 0.029879417 0.0440807
000240 03 ad 15 bd ee a9 47 3c 24 c0 fe 3c 2e 4d ae 3c
       -0.03654195 0.0121865105 0.03109748 0.021277037
000250 bd 0a fe 3c 09 42 01 3d da c5 e3 3c ac 3a 0f 3d
       0.03101098 0.031557117 0.027804304 0.034968063
000260 10 38 42 bd 26 39 6e bc 20 f2 f4 bc 8f 10 41 bc
       -0.047416747 -0.014539992 -0.02990061 -0.011783733
000270 4b a6 93 bc 61 63 d6 bc a1 16 e3 bc 58 71 6d bb
       -0.01802363 -0.026170434 -0.027720751 -0.0036230888
000280 38 5e c8 3b 03 ab 7d 3b 3b 7c 90 3c 8b b2 93 bc
       0.0061147474 0.0038706667 0.017637363 -0.018029472
000290 7e e6 23 bc 92 c4 6c bb 47 a6 28 bc 7e 37 21 bc
       -0.010003684 -0.0036127907 -0.01029355 -0.0098398905
0002a0 b4 26 80 bc a5 e1 66 bc 65 27 80 3b bf 95 2b 3d
       -0.015643455 -0.014091884 0.003910946 0.041890856
0002b0 ac 99 82 3c 73 a3 54 3c e8 14 49 3c 20 1b 98 3c
       0.015942417 0.012978422 0.012273051 0.018567622
0002c0 05 6d 0e bc 2f 69 08 3d a9 53 40 bc c4 90 ae bc
       -0.0086929845 0.033303436 -0.011738696 -0.021309264
0002d0 42 b0 25 3c 65 0b eb 3b cb af af bb a1 63 c3 bc
       0.010112824 0.007172989 -0.0053615323 -0.023851218
0002e0 38 b7 8d 3c 1b 0f 8e bd d8 9f 11 bd 5c 28 56 bc
       0.01729928 -0.06936475 -0.03555283 -0.013071146
0002f0 98 25 85 bc 3b c2 45 3c 90 a2 cc bb e1 11 9f 3c
       -0.016253278 0.012070234 -0.006244965 0.019417705
000300 ed 1b a6 3c 66 16 a4 bc ec 84 9d 3c 15 24 09 bd
       0.020276988 -0.020030212 0.019228421 -0.033481676
000310 6f bd 1b bc 25 fa d6 bb c1 21 e5 3c 6a 82 90 bc
       -0.009505614 -0.0065605813 0.027970197 -0.017640311
000320 c1 2a 00 bd a3 5b 46 bc 02 51 c8 b9 98 e8 31 bd
       -0.031290773 -0.012106809 -0.00038207328 -0.04343471
000330 d3 34 34 3d a0 e3 88 bc 62 aa 21 bd b9 74 e6 bb
       0.04399569 -0.016710103 -0.03946913 -0.0070329574
000340 85 6a 32 3c ae 3e d7 bc 7e a6 93 3c 60 14 4d 3b
       0.010889654 -0.026275005 0.018023726 0.0031292662
000350 5e 9a c0 bc 56 3f 5c 3c 71 ba bb 3b 5d 18 d7 bb
       -0.023511108 0.013442835 0.0057290127 -0.0065641836
000360 90 dc 48 3b b9 05 84 3c 39 eb ad bc 77 52 b7 bc
       0.0030649044 0.01611601 -0.021230327 -0.02237819
000370 e5 09 2a bc 43 c4 33 bd 66 96 49 bd fa df 3f bd
       -0.010378336 -0.04388834 -0.049215697 -0.04684446
000380 a4 c0 08 bd 85 5c 38 3d b6 34 5e bc bb 26 58 bd
       -0.03338684 0.04501011 -0.013562372 -0.05277131
000390 df b0 a1 3a 9a ca ee ba 15 b5 9d bc e6 7b 85 3c
       0.0012336037 -0.0018218339 -0.019251386 0.016294431
0003a0 91 fe 86 bb c7 d7 dc ba d6 e2 90 bc c8 ee 90 bc
       -0.004119702 -0.0016848975 -0.017686289 -0.017691985
0003b0 f2 d5 87 3c 2d fb 78 3c 5e d7 83 bc ab 98 54 3c
       0.01658151 0.015196604 -0.016093906 0.012975852
0003c0 eb 40 53 bd 73 54 f0 3c b9 af 99 3c c5 5e a4 bc
       -0.051575582 0.029337144 0.018760549 -0.02006472
0003d0 d8 a8 39 bc c0 a9 fb bb c4 b3 5a 3b 3a 67 31 bc
       -0.011331759 -0.007680148 0.0033371309 -0.010827834
0003e0 71 f0 f1 bc 78 c2 82 bc 43 04 7e 3c 0f 70 d4 bc
       -0.029533597 -0.01596187 0.015503946 -0.02593234
0003f0 ce 7c 5b 3a 0d cf ba 3c 96 44 69 bd f6 36 fa bb
       0.00083727844 0.022803808 -0.056950174 -0.0076359464
