checkpoint/without_perturb/SGD/mlp_epoch159_seed0.pt (torch, 67297 bytes, 3 tensors)

fc1.weight f4 [4096, 2]
0	0x3de8b9ab	0.11363538
1	0x3f8a0bea	1.0784886
2	0x3e71ef28	0.23626387
3	0x3f044a2c	0.5167568
4	0xbef5c756	-0.48003644
5	0xbe5b61db	-0.21424048
6	0xbe9c2f84	-0.30505002
7	0x3fe2da74	1.7722917
8	0xbfb66681	-1.4250032
9	0xbf6653e6	-0.8997177
10	0x3f7f0fae	0.996333
11	0x3fc470b6	1.5346897
12	0x3fc43b24	1.5330548
13	0x3f4b0b12	0.79313767
14	0x3e84d884	0.25946438
15	0xbfd66ee2	-1.6752589
16	0xbfb83ce9	-1.4393588
17	0x3ea74c94	0.32675612
18	0xbde74959	-0.11293287
19	0xbe3bb058	-0.18328989
20	0xc0157cc0	-2.3357391
21	0x3fae9566	1.3639343
22	0xbf4c3c40	-0.79779434
23	0x3fc3d33e	1.5298841
24	0x3ea2e029	0.31811646
25	0x3ff87f55	1.9413859
26	0x3ec222a8	0.37917066
27	0x3e87293c	0.26398647
28	0x3ff7b51c	1.9352145
29	0xbfb25bda	-1.3934281
30	0xbfe68312	-1.800875
31	0xbf1b17b6	-0.60583055
32	0xbd37e437	-0.044895377
33	0x3e8c554b	0.27408823
34	0xbd70d22e	-0.058794193
35	0x3f8315d2	1.0241034
36	0xbe0c251d	-0.13686033
37	0x3ec74824	0.38922226
38	0x3f5d8a46	0.86539114
39	0xbdbae6da	-0.09126063
40	0x3f3e03f4	0.7422478
41	0x3db76706	0.08955197
42	0xbf47d34c	-0.7805679
43	0xbe35b32a	-0.17744127
44	0xbef1a325	-0.47194782
45	0x3f565cbf	0.8373527
46	0xbfe334ca	-1.7750485
47	0x3f742c06	0.95379674
48	0x3e2ffdfc	0.17186731
49	0xbc82cd68	-0.015967086
50	0xbef7ee15	-0.4842383
51	0x3fc2108b	1.5161299
52	0xbe1a1d01	-0.15050127
53	0xbf902f2f	-1.1264399
54	0xbfb2dff6	-1.3974597
55	0xbfd44dc8	-1.6586237
56	0xbf89a919	-1.075473
57	0xbfcb7c05	-1.5897223
58	0xbeb5df82	-0.35522085
59	0xbf39cca1	-0.72577864
60	0x3ee1f1c6	0.4412977
61	0x3e64d2a7	0.22345982
62	0xbf91045f	-1.1329459
63	0x3eb74375	0.35793653
64	0xbf5c1922	-0.8597585
65	0xbfa63085	-1.2983557
66	0xbf1ed59d	-0.620447
67	0x3e1c4bec	0.15263337
68	0xbf8ce27d	-1.1006619
69	0xbecb18b1	-0.39667276
70	0xbf8bf7bf	-1.0934981
71	0xc02796fa	-2.6185899
72	0xbef646b0	-0.48100805
73	0x3f26fb57	0.65227264
74	0xbdce3925	-0.10069493
75	0xbf388dac	-0.72091174
76	0x3ed9059e	0.42387098
77	0xc00b1a32	-2.1734738
78	0x3fad094e	1.3518465
79	0xbf773586	-0.96566045
80	0xbec5bcbf	-0.38620564
81	0xbe6c2f5e	-0.23064944
82	0x3c503ef6	0.012710324
83	0x4000ab86	2.010469
84	0x3edccd71	0.4312549
85	0x3f2fb6c7	0.6863827
86	0xbf8dfd10	-1.1092854
87	0xbf345f7d	-0.70458204
88	0x3f23a84b	0.6392867
89	0xbf405d26	-0.75142133
90	0xbe5aec9e	-0.21379325
91	0x3f4233a2	0.75860035
92	0xbfac0577	-1.3439168
93	0xbee0497d	-0.43806067
94	0xbf18f8d1	-0.59754664
95	0x3ebf33ab	0.37344107
96	0xbfb9db08	-1.4519968
97	0x3fcdb5f2	1.607115
98	0xbf417eb2	-0.75583947
99	0x3f8a9391	1.0826284
100	0x3f217523	0.6306936
101	0x3e622a4d	0.22086449
102	0xbfbf44f6	-1.494292
103	0xbfa4888c	-1.2854171
104	0x3c43330f	0.011914029
105	0xbe2cd6ec	-0.16878861
106	0xbec6dce1	-0.38840392
107	0x3f9b8cf8	1.2152395
108	0xbe1cd11b	-0.15314142
109	0xbfc19961	-1.5124933
110	0xbf68fbea	-0.9100939
111	0xbfcd7acf	-1.6053103
112	0xbec77938	-0.3895967
113	0xbf8a9ef2	-1.0829756
114	0xbeb004a3	-0.34378538
115	0x3f74b91f	0.9559497
116	0xbddf916d	-0.1091641
117	0x3ee02308	0.43776727
118	0xc0010efb	-2.0165393
119	0xbe45f045	-0.19329937
120	0xbf93a493	-1.1534599
121	0x3e7e7e2d	0.2485282
122	0xbd9e268d	-0.07722197
123	0xc0246a57	-2.5689905
124	0xbf69b736	-0.9129518
125	0x3f7251a7	0.9465584
126	0xc0040001	-2.0625002
127	0x3f0cdeee	0.55027664
128	0x3f28b944	0.6590769
129	0xbf628bf5	-0.8849481
130	0x3f343ffe	0.70410144
131	0xbf37c05f	-0.7177791
132	0xbf063f43	-0.5244028
133	0x401ba5de	2.4319987
134	0x3eb42354	0.35183203
135	0x3f724664	0.9463866
136	0x3ef7df3d	0.48412505
137	0x3f3942dc	0.72367644
138	0xbe8b9b6a	-0.2726701
139	0x3f55f791	0.8358088
140	0x3dabe4b4	0.08393231
141	0x3f025910	0.5091715
142	0x3f34f692	0.70688736
143	0xbf9979c5	-1.1990286
144	0x3f6dcef3	0.92893904
145	0x3bb82cc5	0.0056205713
146	0x3fda5f0e	1.7060258
147	0x3fcf0097	1.6172055
148	0xbeb61df1	-0.35569718
149	0x3f9befef	1.2182597
150	0xbf07f4df	-0.5310802
151	0xbebaeae5	-0.36507335
152	0xbda54423	-0.08069637
153	0x3f74d794	0.95641446
154	0x3f5c01d5	0.85940295
155	0x3f3463f3	0.7046501
156	0x3f5d351d	0.8640917
157	0x3fcb8a35	1.5901552
158	0xbeb5e8d5	-0.355292
159	0x3ebe288d	0.37140313
160	0x3ff14d55	1.8851725
161	0x3b8c3b2e	0.0042795157
162	0x3b8b9cf5	0.004260654
163	0x3e93809f	0.28809068
164	0xbf976384	-1.1827245
165	0x3e71a57e	0.23598287
166	0x3e82ab9e	0.2552156
167	0x400f4fb7	2.2392404
168	0x3ff0a238	1.8799505
169	0x3f25742e	0.646304
170	0xbfafb600	-1.3727417
171	0x3f666a7b	0.90006226
172	0x401b83fb	2.4299304
173	0x3f5c94b1	0.86164385
174	0x3de16c78	0.11007017
175	0x3f0e678a	0.5562674
176	0x3ef5ed24	0.48032486
177	0xbff1d030	-1.8891659
178	0xbfbf2582	-1.4933321
179	0xbf01cc0b	-0.5070197
180	0x3fba44ef	1.4552287
181	0x3f3db7ac	0.74108386
182	0xbde77030	-0.11300695
183	0xc05b5d33	-3.4275634
184	0xbe306683	-0.17226605
185	0xbe2839f9	-0.16428365
186	0x3f90c683	1.1310581
187	0x3e846900	0.2586136
188	0x3f4aac28	0.7916894
189	0xbf9174cc	-1.1363769
190	0x3fd82e0d	1.6889054
191	0x3fc2605b	1.5185655
192	0xbe9a9bd3	-0.3019701
193	0x4000bad6	2.0114036
194	0xbe32be68	-0.17455447
195	0x3f916e17	1.1361722
196	0xbf324b3c	-0.6964605
197	0xbfa02000	-1.2509766
198	0x3dccc9a6	0.09999399
199	0xbe921868	-0.28534245
200	0xbe0a60e7	-0.13513528
201	0xbec49957	-0.3839824
202	0x3e4bcdc1	0.19902708
203	0x3e547ae3	0.20750003
204	0xbf7d93c1	-0.9905358
205	0xbffa0db6	-1.9535434
206	0x3fb0f2aa	1.3824055
207	0x3d93d771	0.072188266
208	0xbf58157c	-0.8440778
209	0xbed05293	-0.40688
210	0xbe8dadfc	-0.27671802
211	0xbf54ffdd	-0.83202916
212	0x3e82220f	0.2541661
213	0x3fa7c5d8	1.3107252
214	0xbe321bc2	-0.17393401
215	0x3fddbabd	1.7322613
216	0x3eb83c25	0.35983387
217	0x3f993095	1.1967951
218	0x3cb6d10f	0.022316484
219	0xbf9dc924	-1.2327008
220	0xbf9f6e86	-1.2455604
221	0xbf6843fa	-0.90728724
222	0x3f61f616	0.8826612
223	0xbf5cf169	-0.8630586
224	0xbf318d7d	-0.6935652
225	0xbf92dd23	-1.1473736
226	0x3f9c010d	1.2187821
227	0xbe3d295a	-0.18472806
228	0xbf7f3e4d	-0.9970444
229	0xbfd2b4f5	-1.6461474
230	0x3e36a258	0.17835367
231	0xbf35d31d	-0.7102526
232	0xc037bb39	-2.8708022
233	0xbfa00af0	-1.2503338
234	0x3ea5ceff	0.32384488
235	0x3f40166a	0.750342
236	0xbf728a49	-0.94742256
237	0x3d803fb3	0.0626215
238	0x3c3d32f1	0.01154779
239	0x3f9ad967	1.2097596
240	0x3f34b921	0.70594984
241	0xbeff3426	-0.49844474
242	0x3bdc2244	0.006717952
243	0x3fa89615	1.3170801
244	0xbf865ea7	-1.0497636
245	0x3f38f5ed	0.7225025
246	0xc055a7b8	-3.3383617
247	0xbf4ef8f2	-0.8084861
248	0x3f8c527e	1.0962675
249	0xbfb0d55d	-1.3815113
250	0x3e45d283	0.19318585
251	0x3f1c5dbd	0.61080533
252	0x3f2c2f40	0.672596
253	0x3f5f2f71	0.87181765
254	0x3fcefe4a	1.6171353
255	0xbf0646eb	-0.5245196

fc1.bias f4 [4096]
0	0xbfa5f979	-1.2966758
1	0x3db85014	0.08999649
2	0xbec0a769	-0.37627724
3	0xbfc1e03b	-1.5146555
4	0xbf04c106	-0.5185703
5	0xbfe79939	-1.8093635
6	0xbf5ace2e	-0.85470855
7	0xbf18dcf9	-0.5971218
8	0xbf08d117	-0.53444046
9	0xbef10b0c	-0.4707874
10	0xbf10953f	-0.5647773
11	0xbef06f6e	-0.46960014
12	0x3e4df757	0.20113884
13	0xbf161e4b	-0.58639973
14	0x3c198947	0.009371108
15	0xbedd8165	-0.43262783
16	0xbf19eaf0	-0.6012411
17	0xbf06ffb0	-0.527339
18	0x3c101cee	0.00879596
19	0xbe995ba5	-0.29952732
20	0xbf916a69	-1.1360599
21	0xbf5bf971	-0.8592749
22	0xbfa28a18	-1.2698393
23	0x3ea91ed5	0.33031335
24	0xbf0de8ac	-0.55433154
25	0xbe98851a	-0.29789048
26	0xbe8978c2	-0.26849943
27	0xbf813c28	-1.0096483
28	0xbf2aa0ab	-0.6665141
29	0xbfe45e19	-1.7841216
30	0xbfe449d7	-1.7835034
31	0xbedbea02	-0.4295197
32	0xbf4db774	-0.8035805
33	0xbfb3c7fb	-1.4045404
34	0x3e2f4077	0.17114435
35	0xbfc20f07	-1.5160836
36	0x3ed7f826	0.4218151
37	0xbf3f8246	-0.74808156
38	0xbe88f769	-0.2675126
39	0xbf27b207	-0.65506023
40	0xbfbd23d6	-1.4776561
41	0x3d675e68	0.056486517
42	0x3e676206	0.22595987
43	0xbfacdadf	-1.3504294
44	0xbfa38460	-1.2774773
45	0xbeac8f60	-0.33703136
46	0xbf1b882e	-0.6075467
47	0xbf8f10a8	-1.1176958
48	0xbf894d52	-1.0726721
49	0x3f69fab3	0.9139816
50	0xbf4a8a20	-0.7911701
51	0xbfab2cc1	-1.3373033
52	0xbfb845a9	-1.4396259
53	0x3e9220c9	0.28540638
54	0xbf8e253e	-1.1105115
55	0xbd0d8e1e	-0.03455936
56	0xbf8e1b3b	-1.110206
57	0xc00d8da3	-2.2117698
58	0x3df959fa	0.12175365
59	0xbf060043	-0.5234415
60	0x3f2856b5	0.65757304
61	0xbf1f0972	-0.6212379
62	0xbffd90d5	-1.9809824
63	0xbf8e49fc	-1.1116328
64	0xbfa0930b	-1.2544874
65	0xbf0093f5	-0.50225765
66	0xbf9d5e16	-1.2294338
67	0xbf334bf5	-0.70037776
68	0xbf760e99	-0.96116024
69	0xbf449d25	-0.76802284
70	0xbfae0b66	-1.3597229
71	0x3d35738e	0.044299655
72	0x3e3738e4	0.17892796
73	0xbf157a89	-0.583901
74	0xbde58a3f	-0.11208009
75	0xbf869fb1	-1.0517484
76	0xbf49dc8a	-0.7885214
77	0xbefa2974	-0.4885975
78	0xc0283b05	-2.6286023
79	0xbee674f1	-0.45011094
80	0xbf058ae1	-0.5216504
81	0xc000fb12	-2.015324
82	0xbf7ae358	-0.9800315
83	0x3f22c82d	0.63586694
84	0x3e96b776	0.29436845
85	0xbf90b0d7	-1.1303967
86	0xbf34b668	-0.7059083
87	0xbf93492b	-1.1506704
88	0xbf1546e2	-0.58311284
89	0xbf2c431f	-0.6728992
90	0xbee8342b	-0.453523
91	0xbf47f8e8	-0.78114176
92	0xbf9ba30d	-1.2159134
93	0xbeeb912f	-0.46009204
94	0xbf8a25f4	-1.0792832
95	0xbfc083df	-1.5040244
96	0x3ebc7dec	0.3681482
97	0xbe952b91	-0.291348
98	0xbf9a9582	-1.2076876
99	0x3dcc0e95	0.09963719
100	0x3f955b61	1.1668512
101	0xbf63fccb	-0.89057606
102	0xbdaeb0d6	-0.085298225
103	0xbff554b4	-1.9166474
104	0xbedbb85e	-0.42914099
105	0xbf0a2824	-0.539675
106	0xbea0d319	-0.31411055
107	0xbf83990f	-1.0281085
108	0xbff1d6f0	-1.8893719
109	0xbf6bb71a	-0.92076266
110	0xbf99e8bb	-1.2024149
111	0xbebdab21	-0.37044623
112	0x3e890dd8	0.26768374
113	0xbf2fdb7a	-0.6869427
114	0xbf7d0339	-0.9883304
115	0xbeca74b4	-0.39542162
116	0xbf71d326	-0.9446281
117	0xbf713fe4	-0.94238114
118	0xbe8903f3	-0.26760826
119	0xbef58a00	-0.47956848
120	0xbea3a38d	-0.31960717
121	0xbfa30db9	-1.2738563
122	0x3dba4e80	0.09097004
123	0xbf2e4a20	-0.68081856
124	0x3cccb719	0.024989652
125	0xbfed66a8	-1.8546953
126	0xbec2af77	-0.38024494
127	0xbf594819	-0.8487564
128	0xbf6ca114	-0.92433286
129	0xbdc5f8b3	-0.09666576
130	0xbf0dd7ee	-0.5540761
131	0xbfdc972a	-1.7233632
132	0xbf2db2d5	-0.67851
133	0x3cc2e4c9	0.023790734
134	0xbf8b641f	-1.088993
135	0xbfa6596c	-1.2996039
136	0xc0058523	-2.086251
137	0xbfc97288	-1.5738077
138	0xbf432149	-0.76222664
139	0xbeb0beea	-0.34520656
140	0xbfa0afae	-1.2553613
141	0xbe56591f	-0.20932434
142	0xbf0b9c4b	-0.5453536
143	0xbfae886f	-1.3635386
144	0xbeb8e5c3	-0.36112794
145	0xbe6e82e5	-0.2329212
146	0xbf372622	-0.7154256
147	0xbf61d536	-0.8821596
148	0x3eb55279	0.35414484
149	0xbf8df47a	-1.1090233
150	0xc005d7fd	-2.0913079
151	0xbf21e4a2	-0.6323949
152	0xbd1b8efd	-0.03797816
153	0xbf530294	-0.8242581
154	0xbe6abcec	-0.2292363
155	0x3e51ca19	0.2048725
156	0xbf7dffdf	-0.99218553
157	0xbf734883	-0.9503252
158	0x3dfd22cd	0.12360153
159	0xbe2b37ab	-0.16720454
160	0xbe794331	-0.24342038
161	0xbfa86787	-1.3156594
162	0xbec715db	-0.38883862
163	0xbfbc0c68	-1.4691286
164	0xbef636ef	-0.48088786
165	0x3f1f9ac8	0.6234555
166	0xc002e789	-2.0453818
167	0xbf97134e	-1.1802766
168	0x3e27adf7	0.16374956
169	0xbf039bf2	-0.5140983
170	0xbe781044	-0.24224955
171	0x3e596b89	0.21232428
172	0xbf190684	-0.5977557
173	0x3f097621	0.53695875
174	0xbf314a76	-0.69254243
175	0xbf393573	-0.7234718
176	0xbfb3177d	-1.3991543
177	0xbf6116b6	-0.8792528
178	0xbf4aa615	-0.7915967
179	0xbc086e23	-0.00832704
180	0x3e30658f	0.17226242
181	0xbf56f310	-0.83964634
182	0xbea564db	-0.3230351
183	0xbf727d86	-0.94722784
184	0x3b9cbdd9	0.004783374
185	0xbf25c91e	-0.64760005
186	0x3d4a7c56	0.049434982
187	0xbf0ceec3	-0.5505182
188	0xbf463cec	-0.7743671
189	0xbfd0b21f	-1.6304358
190	0xbf2e88df	-0.681776
191	0xbfae4309	-1.3614208
192	0xbee515f7	-0.4474332
193	0xbf9ccc59	-1.2249862
194	0xbe57f42c	-0.21089238
195	0xbfca8827	-1.58228
196	0xc006cbdb	-2.1061924
197	0xbf0f3a60	-0.5594845
198	0xbfbf2fad	-1.4936424
199	0xbff15f0b	-1.885713
200	0xbfd92a71	-1.6966077
201	0xbf0e35a0	-0.55550575
202	0xbf7d6d67	-0.9899506
203	0xbec909b9	-0.3926523
204	0xbe383cdf	-0.1799197
205	0x3ed5ef2d	0.4178404
206	0x3f3a3e55	0.7275136
207	0xbf032f15	-0.51243716
208	0xbe6a7f14	-0.22900039
209	0xbc13337d	-0.008984444
210	0xbf8ff05a	-1.1245224
211	0xbf6db8aa	-0.928599
212	0xc004ab9d	-2.0729744
213	0xbea60f67	-0.32433626
214	0xbef5773c	-0.4794253
215	0xbee1f57d	-0.44132605
216	0xbfadc080	-1.3574371
217	0xbf883fbd	-1.0644451
218	0xbfa43fa5	-1.2831923
219	0xbf6dd040	-0.9289589
220	0x3e9640e2	0.29346377
221	0xbe76f320	-0.24116182
222	0xbeef54d4	-0.46744406
223	0xbeedb54a	-0.46427375
224	0xbd193d34	-0.037411883
225	0xbf0d77d5	-0.55260974
226	0xbf5d65b5	-0.8648332
227	0xc0247633	-2.5697143
228	0xbe63d137	-0.22247778
229	0x3f266337	0.6499514
230	0xbfcc8e30	-1.5980892
231	0xbfca0d09	-1.5785228
232	0xbfdbf351	-1.7183629
233	0x3e1c8e09	0.15288557
234	0xbf9d6f4c	-1.229959
235	0xbf7b5eca	-0.9819151
236	0x3c376ab8	0.011194877
237	0xbfc83b84	-1.5643163
238	0xbf8cce7c	-1.1000514
239	0xbf9d5c43	-1.2293781
240	0xbed5a7dc	-0.4172963
241	0xbf2c84c4	-0.67390084
242	0xbfa6f761	-1.3044244
243	0x3da01c09	0.07817847
244	0xbfddb1c7	-1.7319878
245	0xbfbee97f	-1.4915007
246	0xbfae3c64	-1.361218
247	0xbf80ee04	-1.0072637
248	0xbf366025	-0.71240455
249	0xbe5f203a	-0.21789637
250	0xbf875963	-1.0574154
251	0xbe9f920b	-0.3116611
252	0xbf50be0b	-0.8153998
253	0xbfdda431	-1.7315732
254	0xbf4241a1	-0.7588139
255	0xbfee4714	-1.8615441

fc2.weight f4 [1, 4096]
0	0x3c5817b7	0.013189248
1	0x3c0b67e5	0.008508657
2	0xbc1ba0c4	-0.009498779
3	0xbb812033	-0.003940606
4	0x3d0aec2e	0.033916645
5	0x3c406546	0.0117428955
6	0x3c995814	0.018718757
7	0x3ca1fd87	0.019774212
8	0x3c15497e	0.00911176
9	0x3be796eb	0.0070675514
10	0x3a1963e8	0.0005851374
11	0xbcfe10b9	-0.031013833
12	0x3ce43e08	0.02786161
13	0xbc2ebdbf	-0.010665356
14	0x3acfa7d9	0.0015842869
15	0xbd3ea4bc	-0.04654382
16	0x3d1a3acd	0.037653733
17	0xb9c0a556	-0.0003674428
18	0x3b99929e	0.0046866676
19	0x3cfaf500	0.030634403
20	0xbd453352	-0.048144646
21	0x3c0cf7e0	0.00860402
22	0xbd11f4fc	-0.035634026
23	0x3c378e8d	0.01120342
24	0x3c73ac15	0.0148725705
25	0x3c85fcb4	0.01635585
26	0x3d4b56a0	0.04964316
27	0xbc036547	-0.008019752
28	0x3c637118	0.013881944
29	0x3c88d5ff	0.016703604
30	0xbc7ee2e7	-0.015557027
31	0x3cd50f4a	0.026008267
32	0xbc608dea	-0.01370571
33	0x3baca88d	0.0052691163
34	0x3c33d716	0.010976573
35	0x3c37b9cc	0.011213731
36	0x3bbbedaf	0.005735121
37	0x3cb954ba	0.022623409
38	0xbcb29c23	-0.021802967
39	0xbc13c719	-0.009019637
40	0xbc90ef72	-0.017692301
41	0x3c823759	0.015895532
42	0xbcc6bc46	-0.024259698
43	0x3c4eaddb	0.012614693
44	0x3cdab125	0.026695797
45	0x3ce9b58f	0.028528957
46	0xbcd3d56f	-0.025858609
47	0xbce28dfb	-0.027655592
48	0xbcc41dd7	-0.02394001
49	0x3d07bcaa	0.03313891
50	0x3c9f97e7	0.019481612
51	0xbc8cb871	-0.017177792
52	0x3d154934	0.036446765
53	0x3b3a5d7a	0.0028437064
54	0x3abd446a	0.0014439945
55	0x3d26a398	0.04068336
56	0xbcb73cb3	-0.02236781
57	0xbbfb8bf4	-0.007676596
58	0x3ce45861	0.027874174
59	0xbad97d02	-0.0016593041
60	0x3cd73170	0.02626869
61	0xbb1c574c	-0.0023855744
62	0xbb4c2f37	-0.0031156072
63	0xbcf6dd11	-0.03013471
64	0x3ced7bea	0.02898975
65	0xbbf54f1a	-0.0074862363
66	0xbd0ebe5e	-0.034849517
67	0x3c9ea70c	0.019366764
68	0x3affe76e	0.0019523927
69	0x3b9df0e0	0.0048199743
70	0x3c00aee5	0.007854198
71	0xbcf049b6	-0.029332023
72	0xbc39da3b	-0.011343534
73	0xbd0087da	-0.03137956
74	0x3d050b92	0.032481737
75	0x3cccb31a	0.024987746
76	0x3b3b208a	0.002855333
77	0xbd2b4d17	-0.041821565
78	0xbd3dc6ee	-0.046332292
79	0x3bbfa337	0.005848314
80	0x3c21374d	0.009839845
81	0xbcd62f93	-0.026145732
82	0x3beadf0a	0.0071677016
83	0xbc30172e	-0.010747714
84	0x3c1b2987	0.00947035
85	0xbca81d9f	-0.020521937
86	0xbcf0a8c5	-0.02937735
87	0xbd80c31f	-0.062872164
88	0x3d2b8510	0.041874945
89	0x3bb4f18d	0.005521959
90	0x3c01851f	0.007905274
91	0x3c559637	0.013036302
92	0xbc7bb8de	-0.0153639
93	0xbcc98f90	-0.024604589
94	0xbc0caf94	-0.008586783
95	0xbc5ad5d3	-0.013356644
96	0x3c68b337	0.014202884
97	0x3cca0d24	0.024664469
98	0xbcc5f5d4	-0.024165072
99	0x3cf32768	0.029681876
100	0xbc99f37e	-0.018792864
101	0x3bc16f47	0.005903158
102	0xbcb6933a	-0.022287
103	0x3c3ca5d4	0.011514146
104	0x3c544b04	0.012957338
105	0x3babce19	0.0052430746
106	0x3d0d7a68	0.034540564
107	0xbc78d106	-0.015186554
108	0xbceb54a8	-0.02872689
109	0xbcd6c2b0	-0.026215881
110	0x3c899e3a	0.016799081
111	0xbd160fd7	-0.0366362
112	0x3d545296	0.051836573
113	0x3c7a5a71	0.015280352
114	0xbcee457d	-0.029085869
115	0xbd1961ae	-0.03744667
116	0x3c534c9a	0.012896681
117	0x3cde5c28	0.027143553
118	0x3ced6d61	0.02898282
119	0xbd1ce463	-0.038303744
120	0x3d01ecb5	0.031719882
121	0xbc045de7	-0.008079029
122	0xbc65d7a3	-0.014028463
123	0xbbce6f96	-0.006299923
124	0xbc980fdf	-0.018562255
125	0x3c55f86f	0.0130597195
126	0xbbcab636	-0.006186272
127	0x3bcfd7b9	0.006342855
128	0xbb18b783	-0.002330274
129	0xbbb10e6f	-0.005403332
130	0xbb9c018d	-0.004760927
131	0x3d0503a3	0.03247417
132	0x3c5f153d	0.013615903
133	0x3ac0f975	0.0014722781
134	0xbcb8d35a	-0.022561718
135	0xbcac29a1	-0.021015944
136	0xbb645a69	-0.0034843928
137	0xbd19deda	-0.037566043
138	0x3a7ffb60	0.0009764936
139	0xbc649429	-0.01395134
140	0xbaffb8d3	-0.0019510038
141	0xbd032f95	-0.0320278
142	0xbc4e5cfb	-0.01259541
143	0x3d3264a0	0.043552995
144	0x3c182201	0.009285451
145	0x3b8ee93d	0.0043613003
146	0x3c0bc3fd	0.008530614
147	0xbc06ed95	-0.008235355
148	0xbd79a006	-0.060943626
149	0xbc58921d	-0.01321843
150	0x3c6773c8	0.0141267255
151	0x3cf38a1b	0.02972894
152	0x3a13fb62	0.0005645064
153	0xbd183227	-0.037157204
154	0xbbc08322	-0.0058750072
155	0xbc88677f	-0.016650913
156	0x3887893c	6.4628635e-05
157	0xbc344c66	-0.011004543
158	0xbbb4db9a	-0.0055193426
159	0xbb59ebb8	-0.0033252072
160	0x3c7e7971	0.015531884
161	0x3cd5f6e8	0.02611871
162	0xbc08514a	-0.008320162
163	0x3cb17627	0.021662785
164	0x3ce9d66c	0.028544627
165	0xbcd63017	-0.026145978
166	0xbbebc95a	-0.007195634
167	0xbca2255e	-0.019793209
168	0xbb5c6af4	-0.0033633085
169	0x3d04ae24	0.032392636
170	0x3bc36baf	0.0059637646
171	0xbc1a30f4	-0.009411085
172	0xbcfca018	-0.030838057
173	0x3a08db79	0.0005220692
174	0xbcddfcf3	-0.027098155
175	0x3c7d1df9	0.015449041
176	0x3d086e89	0.03330854
177	0xbcda2de8	-0.026633218
178	0x3d0e8447	0.03479412
179	0x3d090c26	0.03345885
180	0x3c5afe64	0.0133663155
181	0x3ce61fcb	0.028091332
182	0x3b691af6	0.0035569048
183	0x3cead112	0.028664146
184	0x3cd757c4	0.026286967
185	0x3d443b1b	0.04790793
186	0x3ae26e70	0.0017275345
187	0x3bdef918	0.0068045966
188	0x3cb62b04	0.022237308
189	0xbceb898d	-0.028752113
190	0x3c489bd4	0.012244184
191	0xbcb6538f	-0.02225664
192	0x3bf0205b	0.007328076
193	0xbb255a99	-0.0025231002
194	0x3a55bc31	0.0008153348
195	0x3b760b34	0.0037543299
196	0x3c7524bd	0.014962372
197	0xbcb3724c	-0.021905087
198	0x3c422fe9	0.011852243
199	0x3d0d062a	0.034429707
200	0x3ad03ae5	0.0015886693
201	0x3ca5bff3	0.02023313
202	0x3c2a99eb	0.0104126735
203	0xbb369a5e	-0.0027863006
204	0x3c58f380	0.013241649
205	0xbd1e6a7f	-0.03867578
206	0x3c0a15e3	0.00842807
207	0x3ae20ad4	0.0017245659
208	0x3c44f0ed	0.012020332
209	0xbd00f580	-0.031484127
210	0x3d16433e	0.03668522
211	0x3b141a8d	0.0022598833
212	0x3c36c6a4	0.011155758
213	0xbc8391bf	-0.016060708
214	0x3ca765d0	0.02043429
215	0xbb238b5b	-0.0024954889
216	0x3c39422a	0.011307279
217	0xbd0c8cf6	-0.03431412
218	0x39b7d9bd	0.00035066708
219	0x3d18fcc6	0.03735044
220	0x3cd3c678	0.025851473
221	0x39734a1d	0.00023201895
222	0x3cd6abfc	0.026205055
223	0xbd274d26	-0.04084506
224	0xbcf66223	-0.030076092
225	0xbd21d11c	-0.039506063
226	0x3ccd4301	0.025056364
227	0xbc38112e	-0.011234565
228	0xbc41065f	-0.011781304
229	0x3cc93710	0.024562389
230	0x3cf2ebe4	0.029653497
231	0x3bbe4453	0.0058064847
232	0x3c1db416	0.009625455
233	0x3c729864	0.014806841
234	0x3c856cee	0.016287293
235	0x3c8757c3	0.01652134
236	0xbc9d809a	-0.019226361
237	0xbc83991b	-0.016064217
238	0x3c719ca5	0.01474682
239	0x3cb396eb	0.02192255
240	0xbce9681d	-0.028492028
241	0xbcaae525	-0.020861218
242	0xbd061b2d	-0.03274076
243	0x3cd63e1b	0.026152661
244	0xbd257431	-0.040394012
245	0xbd07fa17	-0.03319749
246	0xbbdfd37b	-0.0068306304
247	0x3c23d0d8	0.009998523
248	0xbcc2ca6f	-0.023778168
249	0xbd311d1e	-0.04324066
250	0x3ccdda82	0.025128607
251	0xbca297d9	-0.019847797
252	0xbcb6a547	-0.022295607
253	0x3c93b365	0.018029878
254	0x3ceb830e	0.028749015
255	0xbb705732	-0.0036673066
