checkpoint/without_perturb/SGD/mlp_epoch132.pt (torch, 67261 bytes, 3 tensors)

fc1.weight f4 [4096, 2]
00000000: 92dd c7bf 2399 793f bf04 dcbe 99af 88bf
00000010: 6f99 843d 6258 083e 457f d03e c75b 4ebf
00000020: 9f71 3bbf 93ad 313e 9b16 3040 8442 9fbf
00000030: 3213 4fbf cc49 c03f a22a 1abf 4b06 57be
00000040: 9160 933e eb22 09c0 c96b 85bf 2320 cfbc
00000050: 4d37 b4bf 78ef 04bf 4502 00bf 90d9 cdbe
00000060: bd0f 553e 8c9b 97bf 2487 21bd e63b 60bf
00000070: 2699 cbbf 1ef0 9c3f 1338 2fbf 4b14 43bf
00000080: 218e 46be 185b 14be 76bc 853f 75f7 b1bf
00000090: 59fa 363f 0480 193f 36fd 5e3e acbe 05be
000000a0: cf32 903f fdeb 01c0 f069 e63e f1bb 593f
000000b0: 5fb7 55bd 0adc 313f 9697 9bbf c7e4 083f
000000c0: aa2f bebd c75a 263e 8238 723d b768 433f
000000d0: b8d3 833f 0eaa 863f 4362 c33d ca96 c03d
000000e0: 66e1 c23e c8f6 2c3f a131 293e 274b 2dbe
000000f0: 3ecd 983f e72a ca3e 089c 4a3f 7f6f 0fbf
00000100: 1de5 623e 20bf 72bf 62da 51bf 5b91 f9be
00000110: 4454 a1bf fc0d 1a3f 0cdb bcbf d39a eabd
00000120: f595 9f3e 793f 32bf 7319 853e d83b 37bf
00000130: 0fa6 e73d 26ad 91bf 031b a03f 156f 30bf
00000140: 099d f93d f97f 113d f34b f2be 1a3f ce3f
00000150: 086e d8bf 1cce 8b3f f30e a23d 99a0 e8be
00000160: a444 19bf ceb4 1b3f 97e9 bdbe 8c7e 153f
00000170: a129 c73f 811c 9f3f a6dc b13f 16bd 9bbf
00000180: 3e3a 4abf 2de2 dabf 09a1 0840 f010 8bbf
00000190: ccc4 4cbf 47b5 ca3d 9ee4 5dbf a3ad f33f
000001a0: 5a25 7e3f e1c3 cabf 7d2d 1ebf 65cf 0e3f
000001b0: 4f8d 9f3f a370 82be 39cb 5bbe 58bf db3e
000001c0: 6da7 4fbd f50d 2240 53eb 4b3d 4ed0 4f3f
000001d0: 0748 933e 730d bd3c d24f ea3e 0bc6 5e3f
000001e0: 4e37 383d 1b98 b1bf d4c2 8b3e af1d ab3f
000001f0: c4da 8cbe 9307 f93e 2753 4ebf 3bf5 8c3f
00000200: 6910 eb3f e6ff c6be b04e a6bf 4e7c 48bf
00000210: 03be 40bf 0f81 a8bf 803e 003f baad eabf
00000220: 9295 263f f496 febd 8a23 483c 732f 983e
00000230: 0f49 99be 12a6 1040 3b59 cabf eb84 df3e
00000240: 2f59 52bf 1914 bfbf d73f 873f f754 f23c
00000250: e7a1 6abf d804 0ac0 4f73 333f 6716 eabc
00000260: f466 433f aef9 0dbf 3466 ccbc 2714 38bf
00000270: d5c5 91bf 9118 d9be adf3 97bf f707 55be
00000280: 1876 c0be a081 483e 8d26 d63e 2f53 a1bf
00000290: b0cc 033e 4b6d c23f e7bd acbe c4c4 903f
000002a0: ba76 e63f 00ac 5c3e 7187 d33f 25d9 663f
000002b0: 523a 49be ee88 debf d61e 8c3e b8ce 19c0
000002c0: ff31 08be 17c1 5bbf 7471 72be 2563 f53f
000002d0: a832 573e 16fd 1b40 4dde 49bf 18bc 8d3f
000002e0: 0858 533f 6902 dbbe ee2b 64bf 6e42 0abe
000002f0: 261b c4be e891 133f e86d e33f 4020 61bf
00000300: fcb5 8bbe c505 71bf d291 863f 423f eb3e
00000310: 3a25 bfbe 5fb4 b4bf 8ca4 f0bf 4b03 d6bd
00000320: 2913 0040 35cb 2cbf d9e1 d63f 4b7b afbf
00000330: 9440 cdbd 40e8 233f 68d1 90bf 5f48 963f
00000340: 102c 8f3f b579 1840 4374 9a3f 0e7b 3c40
00000350: 818c 84bf 97ca e0be 6151 9bbf f576 edbf
00000360: e834 b5be c8e1 203f f804 b33f f1d1 403f
00000370: d0f6 65bf 8c6c 56be 3366 48bd 2f2b 523f
00000380: f3b3 febd ae46 d5bf ad49 fabe 694b e1bc
00000390: 25e7 2f3f 7dcf 98bf cf78 ae3e 52a4 a43f
000003a0: 203c af3f fd2d b43e f8a4 0c3f 6dff 0a3f
000003b0: 4d98 febd 8247 ff3e 65ea 3f3e 0ac8 823f
000003c0: 678f 553f fabf 63bf 80c3 efbe 1f46 c03d
000003d0: 26a4 ad3f cb61 abbe 89f5 b63f 2e02 283e
000003e0: b942 28bf 301e 0fbf 3086 e9bf cd3e cb3f
000003f0: 25c5 79be 7a79 13c0 d28b 48be c527 61bd
-1.5614493 0.97499293 -0.4297237 -1.0678588 0.06474578 0.13314965 0.407221 -0.8060879
-0.7322025 0.1735137 2.7513797 -1.2442174 -0.80888665 1.5022521 -0.602213 -0.20998494
0.28784612 -2.1427562 -1.0423518 -0.025283879 -1.4079376 -0.519279 -0.50003463 -0.4020505
0.20806785 -1.1844344 -0.03943552 -0.875914 -1.5906112 1.2260778 -0.6844494 -0.7620284
-0.19390155 -0.14487875 1.0448139 -1.3903643 0.7147575 0.5996096 0.2177628 -0.13061017
1.1265506 -2.0300286 0.450027 0.850524 -0.05217683 0.6947638 -1.2155635 0.53474087
-0.09286435 0.16245566 0.05913592 0.7633166 1.0298986 1.0520647 0.09540226 0.09403761
0.3806259 0.6756406 0.16522838 -0.169232 1.1937635 0.39485857 0.79144335 -0.56029505
0.22157712 -0.94822884 -0.8197385 -0.4874371 -1.2603841 0.6017759 -1.4754348 -0.114553116
0.31169096 -0.696281 0.2599598 -0.7157569 0.1131097 -1.1380966 1.2508243 -0.689195
0.12188155 0.035522435 -0.4732357 1.6113007 -1.6908579 1.0922275 0.079130076 -0.45435026
-0.5987036 0.6082276 -0.37092277 0.5839622 1.5559579 1.2430574 1.3895462 -1.216708
-0.7899512 -1.7100273 2.1348288 -1.0864544 -0.7998779 0.09897857 -0.8667697 1.9037365
0.99275744 -1.5841027 -0.6178816 0.5578521 1.2464999 -0.2547656 -0.21464242 0.4291942
-0.05069678 2.5321019 0.04978497 0.8117722 0.2876589 0.023077702 0.45764023 0.8702094
0.044974618 -1.3874544 0.2729708 1.3368434 -0.27510655 0.4863859 -0.8059563 1.1012338
1.8364383 -0.3886711 -1.2992764 -0.78314674 -0.75289935 -1.3164386 0.5009537 -1.8334267
0.65071976 -0.12431136 0.012215504 0.297237 -0.29938552 2.2601361 -1.5808481 0.43656096
-0.82167333 -1.4928008 1.0566357 0.02958153 -0.91653293 -2.1565456 0.7009782 -0.028575135
0.7632897 -0.55459106 -0.024951078 -0.7190575 -1.1388499 -0.42401555 -1.1871239 -0.2080382
-0.37590098 0.19580698 0.41826287 -1.2603511 0.12871051 1.5189604 -0.33738634 1.1310048
1.8004982 0.21549988 1.6525708 0.90175086 -0.19651154 -1.7385538 0.27367276 -2.403242
-0.13300322 -0.85841507 -0.23676091 1.9170882 0.21015418 2.4373221 -0.7885483 1.1073027
0.825562 -0.42775276 -0.8912953 -0.13501903 -0.38301963 0.5764451 1.7767916 -0.87939835
-0.2728728 -0.9414943 1.0513251 0.459467 -0.3733309 -1.4117545 -1.8800216 -0.10449847
2.0011694 -0.6749757 1.6787673 -1.3709501 -0.10022083 0.6402626 -1.1313906 1.1740836
1.1185322 2.3824284 1.206673 2.9450107 -1.0355378 -0.43904564 -1.213421 -1.8551928
-0.35391927 0.62844515 1.3985891 0.75320345 -0.8982973 -0.20939845 -0.04892559 0.8209714
-0.12436666 -1.6662195 -0.48884335 -0.027501779 0.68712074 -1.193832 0.34076545 1.2862647
1.3690224 0.35191336 0.5493922 0.54296 -0.12431393 0.49859244 0.18741758 1.0217297
0.8342194 -0.8896481 -0.46828842 0.093883745 1.3565719 -0.33473048 1.4293681 0.16407081
-0.6572681 -0.5590544 -1.8244076 1.587854 -0.24391611 -2.3042893 -0.19584587 -0.054969568

fc1.bias f4 [4096]
00000000: c8ad b1be 2a9f fdbf 1dd1 95bf 980d 37bf
00000010: b161 2dbf da8b b63e 2691 f73d 3bab 2abe
00000020: a7c3 6c3c c162 033f e672 063f 8ff4 22be
00000030: c5d8 aabe 4cff b0bf f2a9 b9bf 313a 8fbf
00000040: 3da7 b33e 9e4d 44bf 8875 8bbf 0939 1f3d
00000050: c320 ecbe c02b a6bf 69e1 21bf 8009 58bf
00000060: 9dc7 f6bf 18c2 81bf 258d 2fbf c385 923e
00000070: 5336 b5bf 9d6f a0bf 5d06 52bf 31b8 aebf
00000080: 5243 babf 3e64 8bbe 1f61 47bf 5d42 89be
00000090: f78c 113f 87b5 fbbe 4435 02bf 8b7a e9bf
000000a0: 3660 63bf a6ae 173e 6b44 b6be 7474 81bf
000000b0: 6744 22bf d6b0 5cbf bd06 55bf 7de8 8dbf
000000c0: 2f3a 85bf 3f65 29bf 4b35 fbbe 6c30 99bf
000000d0: 93ec 23bf 2ba5 993e e544 443c 0184 8fbf
000000e0: 96b9 403f f60d 3bbf 9ac7 acbf 3d67 c6be
000000f0: b8e6 08be fd22 27c0 b528 0dc0 a0ad 0cbf
00000100: 389a a9be 9017 49bf 035c dfbf 9f7a 65bf
00000110: b0da 1dbf 0e30 dc3e 1dbe 79bf 7176 a9be
00000120: a3af 25bf 62c9 8c3e c4fb babf 7ea8 26bf
00000130: 3a9e 793d b1a8 73bf 4b6c d3be f534 d2bf
00000140: 0bb1 c9bf 4d72 10bf 0b17 e5be 5407 86be
00000150: 4917 c9bf 1491 0abf b9e5 dabf 571f 96bf
00000160: b326 9cbf c8f3 3dbe 92db adbf 1e4b e6bf
00000170: 9504 41be b8e8 88bc 5572 a6bf eed2 73bf
00000180: 2d91 f7bf 88df 0fbd 49ca 09c0 6a71 f3bf
00000190: 8c0e 10be 28f9 b9be d751 97bf b73f b43e
000001a0: 4aa3 52be 71a1 90bf 951c e33e cae3 0ac0
000001b0: b4ee 823d f8b0 283f e148 e4be 6efc 6bbf
000001c0: 037a a6be 65c7 503e 2382 ddbf 9c36 58be
000001d0: 9080 883e 286f 95bf 5986 03bf f88f 94be
000001e0: 86ff c0be fc25 cebf 55fa 95bf f206 afbf
000001f0: b43c 86bf e1ac b2bf 13a9 803e 1bbb abbf
00000200: 6904 5bbf cc56 efbe 9fa8 ec3e 757d 9cbe
00000210: 0027 6dbf 1bfb 86bf 593d 80bf 4839 f3be
00000220: 1803 a8bf 8596 9ebf 3758 85bf cef5 b5be
00000230: 34c6 89bf 6dba 77bf d5e8 57bf d87b 65be
00000240: f362 9cbe 68b2 f0bf f82e e3bf a9c6 163f
00000250: c6ad 8dbf edcf 5c3e a624 1fbf eddc efbd
00000260: 467b 8abf 1d02 56bf 5576 3e3f a97a 88bd
00000270: 64ab e4bf 1864 c1bf 0a69 0cbf 3d29 43bf
00000280: 9946 f0be 99cf 18c0 911b 6cbf 553d a7bf
00000290: 4b68 b7be 14b7 1a3e c342 35bf 91e4 02bf
000002a0: e80c 483d 1d65 a3bf 31a3 82bf 7a97 4cbf
000002b0: bce4 f2bf 3eb0 39bf f524 f8be 1609 18c0
000002c0: 09d2 8cbe 5288 f9bb 4a46 88bf ec3d 85bf
000002d0: e16c c1bf 0cc0 88bf eea8 91bf d2d2 f9bf
000002e0: 9cd9 06c0 e607 39bf 46b6 3c3f c06f b1bd
000002f0: 0e03 f0bf 2e5a ecbf 7411 843f 185b 9f3d
00000300: 3d77 453e a95d 70bf 2678 01bf 2ff1 babf
00000310: b388 94bf 46a3 043f 6be1 62be c69f 04bc
00000320: ec0e 1cbf 5735 efbf b6ec a2bf ce2a 80be
00000330: 7b8c 7dbd 202f a8bf dbb2 f5be 3a42 07c0
00000340: cae3 cebf 6373 00c0 6d43 77bf c87f 6cbf
00000350: 25b3 8bbf 11cf 11bf f811 cbbe 2b44 1cbf
00000360: ee3f 03c0 8e51 44bf 84a4 60bf 31bd 1ac0
00000370: 68cd 8dbf 607d ccbf 0f87 41bf c10d 4ebf
00000380: 3b88 2cbf 3f38 e0bf 7110 a9bf e4ae 8bbf
00000390: 99b0 e6be c8f1 36bf 5d7a 30bf 5675 543e
000003a0: 43a8 71bf f0bb 31bf e252 9dbe 3952 58bf
000003b0: ca4c 8bbf 4558 2abf b92f 9dbf 9d84 1ebf
000003c0: bc1d 5cbf b908 e3bf d958 85bf 383b 4cbf
000003d0: 1b30 f1bf c79b 03bf 44ab 9bbf 2ba5 91bf
000003e0: e77d eebe 46b4 93bf 0e27 6dbf 58a4 d1be
000003f0: 368a 01c0 ffe8 8abf 9ccf 4cbf d75b b7bf
-0.34702897 -1.9814198 -1.1704441 -0.7150512 -0.6772719 0.35653573 0.12088232 -0.16666882
0.014450944 0.5132256 0.5251907 -0.15913604 -0.33368507 -1.382791 -1.4504988 -1.1189634
0.3508853 -0.76680934 -1.0895243 0.038872752 -0.46118745 -1.2982101 -0.63234574 -0.84389496
-1.9279667 -1.0137358 -0.68574744 0.28617677 -1.4157203 -1.2534062 -0.8204096 -1.3649961
-1.4551795 -0.27224916 -0.7788257 -0.26808444 0.5685572 -0.49161932 -0.50862527 -1.8240522
-0.8881868 0.14812717 -0.35599074 -1.0113664 -0.63385624 -0.8620733 -0.83213407 -1.1086575
-1.0408381 -0.66170114 -0.49064097 -1.1967902 -0.6403286 0.30008826 0.011979316 -1.1212159
0.7528318 -0.7306818 -1.3498414 -0.3875064 -0.13369262 -2.6115105 -2.2056096 -0.5495243
-0.33125472 -0.7855158 -1.7449955 -0.8964023 -0.61661816 0.43005413 -0.97555715 -0.33098176
-0.64721125 0.27497393 -1.4608083 -0.6510085 0.060941912 -0.9517928 -0.41293558 -1.6422411
-1.5757154 -0.5642441 -0.44744143 -0.26177466 -1.5710231 -0.5412762 -1.7101356 -1.1728314
-1.219931 -0.18550026 -1.3582633 -1.7991674 -0.18849404 -0.016712531 -1.3003641 -0.9524373
-1.9341179 -0.035125285 -2.1529715 -1.9018986 -0.14068049 -0.36322904 -1.182185 0.3520486
-0.20570102 -1.1299268 0.44357744 -2.1701531 0.06393185 0.6589503 -0.44586852 -0.9218205
-0.32514963 0.20388563 -1.730534 -0.21114582 0.26660585 -1.1674547 -0.51376873 -0.2901609
-0.3769495 -1.6105342 -1.171702 -1.3673995 -1.0487275 -1.3959008 0.25128993 -1.3416475
-0.85553604 -0.46745908 0.46222398 -0.30564466 -0.92637634 -1.0545381 -1.0018722 -0.4750464
-1.3125944 -1.2389685 -1.0417546 -0.35539097 -1.0763612 -0.9676884 -0.8433965 -0.22410524
-0.30544242 -1.8804445 -1.7748709 0.5889688 -1.1068656 0.21563692 -0.62165296 -0.1171206
-1.081887 -0.83596975 0.7439931 -0.066640206 -1.7864804 -1.5108671 -0.54847777 -0.762348
-0.46928862 -2.3876708 -0.92229563 -1.3065592 -0.35821757 0.15108901 -0.70804995 -0.51130015
0.048840433 -1.2765232 -1.0206052 -0.79918635 -1.8976054 -0.7253455 -0.48465696 -2.3755546
-0.27503994 -0.0076151276 -1.064645 -1.0409522 -1.5111352 -1.0683608 -1.1379678 -1.9517462
-2.1070318 -0.7227768 0.7371563 -0.08663893 -1.8750932 -1.8465021 1.0317826 0.07781047
0.19283767 -0.93892914 -0.50573957 -1.4604853 -1.1604217 0.51811635 -0.22156303 -0.008094734
-0.6096027 -1.8688153 -1.2728488 -0.25032657 -0.06190155 -1.3139381 -0.47988018 -2.1134171
-1.6163266 -2.0070426 -0.9658726 -0.9238248 -1.0914046 -0.56956583 -0.39662147 -0.61041516
-2.050777 -0.7668694 -0.8775103 -2.4177973 -1.107831 -1.5975761 -0.7559671 -0.80489737
-0.6739537 -1.7517165 -1.3208143 -1.0912747 -0.45056608 -0.7146268 -0.6893671 0.20747885
-0.9439737 -0.69427395 -0.30727297 -0.8450046 -1.0882809 -0.6654094 -1.2280189 -0.619211
-0.8598287 -1.7737037 -1.0417739 -0.7977786 -1.8842806 -0.5140957 -1.2161641 -1.137853
-0.4658043 -1.153939 -0.9263772 -0.40945697 -2.0240607 -1.0852355 -0.80004287 -1.4324902

fc2.weight f4 [1, 4096]
00000000: a673 1b3b cf2e d5ba e82e 483c a6fe 3ebd
00000010: 18a3 e1bc 5ebf 17bc 8040 df3c 4fb2 a2bc
00000020: b59e 84bc 8009 c6bc 691a 05bd 4aca fb3b
00000030: dba8 e3bb 0f01 b53c ca32 2bbd 2e24 7b3b
00000040: e0a2 923c 67d0 53b9 c500 78bc 0d71 b53b
00000050: 117a c3bb 5f34 8cbc b13b 00bc c01c 303c
00000060: 9b0d 853c 8ee1 c53b b09f 8fbb 652f a03c
00000070: a480 bf3c 6dd6 123d 3501 41bc aff6 fdbc
00000080: 81f2 f03c b1bb 253c 39e8 253c c55a c9bc
00000090: cb83 e03c 1d09 8cb9 b295 73bc 73e9 6bbc
000000a0: de4c 91bc 7274 debb 7df9 a1bc 68ba 8bbc
000000b0: dc01 533c 447f d9bc 7798 9c3c f7c8 8a3c
000000c0: a9a4 023b c0c3 37bc 499f 23bc 432e 2ebc
000000d0: d800 e539 e41e 87bc ea3e 6ebc fa61 7e3b
000000e0: 1e7b 88bc 7e64 0abd 24b1 4d3d 2600 893c
000000f0: b601 b23c 1d39 be3c 0f3c 553c 2283 8ebc
00000100: 1a66 19bc 543d 7fbc f7a0 1038 6590 893c
00000110: ea11 5b3c 2b0c d7ba 8b49 09bc 3661 7cbc
00000120: be6e 683c b01f b63c f9d0 863a 2fc1 f0bc
00000130: 5b6b 30bc 3b7a 803c 5ff4 4a3c 0d3c 7fbc
00000140: f476 01bd 63a4 e4bc 4c17 eebc 3df7 0c3c
00000150: 3084 703c 3dd2 d23b 2590 72bc 0b86 3dbb
00000160: 957a 48bc 525c 1f3c 1615 9ebb 1162 00bc
00000170: 7f88 2eba 6e48 183c 8f09 a2bb 01f5 573c
00000180: c02e a03c 271b e73c d274 18bd c451 e83b
00000190: 44c1 2dbc af7b 723b 8438 28bc 6c74 0c3c
000001a0: 7eeb 0c3d 1bd5 d83b eb3a f5bc b15a c6bc
000001b0: 62e6 a4bc a681 5ebc 4e0e 50bc 9319 f83c
000001c0: 9bd1 b33c 6b76 6e3c 755b 143d b8ee 39bc
000001d0: ff15 553b 2004 383a 0a29 8e3c 4dd0 b13c
000001e0: 25c3 133d 12e8 d6bc 3b69 ee3c c4f5 9f3c
000001f0: dfed 3dbc 25fe 503b fc87 383d cb06 033d
00000200: ee82 4d3a 4eea 363c 168a 5bbc 36a8 073d
00000210: fd33 e13c 7995 f8bc f54f c53a e69e 033d
00000220: 6ec6 563c 23f8 143d 8031 d33c a729 e23c
00000230: 2e83 00bd b16b bc3b 1a26 f63c f78d 343d
00000240: cceb 14bd eea9 473c 24c0 fe3c b97d ae3c
00000250: bd0a fe3c c43b 013d dac5 e33c 7217 0f3d
00000260: 1038 42bd 690a 6fbc deb7 f4bc d161 41bc
00000270: 4ba6 93bc 6163 d6bc a116 e3bc 5871 6dbb
00000280: f6f0 c83b 03ab 7d3b 3b7c 903c 8091 94bc
00000290: 7ee6 23bc 992b 6ebb 47a6 28bc 7e37 21bc
000002a0: 8f5f 80bc a5e1 66bc 6527 803b bf95 2b3d
000002b0: ac99 823c 73a3 543c 981f 483c 201b 983c
000002c0: 421b 0fbc 2a54 093d a953 40bc c490 aebc
000002d0: 42b0 253c 650b eb3b cbaf afbb a163 c3bc
000002e0: 38b7 8d3c 1b0f 8ebd b674 11bd cd4b 56bc
000002f0: 9825 85bc 3bc2 453c 90a2 ccbb 420b 9f3c
00000300: ed1b a63c 6616 a4bc 6c0a 9d3c 1524 09bd
00000310: 6fbd 1bbc 6b85 cfbb c121 e53c e857 90bc
00000320: c12a 00bd a35b 46bc 0251 c8b9 98e8 31bd
00000330: 0624 343d a0e3 88bc 38f5 21bd b974 e6bb
00000340: 856a 323c ae3e d7bc d403 953c 6014 4d3b
00000350: 5e9a c0bc 563f 5c3c ceee c23b 5d18 d7bb
00000360: 90dc 483b b905 843c 39eb adbc 7752 b7bc
00000370: e509 2abc 43c4 33bd 6696 49bd 62de 3fbd
00000380: 6c0f 09bd 855c 383d b634 5ebc bb26 58bd
00000390: f93c 973a 9aca eeba f0ae 9dbc cb85 853c
000003a0: 91fe 86bb c7d7 dcba e838 91bc c8ee 90bc
000003b0: f2d5 873c 41fe 773c 5ed7 83bc d091 533c
000003c0: 395f 52bd 7354 f03c b9af 993c c55e a4bc
000003d0: d8a8 39bc e577 fbbb 386b 5c3b 3a67 31bc
000003e0: 71f0 f1bc 78c2 82bc 4304 7e3c 2356 d4bc
000003f0: ce7c 5b3a 0dcf ba3c 9644 69bd f636 fabb
0.0023720055 -0.001626456 0.012218215 -0.04662957 -0.02754359 -0.009261934 0.027252436 -0.019860415
-0.016188959 -0.024174452 -0.03249589 0.007684027 -0.0069476194 0.022095231 -0.041796483 0.0038321125
0.01789993 -0.00020200164 -0.015136902 0.0055371583 -0.005965479 -0.017114816 -0.007826732 0.010749042
0.01624184 0.006038851 -0.00438305 0.01955385 0.02337677 0.035849024 -0.011780073 -0.031001417
0.02941251 0.01011555 0.010126167 -0.024579415 0.027406594 -0.0002670967 -0.014867233 -0.01439892
-0.017736848 -0.0067887837 -0.019772286 -0.017056659 0.012878861 -0.026549943 0.01911567 0.01694153
0.001993457 -0.011216104 -0.009986707 -0.010631147 0.00043678912 -0.016494222 -0.014541367 0.0038815723
-0.01666027 -0.033787243 0.050217763 0.016723704 0.021729331 0.023220593 0.013014807 -0.017396513
-0.009362722 -0.015578587 3.4482186e-05 0.016792485 0.01337097 -0.0016406825 -0.00837935 -0.015404036
0.014186559 0.022231907 0.0010285667 -0.029388992 -0.010767783 0.015683284 0.012387364 -0.015578282
-0.031607583 -0.027910417 -0.029063843 0.008603868 0.014679953 0.0064337538 -0.014804875 -0.0028919007
-0.012236257 0.009726601 -0.004824291 -0.007835881 -0.0006657913 0.009294612 -0.004944987 0.013180972
0.019553542 0.02821119 -0.037220784 0.0070898253 -0.01060516 0.003699999 -0.010267381 0.008572679
0.03440427 0.006617201 -0.02993532 -0.024213167 -0.020129386 -0.013580715 -0.012698723 0.030285632
0.021950534 0.0145546 0.036220033 -0.011348419 0.0032514331 0.00070196576 0.017353553 0.02170577
0.036074776 -0.026233707 0.029102912 0.01952637 -0.011592357 0.0031889763 0.04505156 0.0319889
0.00078396394 0.011164261 -0.0133996215 0.033119403 0.02749061 -0.030344712 0.0015053736 0.03213396
0.013108833 0.036369454 0.02578044 0.027607752 -0.031375103 0.0057501425 0.030047465 0.0440807
-0.036357686 0.0121865105 0.03109748 0.021300184 0.03101098 0.031551138 0.027804304 0.03493447
-0.047416747 -0.014589884 -0.029872831 -0.011803106 -0.01802363 -0.026170434 -0.027720751 -0.0036230888
0.0061322404 0.0038706667 0.017637363 -0.018135786 -0.010003684 -0.0036341904 -0.01029355 -0.0098398905
-0.015670566 -0.014091884 0.003910946 0.041890856 0.015942417 0.012978422 0.012214564 0.018567622
-0.008734526 0.03352753 -0.011738696 -0.021309264 0.010112824 0.007172989 -0.0053615323 -0.023851218
0.01729928 -0.06936475 -0.035511695 -0.013079596 -0.016253278 0.012070234 -0.006244965 0.019414548
0.020276988 -0.020030212 0.019170009 -0.033481676 -0.009505614 -0.0063330433 0.027970197 -0.017620042
-0.031290773 -0.012106809 -0.00038207328 -0.04343471 0.043979667 -0.016710103 -0.0395405 -0.0070329574
0.010889654 -0.026275005 0.018190302 0.0031292662 -0.023511108 0.013442835 0.005948878 -0.0065641836
0.0030649044 0.01611601 -0.021230327 -0.02237819 -0.010378336 -0.04388834 -0.049215697 -0.04684294
-0.033461973 0.04501011 -0.013562372 -0.05277131 0.0011538557 -0.0018218339 -0.019248456 0.016299149
-0.004119702 -0.0016848975 -0.01772733 -0.017691985 0.01658151 0.015136302 -0.016093906 0.012913182
-0.051360343 0.029337144 0.018760549 -0.02006472 -0.011331759 -0.0076742047 0.0033633243 -0.010827834
-0.029533597 -0.01596187 0.015503946 -0.02591998 0.00083727844 0.022803808 -0.056950174 -0.0076359464
